models/FF_with_station/FF_with_station_depth2_width96_batch106.pth (torch, 90816 bytes, 8 tensors)

0.weight f4 [96, 26]
0	0x411203d5	9.125936
1	0xc139fb27	-11.6238165
2	0xbe12ce64	-0.14336544
3	0xbc132bd9	-0.008982622
4	0x3e72666a	0.2367188
5	0x3c32f220	0.010921985
6	0xbd2c0eb7	-0.04200622
7	0xbe4bea76	-0.19913658
8	0x3d8f91bf	0.07010221
9	0xbdd91e98	-0.106015384
10	0xbcfe1ceb	-0.031019649
11	0x3ebfc723	0.37456617
12	0xbe03dae3	-0.12876467
13	0xbffe1ef4	-1.9853196
14	0xc0ad4c9c	-5.4156017
15	0xc0167047	-2.3506029
16	0xbecc8863	-0.39947805
17	0xbdf0f13b	-0.11764761
18	0x3f3c202a	0.7348658
19	0x3f37130a	0.71513426
20	0x3e808665	0.25102535
21	0xbf565ef0	-0.83738613
22	0xbe95853f	-0.2920322
23	0x3eb7d4fd	0.35904685
24	0xbd79f97b	-0.06102894
25	0x3ec7041b	0.3887032
26	0xbf6bd07c	-0.92114997
27	0xc17f8569	-15.970071
28	0xbf74c8a8	-0.9561868
29	0xbf218799	-0.6309753
30	0x3f1ad626	0.60483015
31	0x3db768ac	0.089555115
32	0x3ace8614	0.0015756511
33	0x3eecfffc	0.4628905
34	0xbe8c5893	-0.27411327
35	0xbeff26a7	-0.49834177
36	0x3a02c22d	0.0004988041
37	0xbecc34b4	-0.3988396
38	0xbf21a435	-0.63141185
39	0x3e2eee04	0.17082983
40	0x3e8e419b	0.27784428
41	0x3f11086a	0.56653464
42	0xbe427928	-0.1899153
43	0xbf1a2c60	-0.6022396
44	0xbf03eb86	-0.51531255
45	0xbf457534	-0.7713196
46	0xbf8e0127	-1.1094102
47	0xbeb88134	-0.36036074
48	0x3e645e3b	0.22301571
49	0x3f292713	0.6607525
50	0x3eeda43a	0.46414357
51	0x3c080f4a	0.008304426
52	0xc0fc2cd4	-7.880472
53	0xc0394f3d	-2.8954613
54	0xbe881bb5	-0.2658364
55	0x3ee4e295	0.44704118
56	0x3eb1ffda	0.34765512
57	0x3ed6b351	0.41933683
58	0xbf3ec411	-0.74517924
59	0xbe6b2c24	-0.22966057
60	0x3dc7c2df	0.097539656
61	0x3e041adf	0.12900876
62	0x3e41bd50	0.18919873
63	0xbdc3bdc7	-0.095576815
64	0xbea1dc88	-0.31613564
65	0x3e6cded1	0.23131873
66	0x3e7fa910	0.24966836
67	0x3e6c7394	0.23090965
68	0x3ea97513	0.33097133
69	0x3e180385	0.14845093
70	0xbed119d6	-0.40840024
71	0xbf6d0bbb	-0.92596024
72	0xbf21ffab	-0.63280743
73	0x3e064858	0.13113534
74	0x3f6c130f	0.9221658
75	0xbdd31b9a	-0.10307999
76	0x3e8f129f	0.27943894
77	0xbf67002a	-0.90234625
78	0x4065e1c5	3.5919049
79	0x41594282	13.578737
80	0xbe40fe68	-0.18847048
81	0x3e878022	0.26464945
82	0x3f00cee1	0.5031567
83	0xbe69c43f	-0.22828768
84	0xbda3f33b	-0.08005377
85	0xbe4f0e64	-0.20220333
86	0xbddecaa3	-0.10878494
87	0xbe786143	-0.24255852
88	0xbe46154a	-0.19344059
89	0x3d9a009f	0.0751965
90	0x3d93547c	0.071938485
91	0xbd1945c2	-0.03742004
92	0x3c4b604b	0.012413095
93	0x3f5ac196	0.8545164
94	0x3ea8259c	0.32841194
95	0xbfa20702	-1.2658389
96	0xbf79507e	-0.97388446
97	0xbe783e7d	-0.24242587
98	0x3f949ed3	1.1610969
99	0x3e0a7819	0.13522376
100	0xbf21d803	-0.6322023
101	0x3e5911e3	0.2119823
102	0x3f199bb0	0.60003185
103	0xbf2165f0	-0.6304617
104	0xbffc259a	-1.9698975
105	0x407414a2	3.8137593
106	0xbf42f430	-0.7615385
107	0x3f4cc8b7	0.79993767
108	0xbe87ac42	-0.2649861
109	0x3ea4fa6e	0.32222313
110	0xbebf7b8a	-0.3739894
111	0xbeadb982	-0.33930594
112	0x3ec1b273	0.37831458
113	0x3e85346f	0.26016566
114	0x3edc3e18	0.43016124
115	0xbe1683c7	-0.14698707
116	0xbe354781	-0.17703058
117	0xbed60d01	-0.41806796
118	0x3d255921	0.040368203
119	0xbf589c84	-0.84613824
120	0xbed9d98f	-0.42548797
121	0x3f1f6ffd	0.62280256
122	0x3ed91fa7	0.4240696
123	0xbea56d05	-0.32309738
124	0x3de8d41e	0.11368583
125	0x3eff2ac6	0.4983732
126	0xbc57a98e	-0.013162984
127	0xbf196bc1	-0.59930044
128	0x3ef41ac6	0.47676677
129	0xbe82ee4a	-0.25572425
130	0x3febcf69	1.8422672
131	0x400dcdae	2.2156787
132	0xbe33ed62	-0.17571023
133	0x3b45f68c	0.0030206768
134	0x3ef29cd9	0.4738529
135	0x3ddfae35	0.10921899
136	0xbebb3d10	-0.36570024
137	0xbd2f665a	-0.04282222
138	0xbd3244fb	-0.043522816
139	0xbed1ecd1	-0.4100099
140	0xbf376922	-0.71644795
141	0xbe2c2237	-0.16809927
142	0x3e7fcb75	0.24979956
143	0x3e9c9fdb	0.3059071
144	0x3e60bcce	0.21947023
145	0xbeb71beb	-0.35763487
146	0xbe4e1e42	-0.2012873
147	0x3efc149c	0.49234474
148	0x3f423844	0.75867105
149	0x3eddec29	0.43344238
150	0xbf81c2bb	-1.0137552
151	0xbfb22140	-1.3916397
152	0xbf00df4b	-0.5034072
153	0x3ebe5f86	0.37182254
154	0x3d19cab6	0.037546836
155	0x3f2abaa2	0.6669103
156	0xc126f57f	-10.434936
157	0x40a0843c	5.016142
158	0x3f44ee12	0.76925766
159	0xbf6ee58d	-0.93319017
160	0xbead32e3	-0.33827886
161	0x3d2e629e	0.042574517
162	0xbdf1d5f4	-0.118083864
163	0xbe93a5f6	-0.28837556
164	0xbe35a2b9	-0.17737855
165	0xbde5d1a8	-0.112216294
166	0x3f0c1c70	0.5473089
167	0x3ebabf82	0.36474234
168	0xbd2ab6f3	-0.04167838
169	0xbda1cb4d	-0.07900105
170	0x3e980c76	0.29697007
171	0x3d57ab3f	0.052653547
172	0x3e9cc964	0.306224
173	0xbee4dd60	-0.44700146
174	0xbfc19ebb	-1.5126566
175	0xbf9903f5	-1.1954333
176	0xbf654a61	-0.8956662
177	0xbc68a96c	-0.01420055
178	0x3ddafcf9	0.10692782
179	0xbf1f1ae6	-0.6215042
180	0x3f842deb	1.0326513
181	0x3ef90e88	0.486439
182	0xbf9966ac	-1.1984458
183	0x40e9de39	7.308377
184	0xbe7369bb	-0.23770802
185	0x3e630977	0.2217158
186	0xbe476254	-0.19471103
187	0x3ef814b0	0.48453283
188	0x3e6ff319	0.23432578
189	0xbf541aa2	-0.8285314
190	0xbe4f72f8	-0.20258701
191	0x3e1f8c2a	0.15580812
192	0x3dd9e20b	0.106388174
193	0xbcd6548f	-0.026163368
194	0x3dcc8e95	0.09988133
195	0xbeafb491	-0.3431745
196	0x3e8ff975	0.28120008
197	0x3d868fae	0.065703735
198	0xbeb5f14b	-0.35535654
199	0xbcd457c8	-0.025920764
200	0x3c1a9abb	0.009436305
201	0xbe2a0a22	-0.16605428
202	0x3f3c143b	0.7346837
203	0x3ec61dce	0.38694614
204	0xbfaa464b	-1.3302702
205	0xbf09efdb	-0.53881615
206	0xbf0e44dd	-0.5557383
207	0x3fac773b	1.3473886
208	0xc03e4c27	-2.973398
209	0xc0f82171	-7.754082
210	0x3e279d52	0.16368607
211	0x3f14f63a	0.5818821
212	0xbf8ece13	-1.1156639
213	0xc08d3e19	-4.4138303
214	0xc081b005	-4.0527368
215	0xbfbef186	-1.4917457
216	0x3ed5f5a5	0.41788974
217	0x3e2c1046	0.16803083
218	0x3cb50dec	0.022101365
219	0x3dfae5a2	0.1225083
220	0x3c4801f8	0.012207501
221	0x3e27f664	0.16402584
222	0x3d5ca4b2	0.053868003
223	0xbdac192c	-0.08403239
224	0xbe3916fe	-0.18075177
225	0xbda9878f	-0.08277809
226	0x3e3fd057	0.18731819
227	0x3e38dc1a	0.18052712
228	0x3db8e3b7	0.09027808
229	0x3ecc0e44	0.39854634
230	0x3ea106a2	0.31450373
231	0x3db8d35d	0.09024689
232	0xbda4d7de	-0.08048986
233	0x3ed40d16	0.41416234
234	0x40960409	4.6879926
235	0x41a115cf	20.135649
236	0x3f5befb2	0.8591262
237	0x3f1b3fe8	0.6064439
238	0xbf1846d1	-0.5948306
239	0xbe993181	-0.2992058
240	0x3f6ef24b	0.9333846
241	0xbf0db291	-0.55350596
242	0xbd879cea	-0.06621726
243	0x3eaf35c8	0.3422072
244	0x3dbc1f99	0.09185714
245	0xbef17646	-0.47160548
246	0xbf20cc0f	-0.6281137
247	0xbc6694c6	-0.014073556
248	0x3ebe8f9a	0.37218934
249	0x3e9f3c0d	0.31100503
250	0xbdc1613d	-0.09442375
251	0xbd5219cc	-0.051294133
252	0x3ef1371a	0.47112352
253	0xbb845972	-0.004038983
254	0xbdd13bea	-0.10216506
255	0xbe411f6a	-0.1885964

0.bias f4 [96]
0	0xc1ccf61f	-25.620176
1	0xbe87dceb	-0.26535735
2	0x40008cd2	2.008595
3	0x412aad94	10.667377
4	0x411229d5	9.135213
5	0xc13ee77b	-11.931514
6	0xc17dae27	-15.855018
7	0xbf4434a4	-0.76642823
8	0x40b4ce1e	5.650161
9	0x411142ce	9.07881
10	0x41202354	10.008625
11	0x4156dbb2	13.428637
12	0xbef346f8	-0.47515082
13	0xbf58ccd4	-0.8468754
14	0xc0a96d76	-5.294612
15	0x40fae5ae	7.840537
16	0xc0e142a0	-7.039383
17	0x3fe57d04	1.7928777
18	0x40ca0d67	6.314136
19	0xc14601d0	-12.3754425
20	0xbfbe5012	-1.4868186
21	0xc17c12ec	-15.75462
22	0xc191bf1b	-18.218313
23	0xc2282fde	-42.046745
24	0x40d30944	6.594881
25	0xbee331ef	-0.44374034
26	0x412e16b0	10.880539
27	0x40ce36e3	6.4442
28	0xc02034be	-2.5032191
29	0xbfbf6c9b	-1.4955019
30	0x3f4e906f	0.8068914
31	0x40afb8e3	5.491319
32	0x40946d47	4.6383395
33	0x40cf91b9	6.4865384
34	0xc1eb65bc	-29.424675
35	0xc08fd28b	-4.494451
36	0x41724a64	15.143162
37	0x414be843	12.7442045
38	0x4166107a	14.379023
39	0x3f557297	0.83377975
40	0x4101cef1	8.113023
41	0x41110095	9.062642
42	0x4044b219	3.0733702
43	0x41145a70	9.272079
44	0x40fecc63	7.9624496
45	0xc104bb71	-8.295762
46	0x41ba238d	23.267359
47	0x402dbdf2	2.7147183
48	0xc101c8ab	-8.111491
49	0x4194c6e4	18.597115
50	0xbe24750e	-0.16060278
51	0x41759f72	15.351427
52	0x40bbc6a0	5.867996
53	0xbf9979d7	-1.1990308
54	0xc09d5e0e	-4.9177313
55	0xc154e0bb	-13.304866
56	0xc08770d4	-4.232523
57	0x3f7d3b42	0.98918545
58	0x412990d4	10.597858
59	0xc0a42034	-5.128931
60	0x3ff2d493	1.8971123
61	0xc0efba08	-7.491459
62	0xc031b1f7	-2.776487
63	0xc03cc2ec	-2.949397
64	0xc093625a	-4.605756
65	0x412895d0	10.536575
66	0xc0cb6205	-6.3557153
67	0xc0538635	-3.3050663
68	0x4184a8fc	16.582512
69	0x3e9af273	0.302631
70	0xc0b733c6	-5.72507
71	0x40eb5a7c	7.3547955
72	0x416e7bec	14.905254
73	0xc0a1694c	-5.0441036
74	0x412b60e0	10.711151
75	0xc13ed7a2	-11.927645
76	0xc1210d98	-10.065819
77	0xc1b1aba5	-22.20881
78	0xbfc457fa	-1.5339348
79	0xc10bb194	-8.730854
80	0x413188fa	11.095942
81	0xc1397cf0	-11.593002
82	0xbc86508b	-0.016395828
83	0xc11807a4	-9.501865
84	0xbf3d448d	-0.73932725
85	0x4190a6a7	18.081373
86	0xc1be22c7	-23.766981
87	0xc0eb1572	-7.346368
88	0xbfd9fbe7	-1.703
89	0x4024fec5	2.57805
90	0xc1e22d88	-28.272232
91	0x413cb4c9	11.794137
92	0x413f9cd1	11.975785
93	0xbfbec61a	-1.4904206
94	0x40dbe765	6.8719964
95	0x415c181f	13.755889

2.weight f4 [96, 96]
0	0xc04f8d83	-3.2430122
1	0xbed00f0f	-0.4063649
2	0x3e2d5c87	0.16929828
3	0xbd3435b6	-0.043996535
4	0x3f1ca03b	0.6118199
5	0xbd9bdb73	-0.07610216
6	0xbe855546	-0.2604162
7	0xbedc1e46	-0.42991847
8	0xbf8d9091	-1.1059743
9	0x3e44f6b2	0.19234732
10	0xbea7461c	-0.32670677
11	0x3eb1c351	0.34719327
12	0x3d3326bf	0.043738123
13	0xbe6f013d	-0.23340316
14	0x3e3b48df	0.18289517
15	0x3e02de83	0.12780194
16	0xbd90447d	-0.07044313
17	0xbd808600	-0.062755585
18	0x3d74921c	0.059709653
19	0x3ea50c99	0.32236174
20	0xbe63a25b	-0.22229902
21	0x3e456926	0.19278392
22	0x3dfdc368	0.123907864
23	0x3f52f30c	0.8240211
24	0xbef5c187	-0.47999212
25	0xbe833354	-0.25625098
26	0xbe8953e3	-0.26821813
27	0x3f0528c3	0.5201532
28	0x3e1dbe2e	0.15404579
29	0x3c85b861	0.01632327
30	0xbe36faef	-0.17869161
31	0xbf3279ec	-0.6971729
32	0x3e466a8d	0.19376583
33	0xbe452f86	-0.1925641
34	0xc0026cca	-2.03789
35	0xc035e67a	-2.8421922
36	0x3f0d072f	0.55089086
37	0xbd32c5e8	-0.04364577
38	0x3e450df6	0.19243607
39	0x3baa5e35	0.0051992186
40	0x3f95ad46	1.1693504
41	0xbfca538c	-1.5806746
42	0xbfc8da79	-1.5691673
43	0xbeb66d93	-0.35630473
44	0xbd40b61e	-0.04704868
45	0xbec49e7d	-0.38402167
46	0xbf3467d6	-0.7047094
47	0xc02519b9	-2.579695
48	0xbdab9117	-0.08377283
49	0xbed09be8	-0.40743947
50	0xbf026ba1	-0.5094548
51	0x3e2ab908	0.16672146
52	0xbe9116d2	-0.28337723
53	0xbeda494a	-0.4263404
54	0xbfcc88f1	-1.5979291
55	0x3e71fde2	0.23632005
56	0xbf026f36	-0.50950944
57	0x3cfdcc4f	0.030981211
58	0x3f332ea6	0.69993055
59	0xbe9d6705	-0.3074266
60	0x3f92e02a	1.147466
61	0xbe30b75f	-0.1725745
62	0xbed4217d	-0.414318
63	0x3e3e93fe	0.18611142
64	0xbed661d1	-0.41871503
65	0xbec49e7a	-0.38402158
66	0x3eb1ca86	0.34724826
67	0x3ec0a206	0.37623614
68	0xbf65e23b	-0.89798325
69	0x3e558e90	0.20855165
70	0x3db4529a	0.088048175
71	0xbe295e67	-0.16539918
72	0xbc5bca2b	-0.0134149
73	0xc004e5df	-2.0765302
74	0xbf277c00	-0.65423584
75	0xbe92bde7	-0.2866051
76	0xbeb75746	-0.35808772
77	0x3e68132a	0.2266356
78	0x3ec9b3ef	0.3939509
79	0xbe5bdd25	-0.21471079
80	0x3dcd8b31	0.10036314
81	0x3ea117cf	0.31463477
82	0xbf5b0e08	-0.85568285
83	0x3ec336b0	0.3812766
84	0x3df40dbf	0.11916684
85	0xbeb73ea3	-0.35789976
86	0x3c8e4f76	0.017371874
87	0x3dafd0a0	0.08584714
88	0xbedf7886	-0.4364664
89	0x3eab4aed	0.334556
90	0xbfc6d99f	-1.5535163
91	0x3f797000	0.97436523
92	0xbe8ce693	-0.27519664
93	0xbdcc2175	-0.09967319
94	0xbd341045	-0.04396083
95	0x3eff1820	0.49823093
96	0xbf3d3e77	-0.7392344
97	0xbef82f1d	-0.48473445
98	0xbec26804	-0.37969983
99	0xbf29ff47	-0.6640515
100	0x3f03da94	0.515054
101	0x3db859f5	0.09001533
102	0x3e7295e9	0.23689999
103	0x3f0a2b66	0.5397247
104	0xc07576a9	-3.8353674
105	0xb964817a	-0.00021792008
106	0x3f089986	0.5335926
107	0xc076b7f0	-3.8549767
108	0xbedef105	-0.43543258
109	0x3e1cf9f9	0.15329732
110	0x3d07e921	0.033181313
111	0x3f39f405	0.7263797
112	0xbf091271	-0.53543764
113	0xbe2aadce	-0.16667864
114	0xbee178ba	-0.4403742
115	0xbe902926	-0.28156394
116	0x3d76c5a6	0.060247086
117	0x3dbc3ed7	0.09191673
118	0x3f37bf28	0.71776056
119	0x3f2a4e62	0.6652585
120	0x3eb301db	0.34962353
121	0x3f3f4cd9	0.74726635
122	0x3eabc8c5	0.33551612
123	0x3f129d17	0.5727095
124	0x3d2b47a9	0.041816387
125	0x3f1fa2f6	0.62358034
126	0xbeffe9c5	-0.4998304
127	0x3f63fe60	0.8906002
128	0xbe61171a	-0.21981469
129	0x3e4a0568	0.19728625
130	0x3f34b06a	0.70581686
131	0x3e1f0582	0.15529445
132	0xbf593e48	-0.8486066
133	0x3f40d676	0.7532724
134	0xbeef8ced	-0.46787205
135	0xbcde8087	-0.027160896
136	0x3f5f5459	0.8723808
137	0x3eb4f6ca	0.35344535
138	0xbf3a460e	-0.72763145
139	0x3e9710e9	0.2950509
140	0xbe236e37	-0.15960012
141	0x3ed7c194	0.42139876
142	0x3da517b8	0.080611646
143	0xbf3315bd	-0.69955045
144	0xbeb39a5d	-0.35078707
145	0x3d89f0e4	0.06735399
146	0xbfa5fca2	-1.2967722
147	0xbf683b4e	-0.9071549
148	0x3d701580	0.058614254
149	0x3eb844be	0.35989946
150	0xbfcda8cd	-1.6067139
151	0xbed834fe	-0.4222793
152	0x3e8463ef	0.25857493
153	0xbeed21e3	-0.46314916
154	0x3e4cfbd8	0.20017946
155	0xbe78e1c3	-0.24304871
156	0x3e03c954	0.1286977
157	0xbf5d63ab	-0.86480206
158	0x3e086ca6	0.13322696
159	0xbf3b8b0c	-0.73259044
160	0xbf03c151	-0.5146685
161	0xbc8399b0	-0.016064495
162	0x3e41c1f1	0.18921639
163	0x3ea2564d	0.31706467
164	0xbfddc936	-1.732703
165	0x3d68193b	0.056664687
166	0x3f3a9401	0.72882086
167	0x3e7617fd	0.24032588
168	0xbcfbfa9c	-0.030759148
169	0x3f76aade	0.9635447
170	0x3ece20de	0.4025945
171	0x3eddb4ca	0.43301994
172	0x3e29e1a4	0.16589981
173	0x3e918cbd	0.28427687
174	0x3ea2fd1d	0.31833735
175	0xbf2c219d	-0.6723879
176	0x3ccc6cf1	0.024954291
177	0x3cb936e2	0.022609178
178	0x3eca1eb0	0.39476538
179	0x3f136d94	0.5758908
180	0x3f16efb4	0.5895951
181	0xbfc46b12	-1.5345175
182	0x3ea8032e	0.32814926
183	0xbf13bdea	-0.5771166
184	0xbf6d7441	-0.92755514
185	0xbfa5d790	-1.295641
186	0x3f3d034d	0.7383316
187	0x3f2d1fc3	0.6762659
188	0x3e93630e	0.2878651
189	0x3eca7ff3	0.39550743
190	0x3ebb48fe	0.36579126
191	0xbe8edfba	-0.27905065
192	0xbe14bc9a	-0.14525071
193	0x3d6668f7	0.056252446
194	0x3e013989	0.12619604
195	0xbb88f8a5	-0.0041800314
196	0x3f119aa8	0.5687661
197	0x3e551842	0.20810035
198	0x3e9316d3	0.2872835
199	0x3e7afe37	0.24511038
200	0xbf87930d	-1.0591751
201	0xbf1aaa70	-0.60416317
202	0xbe0def32	-0.13860777
203	0x3d50a10d	0.05093484
204	0xbf9a6cd1	-1.2064458
205	0xbcdb1794	-0.026744641
206	0xbcb49c03	-0.022047048
207	0xbf0fc662	-0.56162083
208	0xbdc7c29a	-0.09753914
209	0xbf2ce713	-0.6754009
210	0x3ee74a2a	0.4517377
211	0x3ef8abd3	0.4856859
212	0xbe2aa8da	-0.16665974
213	0xbfa7c861	-1.3108026
214	0x3d2088a9	0.03919283
215	0x3f446179	0.7671123
216	0xbec5ccca	-0.38632804
217	0x3d6dfd2d	0.058102775
218	0xbee1e4a1	-0.44119743
219	0xbeb8bea4	-0.36082947
220	0xbe82f3cc	-0.25576627
221	0xbe2f7527	-0.17134534
222	0x3ea6f889	0.32611492
223	0xbf255443	-0.645817
224	0x3de67d45	0.11254362
225	0x3e9a1454	0.30093634
226	0xbd5d3490	-0.054005206
227	0xbef2a378	-0.47390342
228	0x3e1b2831	0.1515205
229	0xbe54ea72	-0.20792559
230	0xbdde84fb	-0.10865208
231	0xbf2dbeb5	-0.6786912
232	0xbd58b705	-0.052908916
233	0x3e458d20	0.19292116
234	0xbf835518	-1.0260344
235	0x3c565379	0.013081425
236	0xbf6fb3b8	-0.93633604
237	0x3c06b3db	0.008221592
238	0xbf54bf64	-0.8310454
239	0xbe7147bc	-0.2356252
240	0xbed11ab6	-0.4084069
241	0xbeed53cf	-0.46353003
242	0xbb09f323	-0.0021049462
243	0xbf9d2c49	-1.227914
244	0xbed0f6f3	-0.40813407
245	0xbf4851ce	-0.78249824
246	0xbeae3ed3	-0.34032306
247	0xbe0dd558	-0.13850915
248	0x3f007837	0.50183433
249	0xbf62cc1a	-0.88592684
250	0xbd22240e	-0.039585166
251	0xbea32b0e	-0.31868786
252	0x3e74f785	0.23922546
253	0xbf319d24	-0.693804
254	0xbea69779	-0.3253744
255	0xbf11761e	-0.5682086

2.bias f4 [96]
0	0xbfe71c87	-1.8055581
1	0xbf901455	-1.1256205
2	0xbfe55608	-1.791688
3	0x40e39557	7.11198
4	0xc14fec6f	-12.995223
5	0xc106cc3e	-8.424864
6	0xc08bb1f2	-4.365472
7	0xbdd42aa4	-0.103596956
8	0x408935ad	4.287802
9	0x40e3489f	7.102615
10	0x4023dae1	2.5602343
11	0xc1d69795	-26.824015
12	0xc02c115f	-2.6885602
13	0xbe632662	-0.2218261
14	0xc044b39f	-3.0734632
15	0xc0a3bba8	-5.1166573
16	0xc150cdb6	-13.050222
17	0xc03a3d3f	-2.9099882
18	0x40e69e6b	7.206838
19	0x41a4869c	20.565727
20	0x4167e9d6	14.494589
21	0x40874e05	4.228274
22	0xc0cc1efd	-6.3787827
23	0x4137bc93	11.483539
24	0x409494c0	4.643158
25	0x4140b7ec	12.044903
26	0x3ee98d8e	0.4561581
27	0x40634a1c	3.5513983
28	0x40e83198	7.256054
29	0xc12a451a	-10.6418705
30	0x415a72dd	13.653043
31	0x413cc30c	11.797619
32	0x3fc82809	1.5637218
33	0x40c43ab3	6.1321654
34	0xc07853bb	-3.8801105
35	0x3e4be2c3	0.19910721
36	0xbe8a390e	-0.26996654
37	0xbe11e0ce	-0.14245912
38	0x414a414a	12.64094
39	0x40a57427	5.1704288
40	0xc0241c90	-2.5642433
41	0x3fca0f88	1.578599
42	0xbe50207f	-0.20324896
43	0x408f608b	4.480535
44	0x3fbcffc0	1.4765549
45	0x4179734d	15.59065
46	0xc07e4cf7	-3.9734476
47	0xc09c7ec1	-4.890473
48	0x3fe01a1c	1.7507968
49	0x402fc722	2.746529
50	0x41046c74	8.276478
51	0xc07e9285	-3.9776928
52	0x406ac4a0	3.668251
53	0x419810d6	19.00822
54	0xc107124e	-8.441969
55	0xc188b81f	-17.089903
56	0xc2227e85	-40.623554
57	0xc1cf4817	-25.9102
58	0xbfb8d44c	-1.4439788
59	0x4056ab51	3.3542063
60	0xc1e7a351	-28.954744
61	0x40644955	3.5669758
62	0x40e38535	7.1100106
63	0x4108d50c	8.552013
64	0xc0c36dc4	-6.107149
65	0xc13510d4	-11.316608
66	0xc120a414	-10.040058
67	0x3fdb1c66	1.7118042
68	0xc1406841	-12.025453
69	0xc1be3bc7	-23.779188
70	0x3e03fc0a	0.12889114
71	0xc107b5a2	-8.481844
72	0xbd8eb3e3	-0.069679044
73	0xbe210961	-0.15726234
74	0xbfb76311	-1.4327108
75	0xc137e2b7	-11.49285
76	0xbd6617ef	-0.05617517
77	0x40c23b03	6.0697036
78	0x41455aaa	12.334635
79	0xc10fcbe1	-8.987275
80	0x40f3f8e8	7.624134
81	0xc14cfbb4	-12.811451
82	0xc11f6641	-9.962464
83	0x40a98cdb	5.2984443
84	0xc069b972	-3.6519437
85	0xc0d52927	-6.6612735
86	0xc178d2f4	-15.551502
87	0x406c6e96	3.6942496
88	0xbfcdb1f0	-1.6069927
89	0xc11d35a8	-9.8256
90	0xc06cb340	-3.6984406
91	0x40a587f5	5.1728463
92	0x40a7694c	5.2316036
93	0xbdb7af2d	-0.08968959
94	0xc048083d	-3.1255028
95	0x40301c2b	2.7517192

4.weight f4 [96, 96]
0	0xbe60aac7	-0.21940146
1	0x3e67e834	0.22647172
2	0x3e8df473	0.27725562
3	0xbe650f85	-0.22369201
4	0x3e5432b2	0.20722464
5	0x3ed2dc17	0.4118354
6	0xbf436d4b	-0.7633864
7	0xbcc9cc6d	-0.02463361
8	0x3f9239e5	1.1423918
9	0xbc3438d0	-0.010999873
10	0xbf303a60	-0.68839073
11	0x3fa3d336	1.2798831
12	0xbf740614	-0.95321774
13	0xbfd13fec	-1.6347632
14	0x3e452bfe	0.19255063
15	0xbeca47f0	-0.3950801
16	0xbfa419ee	-1.2820413
17	0xbe25f9fa	-0.1620864
18	0xbe819f01	-0.25316623
19	0x3ebe3db5	0.37156454
20	0xbcbe2cf9	-0.023214804
21	0xbf03c937	-0.51478904
22	0xbc8247d3	-0.01590339
23	0x3e9d7f55	0.3076121
24	0x3e809da8	0.25120282
25	0xbde6b73f	-0.1126542
26	0x3e43d303	0.19123463
27	0xbe0e8b28	-0.13920271
28	0xbcb980dc	-0.022644453
29	0xbf96ca21	-1.1780435
30	0xbf22a5b5	-0.635341
31	0xbe803010	-0.2503667
32	0xbf62b55b	-0.88557976
33	0xbed91e4f	-0.42405936
34	0xbe88ba3f	-0.26704594
35	0xbae265cf	-0.0017272773
36	0x3ca5836e	0.020204272
37	0xbea2abba	-0.31771642
38	0xbee28e16	-0.44249028
39	0xbfbe6b2a	-1.4876454
40	0x3e9f5d33	0.31125793
41	0x3e150fb7	0.14556776
42	0xbc1ef536	-0.0097020175
43	0xbe57b292	-0.21064213
44	0x3cc8696b	0.02446433
45	0x3df2eaa6	0.11861162
46	0xbfe23afb	-1.767425
47	0x3eac572b	0.33660254
48	0xbf2adbe7	-0.66741794
49	0xbd2c4c38	-0.042064875
50	0xbe452e60	-0.19255972
51	0x3df138f9	0.11778445
52	0xbf8e3fb7	-1.1113194
53	0xbf19aa44	-0.6002543
54	0x3e42fa46	0.19040784
55	0xbcdd841b	-0.027040532
56	0xbee1c9d5	-0.44099298
57	0x3d67191c	0.05642043
58	0xbe3dff42	-0.18554404
59	0xbedaa864	-0.42706597
60	0xbf4569b3	-0.7711441
61	0xbf3e41aa	-0.74318945
62	0x3ed39e58	0.41331744
63	0x3e2e673a	0.17031565
64	0x3e267501	0.16255571
65	0xbfc25442	-1.5181963
66	0xbda8e6fd	-0.082471825
67	0x3f0e7009	0.556397
68	0xbf72b4ed	-0.9480732
69	0xbf3e23a6	-0.74273145
70	0xbf08783b	-0.5330846
71	0xbcc664b2	-0.024217937
72	0x3d481f8c	0.04885821
73	0xbcc36882	-0.023853544
74	0x3ecb79e4	0.39741433
75	0xbd85aa59	-0.06526632
76	0x3d8992ce	0.06717454
77	0x3de19d20	0.11016297
78	0xbee7b81d	-0.45257655
79	0x3e86d0b8	0.26331115
80	0x3ebeb335	0.372461
81	0x3d5e2683	0.054235946
82	0xbebe8a97	-0.3721511
83	0xbfc4b539	-1.5367805
84	0xbf6b6c81	-0.9196244
85	0xbdabe29b	-0.08392831
86	0x3f4dc0e1	0.80372435
87	0xbf229f4b	-0.6352431
88	0xbf1385df	-0.57626146
89	0x3e77513e	0.24152085
90	0x3d885818	0.066574275
91	0xbdbcfb64	-0.092276365
92	0x3e2f04da	0.17091694
93	0xbd992f3c	-0.07479712
94	0x3ec43681	0.38322833
95	0x3daabb7e	0.083365425
96	0xbece1e85	-0.4025766
97	0xbdc63723	-0.09678485
98	0xbe9dc9ec	-0.30818117
99	0xbd2e6eb4	-0.042586043
100	0x3ec7a9cd	0.38996735
101	0x3e213739	0.15743722
102	0xbf8587d9	-1.0432082
103	0xbc0b2c4a	-0.008494446
104	0x3fe8db1f	1.819187
105	0x3e615c89	0.22007956
106	0xc0708a2e	-3.7584338
107	0x3f4036c6	0.7508358
108	0x3e2f79a0	0.1713624
109	0xc01dfd7f	-2.4685972
110	0xbd59750f	-0.05309015
111	0xbf213aef	-0.6298055
112	0xbe5453b8	-0.20735061
113	0xbe701103	-0.2344399
114	0xbfa8cf81	-1.3188325
115	0xbe9361fc	-0.28785694
116	0x3f6169ad	0.88051873
117	0xbe35dbfc	-0.17759699
118	0x3e23e144	0.16003901
119	0xbe096a54	-0.13419467
120	0x3d99066d	0.07471929
121	0xbffe1fa3	-1.9853405
122	0xbd717cc6	-0.058956884
123	0xbe26ec03	-0.16300969
124	0xbfbc9a27	-1.4734544
125	0x3e60b8c3	0.21945481
126	0xbf036024	-0.51318574
127	0xbf945bf5	-1.1590563
128	0x3e6acbb3	0.22929268
129	0x3fb89da2	1.4423106
130	0x3dcbd76b	0.09953197
131	0xbe3b5042	-0.18292335
132	0xbd0cb7da	-0.034355022
133	0xbce72f58	-0.028220817
134	0x3e9a81f6	0.30177277
135	0xc00eb6ab	-2.2298992
136	0x3f480523	0.7813284
137	0x3deeb046	0.11654715
138	0x3cf65e05	0.030074129
139	0xbd8374f9	-0.06418795
140	0x3bc6a270	0.0060618445
141	0xbe860f97	-0.2618377
142	0xbf75c372	-0.9600135
143	0x3f826e02	1.0189822
144	0xbeccf997	-0.40034172
145	0x3fe7ee86	1.8119667
146	0xbda7dc51	-0.08196319
147	0x3e3320ab	0.1749293
148	0xbfd904a3	-1.695454
149	0xc031eec0	-2.7801971
150	0x3d6fcc34	0.058544353
151	0xbfd85bb1	-1.6902982
152	0x3fa3cf2d	1.27976
153	0xbf231f53	-0.6371967
154	0xbe9158fc	-0.28388202
155	0x3e847374	0.25869334
156	0xbe0c92de	-0.137279
157	0xb974f842	-0.00023362137
158	0x3e344d79	0.17607678
159	0xbfb545d4	-1.4161935
160	0x3f5c7cc3	0.8612787
161	0xbdff43e3	-0.1246412
162	0xbd0533ef	-0.03252023
163	0x3d922347	0.07135635
164	0x3ccecb2d	0.025243366
165	0xbf948759	-1.1603805
166	0x3f4d40e7	0.8017716
167	0x3eaad297	0.33363792
168	0xba8d44ed	-0.0010777988
169	0xbd07b93e	-0.033135645
170	0xbfb04ec6	-1.377404
171	0xbfa75fbb	-1.307609
172	0xc03498a4	-2.8218164
173	0x3dc35621	0.09537912
174	0xc00568ef	-2.0845296
175	0xbf4636f4	-0.774276
176	0xbfc0d529	-1.5065051
177	0x3f0403ce	0.51568305
178	0xbf4d9228	-0.8030114
179	0x3f26f437	0.6521639
180	0xbf16a9fd	-0.5885313
181	0xbf42651a	-0.7593552
182	0x3e102ee8	0.14080393
183	0xc02b4fd7	-2.676748
184	0xbe18b05a	-0.14911023
185	0x3e374d46	0.17900571
186	0xbe6cf39a	-0.23139802
187	0xbf8f003e	-1.1171949
188	0xbd9f0e7b	-0.07766434
189	0xbccc928c	-0.024972223
190	0x3f01d0de	0.5070933
191	0xbedfaa5e	-0.43684667
192	0xbf754e0a	-0.95822203
193	0xbec776de	-0.38957876
194	0xbd8415cc	-0.0644947
195	0xbe87160e	-0.26384014
196	0x3f05c776	0.5225748
197	0xbf4fe9b1	-0.8121596
198	0xbe9203e0	-0.2851858
199	0x3da60e77	0.08108228
200	0x3eb47ee9	0.35253075
201	0xbf29958d	-0.6624382
202	0xbd8a8999	-0.06764526
203	0xbeaea802	-0.34112555
204	0x3e806568	0.25077367
205	0xbf12becd	-0.5732239
206	0xbd81856c	-0.06324276
207	0x3d79a2ac	0.06094615
208	0x3e7a5aad	0.24448653
209	0xbe6e2634	-0.23256761
210	0x3e961e49	0.2931998
211	0x3ecf3a5b	0.4047421
212	0xbf2c8ab4	-0.67399144
213	0x3e03e9f5	0.12882216
214	0xbf05d441	-0.52277
215	0xbec4c938	-0.38434768
216	0x3ed51ae4	0.41622078
217	0xbff4a79c	-1.911365
218	0x3b8562c6	0.0040706126
219	0xbed64ab5	-0.41853872
220	0x3e615abd	0.2200727
221	0xbf18a6f3	-0.59629744
222	0x3ddc2b9b	0.107505046
223	0x3edb07a9	0.42779282
224	0xbec2358b	-0.37931475
225	0xbf2baac7	-0.6705746
226	0x3f040aad	0.5157879
227	0xbf763727	-0.96177906
228	0xbe0b31c2	-0.135932
229	0x3ea7718b	0.32703814
230	0x3f8815d8	1.0631666
231	0xbf0b69cf	-0.54458326
232	0x3bc8710e	0.006116993
233	0xbd94131c	-0.07230207
234	0xbdf44c55	-0.11928622
235	0xbf25e9a3	-0.64809626
236	0xbc2c29bd	-0.010507998
237	0xbd70431e	-0.058657758
238	0xbf09064f	-0.5352525
239	0xbf98a318	-1.1924772
240	0x3e439538	0.19099891
241	0xbd8c1cc7	-0.06841426
242	0xbcb19d62	-0.021681491
243	0xbeb7c465	-0.35892025
244	0x3dd4f30a	0.103979185
245	0xbf8f3a75	-1.1189715
246	0x3d91068e	0.07081328
247	0xbf3c8e3b	-0.73654526
248	0xbf4c6e4d	-0.79855806
249	0xbf38bc29	-0.7216211
250	0xbe63914e	-0.22223398
251	0xbeb737c3	-0.3578473
252	0xbf3ab54c	-0.7293289
253	0xbe3468fe	-0.17618176
254	0xbe6e4903	-0.2327004
255	0xbed08034	-0.4072281

4.bias f4 [96]
0	0xc1caa738	-25.33165
1	0xc0aab16c	-5.334158
2	0x418946ca	17.159565
3	0xc06c2369	-3.6896613
4	0xc19453aa	-18.540852
5	0x4026e7d6	2.6079001
6	0xc0781fbd	-3.8769372
7	0xc1aeeb07	-21.86476
8	0xbf8f09ab	-1.1174825
9	0x40acb22d	5.39675
10	0x40e06327	7.0121036
11	0x404a4236	3.1602912
12	0xbb7dfdc9	-0.0038756004
13	0x405fb6a0	3.4955215
14	0xc12ce4c7	-10.805854
15	0x402da1b8	2.7129955
16	0x41cbe9dd	25.489191
17	0x40d53e88	6.663883
18	0xc085cfc5	-4.1816125
19	0x3e987b44	0.29781544
20	0xc189550e	-17.16653
21	0x40bb2255	5.847941
22	0xc1cb2c07	-25.396498
23	0xc0bd48bb	-5.915128
24	0x3f8c2403	1.094849
25	0x40b6da42	5.714143
26	0xc0490296	-3.1407828
27	0xc1a8c063	-21.093939
28	0xbfae80bb	-1.3633035
29	0x40ccce33	6.400171
30	0xc0b61090	-5.689522
31	0xc0a82ab7	-5.255214
32	0xc0545aa5	-3.3180325
33	0xc0732e6e	-3.7997088
34	0xc208a120	-34.15735
35	0x41489e36	12.538626
36	0x40d1fac8	6.561863
37	0xc115cd7c	-9.362667
38	0xbfc0c9ad	-1.5061547
39	0x3d640452	0.055668183
40	0xc14b3cf3	-12.70238
41	0xbf69fefa	-0.9140469
42	0xbe828b98	-0.25497127
43	0xbf1fa2cc	-0.62357783
44	0x41a581ea	20.688435
45	0xc1747cc9	-15.280465
46	0xbfddf5fb	-1.7340692
47	0x40fca81d	7.8955216
48	0xc13b9aad	-11.725263
49	0xc1678707	-14.470466
50	0xc0b84b6b	-5.7592063
51	0xc13476d5	-11.279012
52	0x3ef7facc	0.4843353
53	0x4126878a	10.408091
54	0xbffc85ff	-1.9728392
55	0xc0931e3f	-4.597442
56	0x4064725b	3.5694797
57	0x4084e845	4.153353
58	0xc1ab0ed3	-21.382238
59	0x401fa896	2.4946647
60	0xc082f6ef	-4.0926433
61	0x412af34b	10.684398
62	0x411b1492	9.692522
63	0x41055ef1	8.335679
64	0xc0143f7b	-2.3163745
65	0xc0b6f038	-5.7168236
66	0xc188ccf7	-17.10008
67	0x4051cfc0	3.278305
68	0xc0f1eb46	-7.55997
69	0xc0431d12	-3.0486493
70	0x409bcc5b	4.8686957
71	0xc0bd0fe0	-5.908188
72	0xc0943499	-4.6314206
73	0xc1ebdc99	-29.482714
74	0x4147099d	12.439847
75	0xc17b3128	-15.699501
76	0xbf947838	-1.1599188
77	0xc0c888c9	-6.2666974
78	0xc0b7276b	-5.723562
79	0xc017ca80	-2.3717346
80	0xbdd135c4	-0.10215333
81	0x408a770d	4.3270326
82	0xc1527ce5	-13.155492
83	0xc143d867	-12.240333
84	0xc068e349	-3.6388724
85	0xc0820945	-4.0636315
86	0x40a7913e	5.2364798
87	0x403af65a	2.921286
88	0x41013c9f	8.0773
89	0x4038be39	2.8866103
90	0x3eb5944a	0.35464698
91	0x3f40b76f	0.752799
92	0xc0780fb9	-3.8759596
93	0xc0bc9e48	-5.8943214
94	0x4098b8d5	4.7725625
95	0x416e57a7	14.8963995

6.weight f4 [6, 96]
0	0xbbb833ba	-0.0056214007
1	0x3ae8ddf8	0.0017766347
2	0x3c91986f	0.017772881
3	0x3d28ef29	0.041243706
4	0xbbc96fc8	-0.0061473586
5	0x3c8c148e	0.017099645
6	0xbc0aaeda	-0.008464539
7	0xbd46e3b9	-0.048557017
8	0x3be9745d	0.0071244673
9	0xbd0a8f31	-0.033827964
10	0xbc43c7c3	-0.011949482
11	0x3c4753e9	0.012166002
12	0x3c2c7a6c	0.0105272345
13	0x3c7c7fc4	0.015411321
14	0x3ce3ecca	0.02782287
15	0x3e6dea20	0.23233843
16	0x3b5beb51	0.0033557008
17	0xbb1b9563	-0.0023740164
18	0x3b0215ed	0.0019849495
19	0xbc3ddaf2	-0.011587845
20	0x3caab65b	0.020838907
21	0x3ca0722d	0.019585693
22	0x3d50500f	0.0508576
23	0xbca91b86	-0.020643007
24	0x3be5c07c	0.0070114713
25	0xb825d2ad	-3.9535273e-05
26	0xbcc1cf1a	-0.023658324
27	0x3a9184d4	0.0011102208
28	0xbcd9c606	-0.026583683
29	0xbca40049	-0.020019667
30	0xbda80276	-0.082035944
31	0x3c6bfd61	0.014403672
32	0xbca66cb7	-0.020315511
33	0x3aafd074	0.0013413564
34	0x3c8f4654	0.01748959
35	0xbd5379ca	-0.05162982
36	0x3c4b56d5	0.012410839
37	0xbb5ebad9	-0.0033985882
38	0x3b449d13	0.003000085
39	0x3cc8399f	0.024441538
40	0x3e0a72c4	0.13520342
41	0x3caa56eb	0.020793399
42	0xbcfdbeba	-0.030974735
43	0x3da05491	0.0782863
44	0x3b24b5a8	0.002513269
45	0x3c082ca0	0.008311421
46	0xbd7fec7f	-0.0624814
47	0xbce3ec51	-0.027822645
48	0x3e5c2b0e	0.21500799
49	0xbc064dfe	-0.008197306
50	0x3cef4b45	0.029210696
51	0x3af6fb11	0.0018843134
52	0xbc27101f	-0.010196715
53	0xbd11ba62	-0.03557814
54	0xbb9a4086	-0.004707399
55	0x3b66561d	0.0035146542
56	0x3d0d900c	0.034561202
57	0xbcbddda9	-0.023176985
58	0x3cefb81b	0.029262593
59	0x3d6d52e9	0.057940397
60	0x3bab9545	0.0052363
61	0x3a9be412	0.0011893532
62	0x3d5c6e79	0.053816292
63	0x3b97f94e	0.0046378737
64	0x3b7f05b5	0.0038913314
65	0x3c0ea060	0.008705229
66	0x3e035a24	0.12827355
67	0x3dbf09b9	0.09328026
68	0x3c707de0	0.014678448
69	0x3d954c4b	0.07289942
70	0x3de3fcc6	0.11132197
71	0xbbc5334d	-0.0060180784
72	0xbcc8620b	-0.024460813
73	0xbd2853c5	-0.041095514
74	0xb9d85659	-0.00041263064
75	0x3d09646e	0.033543043
76	0x39d19260	0.00039972644
77	0xbcb2c540	-0.021822572
78	0x3aeef06d	0.0018229611
79	0x3e705daf	0.23473237
80	0x3b6ef299	0.0036460517
81	0xbc6c1864	-0.014410112
82	0x3b8dbbee	0.0043253815
83	0xbdc78f7b	-0.097441636
84	0xbd67e586	-0.056615375
85	0x3dc2928c	0.09500608
86	0x3dbf392a	0.09337075
87	0xbb937b1f	-0.004500761
88	0x3d1c0ba3	0.038097035
89	0x3d15a2cf	0.03653222
90	0xbd01a64c	-0.031652734
91	0x3c63d90f	0.013906731
92	0xbbe93c05	-0.0071177506
93	0x3c9394d5	0.018015305
94	0xbd487a9d	-0.048945058
95	0x3e3f2d9a	0.1866974
96	0xbcda7653	-0.02666775
97	0x3c46fdf6	0.01214551
98	0x3d1e7dc5	0.038694162
99	0x3e34e2c2	0.17664626
100	0xbd0bff3b	-0.034178954
101	0x3c2b27ff	0.0104465475
102	0xbbfeb8db	-0.0077735013
103	0xbdd59b10	-0.104299664
104	0xbc7d4147	-0.015457458
105	0x3e18ec1b	0.14933817
106	0xbd044210	-0.032289565
107	0x3c8b83c7	0.01703061
108	0x3c8e59af	0.017376749
109	0x3d272af8	0.040812463
110	0x3c93c803	0.018039709
111	0x3e1ce722	0.15322545
112	0x3bbb28b9	0.0057116416
113	0x3bbebcf2	0.005820864
114	0xbd1e6ed6	-0.03867992
115	0x3c9176ee	0.017756905
116	0x3e1c1fbb	0.15246479
117	0x3e179763	0.14803843
118	0x3d804f42	0.06265117
119	0xbd46a9d0	-0.04850179
120	0xbb5c70e8	-0.0033636633
121	0xbae05f37	-0.001711822
122	0xbd4b928e	-0.049700312
123	0xbb915558	-0.0044352226
124	0xbdcafbd2	-0.09911312
125	0xbda6b362	-0.08139683
126	0x3db2c745	0.08729414
127	0x3cd1b9d3	0.025601303
128	0xbcbfa7af	-0.023395387
129	0x3cc9eb28	0.024648264
130	0x3bb01f7f	0.0053748484
131	0xbd52721e	-0.051378362
132	0x3da81b0b	0.08208283
133	0x3a0f3a1e	0.0005463677
134	0x3b31dc77	0.0027139464
135	0x3d70d4c3	0.058796655
136	0x3d1f6e4b	0.038923543
137	0x3d2190a5	0.039444584
138	0xbc54175d	-0.012945023
139	0xbda799cf	-0.081836335
140	0x3c4bffeb	0.012451152
141	0xbc24139c	-0.010014441
142	0xbde5642c	-0.11200747
143	0xbd19d942	-0.03756071
144	0x3dd902f5	0.10596267
145	0xbbc89827	-0.0061216536
146	0x3db7cf2f	0.08975064
147	0xbc3ad0e2	-0.011402341
148	0xbc4aa16b	-0.012367587
149	0xbd8c78b8	-0.06858963
150	0xbccdd9b7	-0.025128229
151	0x3d5dfd2d	0.054196525
152	0x3dd52b6e	0.10408674
153	0xbd4ecea5	-0.05049004
154	0x3d86f0f2	0.065889254
155	0x3e05692b	0.130284
156	0x3c09ef4b	0.008418868
157	0x3c558f9e	0.013034729
158	0x3d88a879	0.066727586
159	0x3b57701d	0.0032873221
160	0xbbd96a9f	-0.0066350247
161	0x3e1eafc0	0.15496731
162	0x3d681a4f	0.056665715
163	0x3e6d291c	0.23160213
164	0x3c1c9333	0.009556579
165	0x3b09b003	0.0021009452
166	0x3e0140dd	0.126224
167	0x3c133938	0.00898581
168	0xbd823f5f	-0.06359743
169	0xbdb560fe	-0.088563904
170	0xb9243c12	-0.00015662637
171	0x3d453f09	0.048155818
172	0x398a941e	0.00026431767
173	0xbccfcf34	-0.025367357
174	0xbbc61006	-0.0060443906
175	0x3f02e8af	0.51136297
176	0x3aae28b8	0.0013287282
177	0xbb083dae	-0.0020788717
178	0x3bb9a847	0.005665812
179	0xbd9d15b0	-0.07670152
180	0xbd8efe6b	-0.0698212
181	0xbd442a50	-0.047891915
182	0x3c55cbad	0.013049048
183	0xbd3e6db8	-0.046491355
184	0x3d8ed453	0.069740914
185	0x3dd4472b	0.10365137
186	0x3c1ddf1b	0.009635712
187	0x3d5a6b01	0.053324703
188	0xbc0f177b	-0.0087336255
189	0x3c4a1368	0.012333728
190	0xbe2f7589	-0.1713468
191	0x3b75f825	0.003753194
192	0xbd7829b8	-0.06058666
193	0x3ca59cbe	0.020216342
194	0x3d20e92f	0.03928488
195	0x3d2f6a21	0.04282582
196	0xbd9d9210	-0.07693875
197	0xbdeb321a	-0.114841655
198	0xbd0f9480	-0.03505373
199	0xbda648dc	-0.081193656
200	0xbd5f8169	-0.054566775
201	0xbcdccd49	-0.026953356
202	0xbc682e0e	-0.014171137
203	0xbc2af23b	-0.010433729
204	0x3d9900ac	0.07470831
205	0x3d919caa	0.071099594
206	0xbcb000a4	-0.02148468
207	0x3d5fa32d	0.054598976
208	0x3ca1676b	0.019702634
209	0x3d1c5509	0.038167033
210	0xbdc4afb1	-0.09603823
211	0x3d6dabab	0.058025043
212	0x3ebce076	0.3689
213	0x3ecea829	0.4036267
214	0x3d7483a6	0.059695862
215	0xbde37edb	-0.1110818
216	0x3b1fc5f3	0.0024379462
217	0x3c1b2160	0.009468406
218	0x3d3b9ce0	0.045803905
219	0xbc9bba19	-0.019009637
220	0xbeade16f	-0.33961055
221	0xbed4b908	-0.41547418
222	0x3d37191c	0.04470168
223	0x3d1b8830	0.037971675
224	0xbd25cde7	-0.040479567
225	0x3d284778	0.041083783
226	0x3d3ee2b3	0.046602916
227	0xbd13f93a	-0.036126353
228	0x3e976a07	0.2957308
229	0x3c0dc0a4	0.008651886
230	0xbca43b11	-0.020047696
231	0x3d34ef24	0.044173375
232	0x3cd5ec72	0.026113722
233	0x3e002069	0.12512363
234	0xbcfe9da8	-0.031081036
235	0xbcdcafde	-0.026939329
236	0x3d2523aa	0.040317215
237	0xbd781328	-0.060565144
238	0xbdab9a32	-0.0837902
239	0xbd0e850c	-0.034794852
240	0x3d04f984	0.03246452
241	0x3b97d48a	0.004633491
242	0x3d1f3e5e	0.038877837
243	0xbc862865	-0.016376683
244	0xbcfd421d	-0.030915314
245	0xbd2fbc00	-0.0429039
246	0xbd6b370f	-0.057425555
247	0x3e204d7d	0.1565456
248	0x3e15d6b8	0.1463269
249	0x3d20b8ca	0.03923873
250	0x3d5e189c	0.054222688
251	0x3da61c7e	0.08110903
252	0xbca17661	-0.019709768
253	0x3d04d8d4	0.032433346
254	0x3d4385b3	0.047734927
255	0x3bc30465	0.0059514516

6.bias f4 [6]
0	0x3a7ecb50	0.0009719627
1	0x3b42c93a	0.002972199
2	0xbb434590	-0.00297961
3	0x3b837f13	0.004012951
4	0x3bd56c4e	0.006513155
5	0x3c13358d	0.0089849355
