models/FF_with_station/FF_with_station_depth2_width48_batch106.pth (torch, 28800 bytes, 8 tensors)

0.weight f4 [48, 26]
000000 e1 21 81 3f 2f de 5b c1 b7 c7 7b 3d a9 6c c9 3d
       1.0088464 -13.741744 0.06146976 0.098351784
000010 34 30 b5 be 38 04 bf 3e 66 0d 82 3f ec 4a 90 be
       -0.3538834 0.37307906 1.0160339 -0.2818216
000020 88 e1 08 bf 34 37 c8 bd 8a 41 19 3e 98 3a 14 be
       -0.53469133 -0.09776154 0.14966407 -0.14475477
000030 6d 2c 0a bd cd 1b 1d 3d f3 0e 15 be 3c 96 a6 3d
       -0.033733774 0.03835659 -0.14556484 0.08134124
000040 ab b8 15 3e 9e 5f e9 3d 8f 70 68 3c 11 d1 8b 3d
       0.14621226 0.11395191 0.014186992 0.068269856
000050 04 fe d9 bd 4f 19 2a be 94 c3 17 3d 2a f5 ab 3d
       -0.10644153 -0.16611217 0.037051752 0.08396371
000060 7e 92 52 3e fa a6 92 be fc a9 3f 41 9e 11 8d c1
       0.20563695 -0.28643018 11.979 -17.633602
000070 0f d9 c3 3e 24 5a 9c 3e d5 25 20 bd 68 f7 c9 be
       0.3825154 0.30537522 -0.03909858 -0.39446568
000080 35 84 57 be 4e 7e 1c bf 28 62 27 be 87 7c b1 3e
       -0.21046527 -0.61130226 -0.16346037 0.3466532
000090 61 69 07 3e cc 99 b5 bd 54 a7 92 3d 67 6e 88 be
       0.13223793 -0.08867225 0.071608216 -0.2664673
0000a0 01 24 9f 3e 36 84 29 be fd ba 91 bf 0b d3 42 bc
       0.31082156 -0.1655434 -1.1385189 -0.011891137
0000b0 86 3d 77 be bc 07 1c be 7a 89 5e 3e ea da 39 3e
       -0.24144563 -0.15237325 0.2173213 0.18149915
0000c0 35 22 70 3e 2f 3d 33 3f 53 18 a3 3e b1 4c 9f be
       0.23450549 0.70015234 0.31854495 -0.31113198
0000d0 cb 51 42 41 59 98 9d c1 29 3c 14 3e 3d 75 a2 be
       12.144969 -19.699389 0.14476074 -0.3173007
0000e0 eb 26 ff bd 07 96 8d 3c f9 5d 16 3e cb 09 5b 3e
       -0.12458595 0.017283453 0.14684285 0.21390454
0000f0 8f c0 01 3e a5 4c 43 3e 43 8f 15 3f 52 5b d1 3c
       0.12671112 0.19072206 0.58421725 0.02555624
000100 8c cc 09 bf e1 fd 39 3d 17 ac aa 3e 2e 82 1e 3f
       -0.5382774 0.045408133 0.3333442 0.6191739
000110 ec a5 f7 3d 2c 04 98 bf 5a 86 84 c0 91 cd 84 c0
       0.12092194 -1.1876273 -4.1414003 -4.1500936
000120 fd c0 9d bf 62 de 9c bf 0a fa 0a 3f 80 67 8a be
       -1.232452 -1.2255366 0.5428778 -0.2703209
000130 4c 1a 3c be 60 d1 94 3e dc d0 c6 3e 3f 5d 44 c1
       -0.18369406 0.2906599 0.38831222 -12.272765
000140 de 7d 31 c0 e4 5d 77 3f 4a a8 21 3e 18 b9 c6 3e
       -2.7733073 0.9662764 0.15786853 0.3881309
000150 14 a8 5a 3e e6 25 96 3e 84 9c f7 bd d9 7e 7f be
       0.21353179 0.2932579 -0.120904 -0.24950732
000160 2b e4 3b 3e b7 48 9e 3e 4b d2 d1 3c 42 90 9e bd
       0.18348758 0.30914852 0.02561297 -0.07742359
000170 95 8d 5e 3b e2 ae 83 be dc e9 c6 be 91 f5 67 3d
       0.0033958901 -0.25719362 -0.38850296 0.056630675
000180 59 6a 17 3c e1 5a bc 3e f9 f2 2d 3e dc 86 ce 3d
       0.009241664 0.36788085 0.16987218 0.10084316
000190 3c 8e bb be 7d ee 32 3e 5a 15 bc 3d 12 19 8a 3e
       -0.36631954 0.17473789 0.0918376 0.26972252
0001a0 f2 9a cd 40 30 c3 36 c1 2d fd 6b bc 58 52 2e bf
       6.425164 -11.422653 -0.0144036235 -0.68094397
0001b0 d8 4b 15 bd b5 f0 4c be 1f 43 97 3d 38 d6 33 3e
       -0.036449283 -0.20013697 0.07385849 0.17562187
0001c0 37 2e de 3d 9b 61 41 3d f9 7f 75 bd 51 af 88 3e
       0.108486585 0.047212224 -0.059936497 0.26696256
0001d0 e8 61 24 3e 1d 73 79 be fc bd 08 bf 88 bb 55 3e
       0.16052973 -0.24360318 -0.53414893 0.20872319
0001e0 66 7f 49 3f cb 19 df 3e 7d 13 59 be 70 7a a8 bf
       0.7871002 0.43574366 -0.2119884 -1.3162365
0001f0 4e db 26 c0 c4 e6 c6 bf 2d c1 c2 bd 8b 1d 5d 3f
       -2.6071353 -1.5539174 -0.095095016 0.86373204
000200 63 04 79 3f c5 82 67 3e d5 2d ec c0 89 20 99 40
       0.9727232 0.22608478 -7.3805947 4.7852216
000210 1f 03 ee 3c 8a 4c cf 3e 61 fd 30 bd 19 27 39 be
       0.029054223 0.40488082 -0.04321039 -0.18081321
000220 a3 96 07 bc ac 57 a4 be 7c 4d 9a 3e 19 6c 0f 3f
       -0.008275661 -0.32098138 0.3013724 0.5602432
000230 1f 67 c9 3d e8 fc c5 bd f1 09 8f 3d f4 48 9e 3c
       0.09834122 -0.09667379 0.06984318 0.019321896
000240 cd 2e 6b 3d 97 34 15 3d c7 2c b4 be c1 a5 34 3e
       0.05741768 0.036427107 -0.35190412 0.17641355
000250 da de a7 3e 75 38 8f 3e c5 e4 0f 3e a5 9b 94 bf
       0.3278721 0.2797276 0.14052112 -1.1609999
000260 83 2a f9 bf 22 d0 76 bf db b2 35 3e 5e 0a 84 3f
       -1.9466099 -0.96411335 0.17744009 1.0315664
000270 bb 38 08 c1 41 8a 9d 41 69 81 3d 3e 2b f6 36 bf
       -8.51385 19.692507 0.18506397 -0.7146937
000280 a0 d7 ff be 25 e3 4a be bd 72 4a 3f 62 0d f6 3e
       -0.49969196 -0.19813211 0.79081327 0.48057085
000290 82 b7 6a be f6 87 32 bf 18 7d 09 bf 71 ad 04 bf
       -0.22921565 -0.6973871 -0.537065 -0.5182715
0002a0 7b d5 b7 be d5 23 0d 3e 6d a8 38 3e 5b b9 00 3f
       -0.3590506 0.137832 0.18033 0.5028283
0002b0 cb 46 ca 3e f9 9b 47 bc 77 fd 6c bd 5c 25 9a be
       0.39507136 -0.012183183 -0.05785891 -0.30106628
0002c0 d8 97 56 bd 70 e5 7e be a0 2a 21 bc 04 67 4b 3f
       -0.052390903 -0.24892211 -0.009836823 0.79454064
0002d0 d6 e3 b8 bd 3d 98 3b 3e 30 fe 3d 40 89 a4 d4 c0
       -0.09027831 0.18319793 2.9686394 -6.645085
0002e0 b5 48 f7 bf 83 eb 27 3d 04 1a 2d 3f 4b 49 f0 be
       -1.9319063 0.040996086 0.6761782 -0.46930918
0002f0 bd 19 25 bf 7f 28 0a 3f b1 6c 0a 3e ec 32 03 be
       -0.644924 0.5396804 0.13518025 -0.12812394
000300 96 17 3e 3e 62 63 03 3e 3b 0d a1 3b e8 be 95 bc
       0.18563685 0.1283088 0.0049149073 -0.018279508
000310 94 39 d0 bd 76 ab 7e bd 6b fb b7 3d 02 6f 6a 3e
       -0.10167232 -0.062175237 0.08983501 0.22893909
000320 9f c2 96 bd ba 43 34 3d 49 35 4d bd 1b 84 2b be
       -0.0736134 0.0440099 -0.050099645 -0.16749613
000330 7f 72 50 be 56 31 69 3e c0 15 08 3f cc 7e c7 3f
       -0.20356177 0.22772726 0.5315819 1.558557
000340 67 ff e7 40 66 9c c1 40 56 d1 90 3e 17 28 14 be
       7.249927 6.0503416 0.2828471 -0.14468418
000350 bb ca 79 be cc f0 d2 3e 97 90 38 bf ff 0d 8c 3f
       -0.24393742 0.41199338 -0.72095627 1.0941771
000360 5d 7f e7 bd 55 b7 7e be 39 96 80 3c 07 04 73 3e
       -0.113035895 -0.24874623 0.015696632 0.23732005
000370 1f 3f 13 be b7 b1 82 be b1 d9 77 bd 49 5b 3e 3e
       -0.14379548 -0.2552621 -0.06051034 0.1858951
000380 7c 82 c2 3d 62 14 54 3d 82 01 4c be b6 0b bb 3d
       0.09497544 0.05177725 -0.1992245 0.09133093
000390 71 2a 00 3e f9 5f 2f bc cd d0 3d be 7c 75 97 3d
       0.1251619 -0.010704034 -0.18536682 0.07395455
0003a0 39 de 87 3e 73 2a cd be 2f eb 24 3f c2 98 ae 40
       0.2653673 -0.4007145 0.6442136 5.456147
0003b0 a4 d5 1b bf ea 6b 66 bf c7 06 8e 3e 48 ae a3 3d
       -0.60872865 -0.90008414 0.27739546 0.07992226
0003c0 40 49 08 bf 1f ec 47 3f 2e 9e 29 3f 03 10 71 3e
       -0.5323677 0.7809467 0.6625699 0.23541264
0003d0 6c 5e 7f be ec 88 bd be 6b 14 82 bd ad 40 93 3d
       -0.24938363 -0.37018526 -0.06351551 0.0719007
0003e0 28 57 8b be 41 55 dc be f9 79 b9 be 7f f4 be 3e
       -0.27214932 -0.43033794 -0.3622587 0.3729591
0003f0 17 66 e2 3e c3 a2 e3 3d 83 eb 8b 3e ff 8e ff 3d
       0.44218513 0.11115029 0.2732812 0.12478446

0.bias f4 [48]
000000 a7 a8 86 c1 80 14 a3 41 0b 82 ab c1 85 8d 38 c1
       -16.83235 20.38501 -21.438498 -11.534551
000010 62 70 d9 c1 14 97 e4 3f c7 d0 0e bf cd 8d 28 c1
       -27.179874 1.7858605 -0.5578732 -10.534619
000020 e9 07 56 41 0d 9d 62 40 68 96 d5 3e 8f 21 e2 41
       13.376931 3.5408356 0.41716313 28.266386
000030 98 6b 67 41 f1 14 03 41 3a a0 9b 3f d6 6e a8 40
       14.463768 8.192613 1.2158272 5.26353
000040 51 6b 1a 41 8b 2d 75 41 55 3d 05 c1 61 9c e9 c1
       9.6512 15.323619 -8.327474 -29.201357
000050 de 19 92 3e 54 9e ac 40 78 3b bb c1 34 af 0c 40
       0.2853536 5.394327 -23.404037 2.1981936
000060 31 8f 92 40 d1 10 65 41 d0 d7 c1 41 12 26 c8 41
       4.5799794 14.316606 24.230377 25.018589
000070 16 65 b6 be 40 48 f1 40 15 8d 92 41 4b 6f 9b c1
       -0.35623997 7.5400696 18.318888 -19.429342
000080 5f bb e9 c1 a9 4b 61 40 e6 d3 1f bf 09 f1 32 41
       -29.21649 3.520243 -0.62432706 11.183846
000090 18 47 ba c1 d6 73 c3 40 6c 7f be 40 df 05 d1 bf
       -23.284714 6.10789 5.9530544 -1.6329917
0000a0 18 5c c8 c1 7e 4c e5 c0 c4 58 81 41 4c a1 93 41
       -25.044968 -7.1655874 16.168343 18.453758
0000b0 61 66 e8 c0 95 4c b4 40 59 ba 62 c0 05 03 97 c1
       -7.2624974 5.6343484 -3.5426238 -18.876474

2.weight f4 [48, 48]
000000 d4 12 04 3f a2 0f dc be 5a 81 48 3f 99 69 a8 3e
       0.5159123 -0.42980677 0.78322375 0.32893065
000010 e2 f0 02 be 86 18 ac 3e a3 57 28 3f 3e 25 84 3d
       -0.12787202 0.3361246 0.65758723 0.06452416
000020 8b d4 eb 3d 1b 50 a1 bd 47 d8 4a bf 8d f6 08 bf
       0.11515149 -0.07876607 -0.79236263 -0.53501207
000030 0d 7e aa bf bc 45 7b 3e 97 a6 3f bc 1f b3 14 be
       -1.3319718 0.2453832 -0.011697433 -0.14521454
000040 d7 f7 92 bf 2e 5e 07 be 64 65 80 3e f5 b3 31 3e
       -1.1481885 -0.1321952 0.25077355 0.17353804
000050 a4 f9 5f be c7 3c 9b bf e7 8f 2e 3d 9d d4 69 be
       -0.21872574 -1.2127923 0.042617705 -0.22835012
000060 41 a4 ca bd cc 18 5e bf 7d 06 1e 3f cf 79 06 3e
       -0.0989461 -0.8675659 0.6172865 0.13132404
000070 2d 4d 47 bf dd da 36 bf 00 a2 85 bf 3f c2 6f 3f
       -0.77852136 -0.7142771 -1.0440063 0.9365577
000080 bd c8 b8 3d 78 95 38 3f ff 44 3c bf 8a 6f 2b be
       0.09022663 0.7210307 -0.7354278 -0.16741768
000090 76 5d c3 3e 77 ab 36 bf 24 bf 1d 3e 34 6b 5a 3e
       0.38157243 -0.71355385 0.15404946 0.21329957
0000a0 7c 17 6e 3d 18 91 a1 3d 68 7b 63 be de ba bd bf
       0.058127865 0.078890026 -0.22215044 -1.4822652
0000b0 4e 9e 0a 3e 41 06 7e 3e 9d 8f 44 3e d3 2e fa 3e
       0.13536951 0.24807073 0.19195409 0.4886385
0000c0 51 7d 75 be 75 89 5b bf 30 78 4b bf b6 cb ba bf
       -0.23973586 -0.8575662 -0.79480267 -1.4593418
0000d0 a6 cc 04 bf bd 45 6c be 8a 26 19 bf ab 1d 7f bf
       -0.5187477 -0.23073478 -0.5982443 -0.99654645
0000e0 0e b0 d6 bd 17 b5 a1 3e 85 c6 a7 3f f7 25 61 be
       -0.104827985 0.31583473 1.3107458 -0.21987139
0000f0 d1 2d 34 be af 16 06 3f 53 4f b0 be 46 3b a3 bf
       -0.17595603 0.5237836 -0.3443552 -1.2752464
000100 1c 51 1f 3f 06 7e 49 3e 13 3f 7e be d0 0c 38 bf
       0.6223314 0.1967698 -0.24828748 -0.7189455
000110 b7 69 ff 3d 9e 97 11 bf 82 58 37 3f fc 38 6f bd
       0.124713354 -0.56871974 0.7161943 -0.058403954
000120 b8 47 d6 be 5c 55 01 bf c2 48 55 bf a1 a9 2f bf
       -0.41851592 -0.50520873 -0.83314145 -0.6861821
000130 cf e1 93 3e c2 6f d6 3e eb 26 2f 3e 1d 7d 60 3e
       0.28883216 0.4188214 0.1710469 0.21922727
000140 7f 90 96 bf f6 15 2a 3f 84 e7 a9 3e 72 6e 56 bf
       -1.1762847 0.6643976 0.33184445 -0.83762276
000150 2b b0 27 c0 16 26 7e be 23 2a a9 be 18 c3 38 3e
       -2.6201274 -0.24819216 -0.3303996 0.18043172
000160 dd b3 82 bf 55 1b 0f 3e 23 2a d4 bc b3 89 54 be
       -1.021114 0.1397527 -0.025898999 -0.20755653
000170 d5 2e 0e be 0c a1 99 be d8 18 19 3f c5 b1 a5 3e
       -0.13885053 -0.30005682 0.59803534 0.3236219
000180 ac 21 7b 3d 45 8c 29 bf 3b a8 f8 bd 2a c3 a4 3e
       0.06131141 -0.6622966 -0.121414624 0.32180148
000190 29 73 ce bc ed 21 66 3e 47 0c 42 3e 28 28 5c 3e
       -0.025201397 0.22473879 0.18949996 0.21499693
0001a0 76 13 a1 3e 57 59 bb 3c bf 9c ba 3e 96 c5 64 c0
       0.3146016 0.022869749 0.36447713 -3.5745597
0001b0 d0 3c c0 be a9 2c 4a bf bc 24 08 bf dc 3b 4f bf
       -0.37546396 -0.78974396 -0.5318105 -0.80950713
0001c0 b7 0e 61 bf 70 e2 71 be b9 e5 01 3e c6 b4 47 3f
       -0.8791308 -0.23621535 0.12685288 0.78010213
0001d0 61 68 fd be eb 37 c0 3e b9 1f 1a 3f cf 9a db 3f
       -0.49493697 0.37542662 0.60204655 1.7156619
0001e0 1f 24 88 3e 18 76 97 bd 97 e3 c0 be 22 22 2d 3e
       0.26590058 -0.073955715 -0.37673637 0.16907552
0001f0 3f 11 a4 bd 4a 7d 54 bf ed 13 8a be 08 e5 db 3e
       -0.08011102 -0.83003676 -0.26968327 0.42948174
000200 2e 1a e2 3e b2 b8 b0 3f 33 47 e6 3c 03 d7 bf 3e
       0.441606 1.3806365 0.028110122 0.37468728
000210 b0 00 17 be de 87 b1 3e c0 51 c9 bd f8 79 1b 3e
       -0.14746356 0.3467397 -0.09830046 0.15183246
000220 c6 e2 a9 be 39 9a 64 3e 6b 83 ea be 6d 43 35 3e
       -0.33180827 0.22324456 -0.4580339 0.17701502
000230 f6 7c ae be b1 92 47 bf d7 2d 4a 3e c0 ce b3 bd
       -0.34079713 -0.7795821 0.19744049 -0.08779669
000240 ed 9f fb bd 3b fd b5 3e 85 0d 0a bf 65 27 d5 be
       -0.12286363 0.35544762 -0.5392688 -0.41631618
000250 5b da 5e bc 80 7a 0c 3e 4c 80 5e be 29 ca 8a 3e
       -0.013601865 0.13718605 -0.21728629 0.2710736
000260 7a 03 85 be 9c b9 9e 3e 82 ab 22 be 72 f3 7d bf
       -0.25979215 0.31000984 -0.15885738 -0.99199593
000270 3d a9 3e bd d0 95 c8 3c 56 bb d0 bd d7 a3 93 3e
       -0.046548117 0.024485499 -0.101919815 0.28835937
000280 e4 c5 00 bf 05 7c bb be 89 21 b5 be 5e 86 43 be
       -0.5030196 -0.36618057 -0.35377148 -0.19094226
000290 c6 39 34 be 76 45 06 be b2 35 2a 3e 12 2a 2c bf
       -0.17600164 -0.13112435 0.16622046 -0.67251694
0002a0 d0 2b 8d 3d 95 c8 25 be 3d f6 03 bf 0c f5 ba 3e
       0.06893122 -0.16189797 -0.51547605 0.3651508
0002b0 f7 15 47 be 1c e9 4c bd 70 6b fa 3d 6f 6a 43 3e
       -0.19441973 -0.050026998 0.12227523 0.1908357
0002c0 41 4f 93 3e 82 f8 08 3f 62 fa b3 bc 9e 22 d8 3e
       0.28771403 0.5350419 -0.021969978 0.4221391
0002d0 aa a8 96 3d fa fa c8 be 7d 62 12 bf 0a 89 04 bf
       0.07356389 -0.3925398 -0.5718153 -0.51771605
0002e0 87 9e 9d 3e 0f 4f e0 3e fa 05 22 bf f2 72 67 3e
       0.3078501 0.43810317 -0.6329037 0.22602442
0002f0 e9 a5 b2 3e 46 fc bb be 41 4d 96 be 69 26 85 3e
       0.34892204 -0.36715907 -0.29355815 0.26005867
000300 2d b6 79 3e a1 1c 6f bd 50 d6 1c 3d af 8c a5 3d
       0.24385901 -0.058376912 0.03829032 0.08083474
000310 92 78 b9 3c 71 06 3a bd 87 c4 6a 3c 77 ae 28 be
       0.0226405 -0.0454163 0.014329082 -0.16472803
000320 3c 61 f5 bd 2a 80 12 bd 87 5c e5 3c a0 d8 a9 be
       -0.119814366 -0.035766758 0.027998222 -0.33173084
000330 d3 81 9f bd c2 17 4d be a4 33 40 bd 7f dd 78 3c
       -0.07788434 -0.20028594 -0.04692425 0.0151895275
000340 05 9b ad 3c e5 b6 0f 3d d9 4e c4 3d 8e 3e a8 3d
       0.021192083 0.03508653 0.095853515 0.08215056
000350 78 d1 82 3d cf 74 96 bc da 91 16 be 76 49 50 3c
       0.06387609 -0.018366246 -0.14704075 0.012712827
000360 84 4e 99 3d 3a d7 2f b9 bb b4 ae bc 04 ba 28 be
       0.07485679 -0.00016769479 -0.021326413 -0.1647721
000370 6b b9 7f bd 09 f2 eb 3c da 03 e2 3b 88 95 58 3d
       -0.062432688 0.028801935 0.006897432 0.05287698
000380 16 19 a3 3d 33 0a a2 3d 5c f5 33 bd 02 bb 01 3f
       0.07963769 0.079121016 -0.043935165 0.50675976
000390 44 e2 8a 3c 03 d3 5b 3d 39 99 57 3e 14 b2 47 bd
       0.016953595 0.053668033 0.21054544 -0.048753813
0003a0 21 ee 40 bd 83 d8 4a 3f 1f 6f 27 bd 67 54 81 bd
       -0.047102097 0.7923662 -0.040877458 -0.063149266
0003b0 e1 4e c7 bb 9b 91 84 be 5b 17 52 3f b7 42 12 bd
       -0.006082401 -0.25892338 0.8206689 -0.035708155
0003c0 51 e4 79 3e 45 12 f8 3d 09 a8 8a bd ed 3a 00 3f
       0.24403502 0.1211286 -0.067703314 0.50089914
0003d0 72 72 04 3d 73 e0 d6 bf 8e 64 11 be 9a 1f 1e bf
       0.032335706 -1.6787246 -0.14198515 -0.6176697
0003e0 d9 99 b9 3e 35 8a 04 be 04 32 ca be ff 0e bb be
       0.3625019 -0.12943347 -0.39491284 -0.3653488
0003f0 93 3c 89 be dd 4c ee bc 85 b0 f0 be 6a 83 ad bd
       -0.26804027 -0.029089386 -0.47009674 -0.08472331

2.bias f4 [48]
000000 08 5f bf c1 ac e0 6a 41 57 65 cc c1 d9 b4 c4 c0
       -23.921402 14.679852 -25.549482 -6.147076
000010 fd 7a 6e 40 ab a6 7d 3e 07 aa 05 40 69 f0 0f 41
       3.7262566 0.2477061 2.0885026 8.996194
000020 c6 77 5f c1 f2 f3 88 40 12 52 94 40 97 fe 54 3f
       -13.966742 4.2797785 4.6350183 0.83200973
000030 c9 27 00 c2 e8 96 1d 41 53 15 b8 40 aa 1c f1 3f
       -32.038853 9.849342 5.752603 1.8836873
000040 95 dc 9d c0 66 fa 8f 41 91 5b 15 c1 ec 29 37 c0
       -4.9331765 17.997265 -9.334855 -2.8619337
000050 95 9f 03 c1 9a 49 88 bd dc 44 2b 41 d0 2d 86 40
       -8.22646 -0.066546634 10.704311 4.1930923
000060 1e 19 a8 40 5b d3 a9 c0 27 a5 bf c1 79 43 24 41
       5.253066 -5.30705 -23.95564 10.266473
000070 65 ba 0a c1 c3 2f 0e c1 fb 1f 3b 40 f8 14 72 c0
       -8.6705065 -8.886661 2.923827 -3.7825298
000080 78 30 a2 41 4b 38 72 40 bd 79 84 40 14 65 1f c1
       20.273666 3.7846859 4.1398606 -9.962177
000090 db aa 05 c1 f6 2e 82 40 3c e8 2f c1 7d 22 ec 41
       -8.354213 4.0682325 -10.994198 29.51684
0000a0 f5 65 a9 c1 c9 82 7c c0 56 49 7c 40 e7 e1 1a 40
       -21.174784 -3.9454825 3.941976 2.420038
0000b0 c7 18 31 40 37 a3 8f c1 64 5f 89 40 b0 56 96 c1
       2.7671373 -17.954695 4.2928944 -18.792328

4.weight f4 [48, 48]
000000 6d 36 15 be 02 a0 23 bd b6 43 21 bc 83 dc a7 bc
       -0.14571543 -0.039947517 -0.009842804 -0.02049089
000010 94 44 46 bd d6 a3 9c bd b8 05 86 be 83 8e 45 be
       -0.048405245 -0.07648437 -0.26176238 -0.19292645
000020 15 7c 06 be e0 4d dd bd 13 6a 48 be 23 32 0c be
       -0.13133271 -0.10805869 -0.19571714 -0.13691
000030 09 f7 8c bd 56 1d db 3a 9e 4a 16 be 22 e7 06 be
       -0.06883056 0.0016717117 -0.14676902 -0.13174108
000040 92 b0 75 bd c6 82 64 bd 2c f5 2c be 09 74 74 bd
       -0.059982844 -0.055788778 -0.168904 -0.059680972
000050 31 2e 6c bc 97 b8 8c 3c 6c 99 1d 3d 25 11 1d be
       -0.01441531 0.017177863 0.038476393 -0.15338571
000060 11 80 7b be e2 1f 8f bd 02 b7 1e be bd 84 31 be
       -0.24560572 -0.06988503 -0.154995 -0.17335792
000070 9b 34 f9 3a 8c 93 10 3d 12 79 d2 3a 28 12 34 be
       0.001901287 0.03529696 0.001605781 -0.17585051
000080 e6 f7 99 bd b3 74 63 bd 3f d4 a6 3c cf f6 f9 bb
       -0.07517986 -0.055531215 0.020364879 -0.007628299
000090 9b 27 5f 3d 63 54 0b 3d 9e dc 14 3d e4 8c bc 3c
       0.05448113 0.034016024 0.03634321 0.0230164
0000a0 90 38 6b 3d 0c c6 13 be f3 d9 a3 bd ba 5a 2d be
       0.05742699 -0.14431018 -0.08000555 -0.1692914
0000b0 aa 66 b6 bd ae a1 7f bd 88 47 90 bd e3 38 0a be
       -0.089063 -0.06241005 -0.070448935 -0.13498263
0000c0 d0 c3 10 3f 2a 15 5d be 79 73 33 3e dc 20 4a be
       0.56548786 -0.21590105 0.17524518 -0.19739097
0000d0 c9 f7 79 3e 13 02 9b 3d 17 f0 e9 be 95 0b 4a 3e
       0.24410929 0.07568755 -0.45690987 0.1973098
0000e0 dd 5b 50 c0 0d 7f 70 be 0a 82 11 3e 0b c8 bc be
       -3.255607 -0.23485966 0.14209762 -0.3687137
0000f0 9d cb 76 3e 15 92 cd bf 07 f0 33 3e 89 c1 fd bd
       0.2410111 -1.6060206 0.17572032 -0.123904295
000100 db ca f0 bd 32 00 84 bf 47 54 94 3e 2a d2 c2 bd
       -0.117574416 -1.031256 0.2897055 -0.09512742
000110 20 8c 41 3e 91 18 dd 3d b4 ad f8 bc b8 50 0d bf
       0.1890111 0.10795701 -0.030356266 -0.5520129
000120 74 9c 69 be 97 5e 3b bd 54 00 bd bf 94 0f a6 3e
       -0.22813588 -0.045744505 -1.4765725 0.3243376
000130 a2 82 05 3e f4 1c 2b bf 67 14 b9 3e 4f fa d7 be
       0.13038114 -0.66841054 0.36148378 -0.42183158
000140 a0 10 6b bc 1e db 15 3e dc 41 e6 bf a4 fb 4a be
       -0.014347225 0.14634368 -1.7988849 -0.19822556
000150 f1 d8 43 bd 67 c1 9d bf 56 62 c7 be e2 bf 00 3f
       -0.047814313 -1.2324647 -0.38942212 0.5029279
000160 10 ee f3 be 82 44 5e bd 13 d1 89 bf ea 3c ad 3d
       -0.47642565 -0.054264553 -1.0766929 0.08458884
000170 71 a9 83 3e 4d 6e c2 3b 0b 73 d2 bf 9f fb 35 3f
       0.2571521 0.005933559 -1.6441358 0.7108707
000180 28 da 40 3e e8 6d 48 3d cb 83 41 3e 47 12 f9 be
       0.1883322 0.04893294 0.18897931 -0.48646757
000190 a3 cd 33 be b0 4c 2e 3b 91 55 0f bc 8e 3f 11 be
       -0.17558913 0.0026596002 -0.008748428 -0.141844
0001a0 b9 d3 62 be 70 17 02 bd e6 29 54 3d e4 06 11 be
       -0.22151078 -0.031760633 0.05179777 -0.14162785
0001b0 20 f2 0e c0 2f 0b dd bf cd e7 55 bf 86 17 a9 3e
       -2.2335281 -1.7269038 -0.83556825 0.3302576
0001c0 98 5b e1 3d 07 1f da 3e e9 b3 12 3e 40 c0 1a bf
       0.11003798 0.42601797 0.14326443 -0.604496
0001d0 dc 69 e6 bf b1 aa 9b 3d a9 e0 67 3d ec 4f 9e be
       -1.8001056 0.07600916 0.056610737 -0.3092035
0001e0 84 38 8f 3c 01 52 8d 3c 04 79 fe be 35 dd 72 3d
       0.017483003 0.017251017 -0.49701703 0.05929299
0001f0 84 15 d5 bd 18 54 30 be 8b f2 19 bd 10 3c 31 be
       -0.104044944 -0.17219579 -0.037584823 -0.17308068
000200 db 9f 94 bd df 1e 9a bf 6e 42 d9 3e 6a c4 80 bf
       -0.072570525 -1.2040671 0.42433494 -1.0059941
000210 3c 2e 80 3f 5b f7 5a c0 d8 09 97 be 83 ef 76 be
       1.001411 -3.4213474 -0.29499698 -0.24114804
000220 a9 d2 b7 bf fd 50 a5 3e 33 2f af bf 94 33 92 bb
       -1.4361163 0.32288352 -1.3686279 -0.004461715
000230 5e d0 d8 bd ff f3 97 3e 52 c4 f8 bd ec 56 15 be
       -0.10586618 0.29678342 -0.1214682 -0.1458394
000240 17 c4 a3 be e7 c3 ec bf 62 d7 87 3c 2a a5 23 bf
       -0.31985542 -1.8497285 0.016582195 -0.63923895
000250 7e 6d fe 3c b5 8f fd bf 79 17 22 3b 66 26 6f bf
       0.03105807 -1.9809481 0.002473323 -0.93417966
000260 d2 6f bc 3d 8b 5c 50 bf 47 ec 4e 3d 87 56 90 bf
       0.092010155 -0.8139121 0.0505183 -1.1276406
000270 ab c6 c7 be 6a 9c 41 3f ed 8d 9a 3f 81 42 dc be
       -0.3901876 0.75629294 1.2074562 -0.43019488
000280 9b 88 25 c0 7d b3 3a 3a c8 64 43 be e0 d4 39 bf
       -2.5864627 0.0007122083 -0.19081414 -0.72590446
000290 1a f6 ce bd f8 fc fb bc cf 8e d4 be 26 ce 63 3e
       -0.10105534 -0.030760273 -0.41515204 0.22246608
0002a0 16 98 b8 be b9 48 16 c0 25 f1 39 bf 26 ce 33 c0
       -0.36053532 -2.3481886 -0.7263358 -2.8094573
0002b0 31 e0 2d c0 c4 21 30 bd 58 82 21 3a 62 c1 bb be
       -2.7168086 -0.04300095 0.00061610853 -0.36670977
0002c0 86 dc 1b c0 20 25 13 c0 7d 39 09 3f 3e a5 06 c0
       -2.4353347 -2.299141 0.53603345 -2.1038356
0002d0 52 a6 bb 3e f4 64 1d 3f b0 31 c5 bf ea 93 97 3f
       0.3665033 0.6148217 -1.5405788 1.1842015
0002e0 99 f3 bb be 96 cb 49 bc 40 86 6a be 41 f3 d2 bf
       -0.36709288 -0.012316605 -0.22902775 -1.6480485
0002f0 cb 72 00 3e be 70 12 3e b3 16 56 c0 c2 e9 6b bf
       0.1254379 0.1430082 -3.3451355 -0.9215356
000300 f1 e3 eb 3e ad ea 82 3f 9e ad 85 bf 77 1a 0b 3f
       0.46072343 1.0227867 -1.0443609 0.5433726
000310 fc 1d c0 3e f9 a3 16 bf 31 1b 70 be 91 c9 a0 be
       0.37522876 -0.5884395 -0.23447873 -0.31403783
000320 75 ec 8a bf ff fc 46 be 0d 89 e3 3d 56 8d 15 bf
       -1.0853411 -0.19432448 0.11110125 -0.58418787
000330 62 08 2c 3e b7 cd a2 bc 89 04 eb 3d 15 ca 8d bd
       0.16800073 -0.019873483 0.114754744 -0.0692331
000340 5c 6d a8 bf de fc 3d bf 42 13 03 bf ca 6d 4e 3e
       -1.3158374 -0.7421397 -0.5120126 0.20159069
000350 b7 e6 8c 3e 28 79 9b 3c af b0 63 bf b1 8b e9 3c
       0.2751977 0.01897867 -0.8894147 0.028508993
000360 6c 3c e0 be f7 b0 1e bf 35 7f 5b be 2f 10 38 bf
       -0.43796098 -0.61988777 -0.21435244 -0.71899694
000370 59 11 4c bf 31 d4 a9 bd 07 4b a5 bd c2 93 ba 3d
       -0.7971397 -0.082924254 -0.08070951 0.09110214
000380 12 e7 ce be 4c 9b 15 3f 5b 90 0d 3e f5 4e f1 3e
       -0.40410668 0.5844009 0.13824598 0.47130552
000390 2c bd ba bc 8d 0f c3 be 05 ea 39 be 28 16 12 3f
       -0.022795282 -0.38097802 -0.18155678 0.5706506
0003a0 d7 0e ae bd 1b a9 ba be 4b eb f2 3d a8 2b 1d bf
       -0.08498924 -0.36457142 0.11861285 -0.6139474
0003b0 dc d9 ad be 87 3c 3f be 00 dc 57 be 5d e9 3d 3e
       -0.33955276 -0.18675433 -0.21080017 0.18546052
0003c0 55 2a d3 bd 6e 1f 0c bc 72 b1 e5 3d 2d 7a 10 bf
       -0.103108086 -0.008552415 0.11215486 -0.56436425
0003d0 e7 4d f6 bd 3f 9b f8 be 17 6d 3d 3e 16 c4 ac 3d
       -0.120265774 -0.48555943 0.18498646 0.08435838
0003e0 ef 2c 83 bd 47 b9 88 be d6 a6 a9 be 0f f6 89 be
       -0.06405055 -0.26703855 -0.33135098 -0.2694554
0003f0 10 cf de bd 96 2e 3a be 78 bd 20 bc a7 e3 8d be
       -0.10879338 -0.18181834 -0.009810798 -0.27712747

4.bias f4 [48]
000000 72 78 41 3e 20 f1 0b c2 d9 4f c4 c0 95 6b 2d c0
       0.18893602 -34.985474 -6.134747 -2.7096913
000010 36 14 1b c1 a2 1d 2e c1 e2 9a bd 40 40 9f 33 c1
       -9.692434 -10.882235 5.9251566 -11.226379
000020 15 a1 54 41 d7 ca 24 40 1a 51 86 be ca 06 83 40
       13.289327 2.5748804 -0.2623375 4.0945787
000030 7e 45 92 41 81 36 a0 40 b2 7b 46 bf a9 91 32 41
       18.283932 5.0066533 -0.77532494 11.160562
000040 f3 1c d9 40 d1 5d c0 c1 b2 44 aa c0 30 4c b8 3f
       6.784784 -24.045809 -5.3208857 1.439825
000050 df 6c e6 3f 83 17 a4 3e a3 20 d2 c1 57 66 e9 c0
       1.8001975 0.32049188 -26.265936 -7.2937427
000060 02 7a 92 bf f1 32 a7 3f 93 7f 92 bf 33 0e 62 c1
       -1.1443484 1.3062421 -1.1445183 -14.128467
000070 4e d1 52 c0 36 09 13 c1 fc f0 01 3f 6f 01 1b be
       -3.294025 -9.189749 0.5075834 -0.15137266
000080 db da 3e 3f 56 4f 5a c0 cd 1d a2 c1 63 d5 9d bd
       0.74552697 -3.4110923 -20.264551 -0.07706716
000090 45 af 72 c1 43 48 ae c1 e0 bd 29 41 a0 10 ca c0
       -15.16779 -21.785284 10.608856 -6.3145294
0000a0 ed 5b d2 c0 a6 35 41 41 67 e7 80 41 62 6f d2 c0
       -6.5737214 12.075598 16.11299 -6.5760965
0000b0 fa 34 0d 41 1b a9 6a 3f 8e d2 25 40 42 f4 47 3f
       8.825434 0.91664284 2.5909762 0.7810708

6.weight f4 [6, 48]
000000 8d ee 01 3e 72 f1 dc 3b 4e 47 cc 3b d7 22 c0 bd
       0.12688656 0.0067426497 0.006234086 -0.09381645
000010 21 a0 f0 3c 42 88 be 3b 60 8a 86 bc 76 b1 0b 3e
       0.02937323 0.005814583 -0.016423404 0.13641915
000020 f1 5d ae bd 59 d5 8a 3e b6 bc cf bc 52 e5 e9 bc
       -0.08514012 0.27115896 -0.02535854 -0.028551731
000030 55 9f 29 3d 71 b9 5d 3d 02 a4 11 3c de 0d c0 3b
       0.041411716 0.05413193 0.0088892 0.005861028
000040 32 1a 50 bc 3d 1b 05 3d 87 c0 8d bb 47 f9 45 bc
       -0.012701558 0.03249668 -0.0043259296 -0.012083358
000050 10 71 ac 3d 50 1a 64 bc 96 59 26 bd d8 73 71 3d
       0.084200025 -0.013922289 -0.04061278 0.058948368
000060 2b 3f 96 bc cf bb 83 3e f5 16 16 3d 29 61 c4 bb
       -0.018340668 0.25729224 0.036642987 -0.0059930277
000070 27 21 6d 3c db aa 93 bb 60 22 54 bd 5d 01 6c bc
       0.014473236 -0.0045064515 -0.051790595 -0.014404622
000080 2b 62 16 3c 5c 43 a8 bc 16 d8 6c bd 7d c7 94 bd
       0.0091786785 -0.020539932 -0.057823263 -0.07264612
000090 b2 73 60 3a 6d a1 2a bc 4d f2 70 3d 44 b6 d9 bb
       0.0008562162 -0.0104144635 0.058824826 -0.006644042
0000a0 89 2c 12 3e 6b be 20 bc ba c9 18 bc 84 64 54 3d
       0.14274801 -0.009811024 -0.009325439 0.05185367
0000b0 4a fd 46 3c 0f 00 6c 3b 4b e6 b2 3b 9d ac 8d ba
       0.01214535 0.0036010777 0.005459582 -0.0010808889
0000c0 17 f3 dd 3c 7b a9 da 3a 03 c1 b6 3b 6d f0 9a 3d
       0.027093453 0.0016682589 0.005577208 0.07565389
0000d0 8d 2b 38 3d ed e9 61 3d 5e 50 9c bc 1d ee 6d 3d
       0.04496341 0.05515473 -0.01908129 0.05808841
0000e0 3a 47 82 bd fe 12 36 3e 19 c7 b4 bd ac 33 a6 3d
       -0.06361242 0.17780682 -0.08827037 0.081153244
0000f0 6e bc 9c 3d fb 86 04 3d 8b 4b 10 bd 00 12 a2 3b
       0.076531276 0.03235529 -0.035228293 0.0049459934
000100 f0 8b 21 bd 99 b3 03 3d b5 d2 4b 3c f5 00 7b bd
       -0.039440095 0.0321537 0.012440373 -0.06128021
000110 f4 9f 4d 3e f9 24 03 3c 6a 18 ff bd cb ba 05 3e
       0.20080549 0.00800442 -0.124558285 0.13059537
000120 f2 cb 9b bc 31 0d f5 3d 58 5b ae 3d 96 e6 34 3a
       -0.019018147 0.11965407 0.08513516 0.0006900815
000130 c1 c6 63 bc ef a7 78 bd 21 85 6b bd 3d 3e b1 bd
       -0.013902367 -0.06070703 -0.05750001 -0.08654449
000140 6f 53 17 3c 5e e4 03 3e 85 6b 8e bd ec 18 96 bd
       0.009236201 0.12880084 -0.069541015 -0.07328972
000150 fb 09 8e 3a 68 5c a5 bc 0b 06 6d 3e d1 41 8d bd
       0.0010836715 -0.020185664 0.23146836 -0.06897319
000160 e8 89 ed bc 9f 92 07 bc 95 55 a0 bc 0c db 60 3e
       -0.028996423 -0.008274703 -0.019572059 0.2195856
000170 0f 61 74 3c eb f9 24 3c 22 43 9f bb bb 98 ac 3c
       0.014915719 0.010069351 -0.004860298 0.021068921
000180 19 3c aa bd f5 42 8f bc d1 44 59 3b 17 ed 8c be
       -0.08312244 -0.017487982 0.003315259 -0.27524635
000190 cf b2 82 3d ab 30 43 bd 41 4a 12 bd 72 d4 91 3b
       0.06381761 -0.047653835 -0.035715345 0.0044503743
0001a0 e7 ac a6 bc 2e 88 c7 3d 3f 7e 39 3d 3d de 39 bc
       -0.020346118 0.09742771 0.045286413 -0.01134449
0001b0 c9 46 bc 3d f9 c3 ce 3c ba 88 65 3d 93 ac fd 3b
       0.09193189 0.025239931 0.056038596 0.0077415197
0001c0 e3 ab 5c bd 81 52 11 3d 83 f9 c3 3d d8 27 b3 3d
       -0.05387486 0.035479072 0.09569075 0.08747834
0001d0 a5 bd 0c 3e 2c 70 b6 3d d9 20 17 be 86 5e 83 3d
       0.13744219 0.08908114 -0.14758624 0.06414513
0001e0 32 bc 82 bd 57 eb 97 3c 93 90 ed 3d 23 80 3d 3c
       -0.06383552 0.018544836 0.11599841 0.011566195
0001f0 a6 d4 cc 3b 02 41 0d 3d 35 44 2b bd cf 6d af bd
       0.0062509356 0.034485824 -0.041813094 -0.08565866
000200 28 74 47 3c 41 3f 3b 3e 92 35 4a bd b2 f9 56 bd
       0.01217369 0.18285848 -0.049367495 -0.05248422
000210 d0 fd 66 3e 49 e3 31 bd 4e 3e 07 3f ac 35 2e be
       0.2255776 -0.043429647 0.52829444 -0.17012662
000220 ce 5f 21 bd 2c 24 a4 bb c3 f9 89 bc 9a da 61 3d
       -0.039398007 -0.005009195 -0.016842728 0.055140115
000230 d0 2c 95 3d 3d 78 23 3d 7a ce 0c bc af 29 8d 3d
       0.07283938 0.03990959 -0.00859415 0.06892716
000240 ad ba 67 bd 5f a4 9d bd e9 26 aa 3c e6 1a a0 be
       -0.056574512 -0.07697367 0.020770507 -0.31270522
000250 fa a6 85 3d a8 f3 5d bd 47 62 3b 3e 5f 44 ac bc
       0.06525989 -0.054187447 0.18299209 -0.021028696
000260 60 2f d8 3b e9 72 64 3d 83 f3 80 bd b2 90 e7 3c
       0.0065974444 0.05577365 -0.06296446 0.028267238
000270 93 47 ce 3d 62 c4 8a 3c 0d 0d 56 3d 57 67 bc bc
       0.100722454 0.016939346 0.05225854 -0.022998495
000280 3a 83 fd 3d b3 48 4d 3d 39 fd ef 3e 97 8c 21 bd
       0.12378545 0.05011816 0.4687288 -0.039440718
000290 6e 94 78 3d 58 22 0e 3e a2 27 97 bd 0d 09 a0 3c
       0.06068843 0.13880289 -0.07380606 0.019535566
0002a0 4d 9e f2 bd 9a c5 39 3c 73 45 81 3d f8 e5 c5 bc
       -0.118466 0.011338616 0.063120745 -0.02415751
0002b0 f2 b7 ae 3d 6b 4b e9 bc f6 5b 43 bd 88 fe 07 bd
       0.085311785 -0.028478345 -0.047695123 -0.033201724
0002c0 ec 1c f0 3c 0b 7d 5a 3d fb 6c 0d bd 30 ca 7e bd
       0.029310666 0.053341907 -0.03452776 -0.06220454
0002d0 56 25 96 3d fb f0 b2 bd d9 4a b8 3e 4e 89 bb be
       0.0733134 -0.087373696 0.35994604 -0.36628193
0002e0 c3 1f cb bc 75 ec 13 3d 84 62 86 bc 33 3f e3 3b
       -0.024795419 0.036114175 -0.016404398 0.006935024
0002f0 9e 95 3c 3e 8b b7 01 3e 7b c8 4b bc 42 e3 0c 3e
       0.1841645 0.12667672 -0.012437935 0.13758567
000300 f5 30 fe 3d 66 91 23 be 8b 8c 6b 3d fb 51 0b be
       0.124116816 -0.15973434 0.05750708 -0.13605492
000310 39 6b c1 3d 2a 76 89 bc d7 75 1c 3d f3 51 ed bc
       0.09444279 -0.016779978 0.03819832 -0.02896974
000320 b2 6f bc 3b 5c 0c 14 3d e7 46 9c 3b af 65 07 3d
       0.00575062 0.0361446 0.0047691944 0.033055957
000330 0f 61 e9 3d 39 1f 2f 3c 66 89 51 bd a3 68 bb bd
       0.113954656 0.010688596 -0.051156424 -0.09150817
000340 bf 9c 30 bc 76 6e 2b 3d 8e 7a 00 3f 47 9f ba bc
       -0.010779559 0.04185339 0.50187004 -0.022781027
000350 b0 48 e9 3c a5 14 00 3e ef 67 79 bb b9 77 76 3c
       0.028477043 0.12507875 -0.0038056334 0.015043193
000360 fa 8f 5f 3e 54 3c 3d b9 bd c4 d6 3c b4 74 81 bd
       0.21832266 -0.00018046919 0.026216859 -0.063210875
000370 70 4a 8b bc 0e 96 93 bc 48 1e 74 bc 2d 0c d5 3d
       -0.017003268 -0.018015888 -0.014899798 0.10402713
000380 14 c2 f8 3d ac 4a 2a bd 96 79 a2 bc a0 fc 86 3c
       0.121463925 -0.04157512 -0.019833367 0.016477883
000390 fd 06 d6 3b 7e f3 a3 bd 40 ae 01 3e a8 33 91 be
       0.006531595 -0.08005427 0.12664127 -0.28359723
0003a0 a5 8a 8b bc 01 6c de 3d 80 3c 3f 3d c5 a4 d6 3c
       -0.017033884 0.10860444 0.046688557 0.026201615
0003b0 d4 28 4f 3e 04 7e c9 3e cb 51 77 bd 2a 27 f4 3d
       0.20230418 0.39353955 -0.06038074 0.119215325
0003c0 f1 4d 88 bd 02 38 3e be 5b 5d 6e 3e 61 3e e3 bd
       -0.06655491 -0.18576053 0.232778 -0.11095882
0003d0 dc f5 8f 3d 9c 5a c7 bc e5 b6 2c bd c8 66 11 bd
       0.07029316 -0.024335198 -0.04216661 -0.03549841
0003e0 fe 84 fc b9 93 85 66 3c 62 1c 7e bd 5b 93 2e 3c
       -0.00048164272 0.0140699325 -0.062038787 0.0106552495
0003f0 8a 9e ca 3d 55 f3 a0 3c 18 91 6f bd cc 69 17 be
       0.0989352 0.01964728 -0.05848798 -0.14786452

6.bias f4 [6]
000000 ad 1f 99 bb 6a 20 9d bb 09 2c 85 3a 98 48 c0 3a
       -0.0046729655 -0.004795124 0.0010160218 0.0014670072
000010 2d cb 41 3a fc 49 6c 3a
       0.0007392641 0.000901371
