models/FF_with_station/FF_with_station_depth3_width96_batch106.pth (torch, 128632 bytes, 10 tensors)

0.weight f4 [96, 26]
00000000: 4101 94c0 7bf9 4040 d717 21be 1083 5dbd
00000010: 4b44 123f 3f11 093f 1d13 2bbe 9ce1 85be
00000020: fddc 86bd 17ac 68be 3bdd 44bf 2487 18bf
00000030: bf56 393f 2831 edbd 8811 b1be 9362 20be
00000040: 6841 103d df6d 923d 0cbd 0abe 76ae ea3e
00000050: b0c5 f33d 8fea 3cbe 8f6e da3d c5d5 813e
00000060: 84fa 023e 7560 3abf 959a 42c0 c994 a440
00000070: 9d74 20be e8da 943f d9d5 aa3e f4cd 8fbf
00000080: 0f36 83bf 0076 7bbe b90a 57be 122f c9be
00000090: 7fa2 503e e0e9 913d 0a22 cf3e bdc6 8a3e
000000a0: 145a 80be dcc8 72bd 7d2d 9a3e 1012 ae3e
000000b0: 7507 8fbb 0d81 bc3e f9dd 8abe 5b50 72be
000000c0: 6fc0 143e 44b9 c03c bfff 883e 7283 f3be
000000d0: 9cf5 81c0 f142 c4c0 8263 93bf 7b4f d63e
000000e0: ca71 b7bd 83e9 acbd a1c1 123f 8995 f43e
000000f0: 78fc 063f 636e b43c 8dde 17be 4267 a1bd
00000100: 1032 c9bc bb8d 9f3d c8c3 30be f257 83be
00000110: e211 13bf 7bed 6ebe 0c7e 263e e802 ce3e
00000120: 3725 f4bd 7527 c3bf d22e 32c0 7c7e 84c0
00000130: c3ac e0bf f83e 363f 6604 52bc b3b7 4d3f
00000140: 7df3 ee3f 8973 b53e 327d 53bf 6a67 bebe
00000150: 3453 473f bba6 1bbe 116a d3bd f7af f93c
00000160: 95f9 853d dddf 0d3c 1790 a7bd deee 9a3d
00000170: 54b8 3a3d 5f58 303e 4785 63be b4da 29be
00000180: e7b3 a73e ced5 2c3d 66c1 06be 9e77 d8bd
00000190: 9c0e c63c 7afa 363d a917 853e 19a3 9dbf
000001a0: a2f2 18c0 dab3 45c1 fc39 4cbf c1e0 5ebf
000001b0: 14ad 21be 4efe 9b3e 36f6 debe 4428 44bd
000001c0: bae3 90bc f643 1dbf e51d c4bd d38b 7a3e
000001d0: 210b 483e bf09 cebe ecb1 6f3c 33bf bdbe
000001e0: 3a98 eabe 06ec 80be 149b 84bf 14c3 a2bf
000001f0: 474f 10bf df66 2fbf 66e5 36be 02fd 153f
00000200: 6d39 553e 0ef4 7e3e 1f89 5fbf cf78 8f40
00000210: 179e 123f 558b 53be 306f 6c3e baad bb3d
00000220: 3be7 bbbd befe e93c ec49 423e c585 ec3e
00000230: 8255 e63d 3227 adbc 5de6 04bd 1db4 26be
00000240: 9a31 f8be 6b8a 33bf 3ebf 40be 144e fb3e
00000250: 9de4 1a3f 71eb 983e 7c57 7d3e 5ee3 743e
00000260: ea98 be3e 4cb6 083f f22f 3ebd 7c7d f7bf
00000270: d565 cd40 16d8 92c1 d7f2 3c3f f822 1abe
00000280: 7249 aabe b0ee 933e e80f d53d 934d 833d
00000290: 2eed 0e3e e5e7 b9bc 05ad edbd e1c2 c03c
000002a0: 9a00 d83d 1c45 ce3e e6f1 823e 17d3 fabe
000002b0: 41eb d6be e229 1f3f 0663 583f be40 b13e
000002c0: 85f5 9abf fa04 48c0 a3fc 3dc0 fe04 6abf
000002d0: 3cf7 d83e 278c fc3e ca2e 213f 2d73 2f41
000002e0: 14fd 19bf 2870 f93e e418 643e 4a0e ad3d
000002f0: a1d0 33bd 9c1f 5cbf 4cd2 1fbe 9757 203f
00000300: b83a 653e 84c9 41bf 0a2e b0be 59ad 2cbd
00000310: acdb c43e 77ff 283f a09f 80be 018e 96bf
00000320: 0277 33bf 78b2 273f d7af cfbd 339c 74be
00000330: 17ed a9be 61e0 95be 7206 813f b153 893d
00000340: beaa 4abe e21b bf40 ffe3 8fbf 50ab 85bc
00000350: 00c1 403e 1310 2dbd 8efe eabe 4960 e3be
00000360: 7117 03bc dec3 d53e b090 093f a1d1 eb3e
00000370: 98a0 3e3e 478f c83e 0e2d 1d3e 80d7 25bf
00000380: f9c9 81bf 4038 dcbe a0ea 093e 0c7f 053f
00000390: 3fe1 3c3e 48f8 88be b062 b63b 7c43 bf3e
000003a0: 4b94 c53e 1825 503e a735 c6c0 371c 84c1
000003b0: f8cb 05c1 e495 64bf c4e3 243b b99c 87be
000003c0: 4ba9 f03e 2be0 943e 8429 55be b432 a1be
000003d0: e298 d2bd 95f3 da3e 820e f93e 1f7c 893e
000003e0: dcb4 c03c aa5b fdbd e6b7 c3be 8438 0cbe
000003f0: f0de 523d 7fbc a53e ac67 a13e ba56 463d
-4.625153 3.015227 -0.1573175 -0.05408007 0.57135457 0.5354194 -0.1670651 -0.2614869
-0.06585119 -0.22721897 -0.7690007 -0.5958121 0.7239799 -0.115816414 -0.34583688 -0.15662603
0.035218626 0.071498625 -0.13548678 0.45836228 0.1190294 -0.18448852 0.10665619 0.25358406
0.12790877 -0.7280343 -3.040685 5.1431623 -0.15669484 1.1629305 0.33366278 -1.1234727
-1.0250872 -0.24556732 -0.21000184 -0.39293724 0.20374487 0.07124686 0.40455657 0.2710475
-0.25068724 -0.059273586 0.3011283 0.33998156 -0.0043649026 0.36817208 -0.27122477 -0.23663466
0.14526533 0.023525842 0.2675762 -0.47561222 -4.0612316 -6.1331716 -1.1514742 0.41857514
-0.089572504 -0.08442976 0.57326704 0.47770336 0.52728987 0.022025293 -0.1483099 -0.07881023
-0.024560004 0.07790705 -0.17262185 -0.25653034 -0.5744916 -0.23332779 0.1625902 0.40236592
-0.11921161 -1.5246416 -2.7841077 -4.14044 -1.7552723 0.7118983 -0.0128184315 0.8035843
1.8668057 0.3543971 -0.8261291 -0.37188274 0.7786133 -0.15200321 -0.10322965 0.030479414
0.065417446 0.00865933 -0.0818178 0.075650916 0.045585945 0.17221211 -0.2221881 -0.16587335
0.32754442 0.042196088 -0.13159713 -0.1056969 0.024176888 0.044672467 0.25994614 -1.2315398
-2.3898091 -12.356409 -0.7977598 -0.870617 -0.1578868 0.30467457 -0.4354722 -0.047889963
-0.017686713 -0.61431825 -0.095760144 0.24467401 0.19535495 -0.4024181 0.014629822 -0.37059936
-0.45819265 -0.25180072 -1.0359826 -1.2715783 -0.5637097 -0.68516344 -0.17860946 0.58589184
0.20822687 0.24897787 -0.87318605 4.483497 0.57272476 -0.2065862 0.2308929 0.09163995
-0.09174963 0.028563853 0.18973511 0.46195808 0.11246778 -0.021136854 -0.032446254 -0.16279645
-0.48475343 -0.70133084 -0.18822953 0.49083006 0.60505086 0.29867128 0.24740404 0.23914859
0.3722604 0.5340316 -0.046432443 -1.933517 6.4186807 -18.35551 0.73808044 -0.15052402
-0.3325916 0.28893042 0.104034245 0.064112805 0.13957664 -0.022693584 -0.116052665 0.023530426
0.1054699 0.402871 0.2557518 -0.48989174 -0.4197636 0.62173283 0.845261 0.34619707
-1.2106177 -3.1253037 -2.9685447 -0.9141387 0.42376125 0.49325678 0.6296202 10.965619
-0.6015179 0.4871838 0.2227512 0.08449991 -0.043900136 -0.8598573 -0.15607566 0.6263365
0.2238568 -0.75698113 -0.34410125 -0.042157505 0.38448846 0.6601481 -0.25121784 -1.1762086
-0.70103467 0.65506697 -0.10140961 -0.2388771 -0.33188698 -0.2927275 1.0080092 0.06705416
-0.19791695 5.9721537 -1.1241454 -0.01631704 0.18823624 -0.042251658 -0.45897335 -0.44409397
-0.008001194 0.41750997 0.537364 0.46058372 0.18615949 0.39171812 0.15349218 -0.6478195
-1.0139762 -0.43011665 0.13468409 0.52146983 0.184453 -0.26751924 0.0055659637 0.37356174
0.385897 0.2032665 -6.1940494 -16.513777 -8.362297 -0.89291215 0.0025160173 -0.26486757
0.4700416 0.29077277 -0.20816618 -0.31483996 -0.10283066 0.42763963 0.4864388 0.2685251
0.02352374 -0.12370999 -0.3822624 -0.13693434 0.05148214 0.32370374 0.31524408 0.048422553

0.bias f4 [96]
00000000: abac 8341 1178 d540 e79c 8840 7d7e 4d41
00000010: f947 663f 67e8 6441 6a0d 54c1 ce4a 77c0
00000020: 3efe 6fc0 9ecf b3c0 4442 34c1 165b 1041
00000030: b500 6dc0 28ec cdbf 93a7 88c1 8b27 8540
00000040: 6f0e b2c1 5373 bac0 8fce 9e40 8ccc 64bf
00000050: 7c69 3f41 9f52 17c1 3cde f040 34ec 3d3f
00000060: 8fa9 ad40 6002 91c0 1ce7 f540 53e1 b53e
00000070: 2ae7 b0c0 981b dcbf cc79 99c0 7900 a1c1
00000080: 0ca3 3a40 4929 bfc0 a6ff b63f 91b1 fb41
00000090: 489c 4740 8a01 19c0 c844 1240 1a54 2cc1
000000a0: b54c 1040 5b87 bfc0 f915 ba40 acae c2c1
000000b0: dab4 10c1 2b90 1e41 d141 1f41 5f17 4441
000000c0: f2c0 2cc1 603f 4dc1 9ebd d9bf 6d5b 22c1
000000d0: 462c aec0 f0f8 dfc0 2b46 41bf 9296 2841
000000e0: 8df2 c8c0 1000 4241 1d3b efc1 ce63 5bc0
000000f0: 2bc0 3e40 b559 0641 ec44 6941 89e6 6641
00000100: 6d4f 5341 936e 5d40 dee9 a0bf b195 ea40
00000110: fc4a 41c1 7a82 bd3f 3afc 2cc2 515a 16c1
00000120: 4c15 98c1 b8e6 3341 e57f 1a41 1e4f a640
00000130: 1c6d 7341 5468 9941 9c57 82c1 8c97 c2c1
00000140: b027 0e41 363f 98c0 fc6d e440 e6ff 76bf
00000150: 9fbd 4bbf 12e6 abc0 737f 6941 dbd8 06c1
00000160: 8170 4641 4819 2941 d588 b1c0 6782 e43f
00000170: c89c 35c1 2faf 3e3f 8d21 0f41 ea23 d9c0
16.45931 6.6709065 4.269153 12.843381 0.8995357 14.306739 -13.253275 -3.8639407
-3.7498927 -5.619094 -11.266178 9.022238 -3.7031682 -1.6087694 -17.081823 4.161077
-22.257048 -5.8265777 4.9627147 -0.89374614 11.963253 -9.457671 7.527128 0.7418854
5.426948 -4.53154 7.6844616 0.3552347 -5.5282183 -1.7195921 -4.796118 -20.12523
2.9162016 -5.9737897 1.4296768 31.461702 3.1189137 -2.390719 2.285448 -10.770533
2.2546818 -5.985273 5.815182 -24.335289 -9.044153 9.910197 9.953568 12.255706
-10.797106 -12.827972 -1.7010992 -10.147321 -5.4429045 -6.999138 -0.7549769 10.53676
-6.2796082 12.125015 -29.903864 -3.4279666 2.980479 8.396901 14.579327 14.431283
13.206891 3.459874 -1.2571371 7.330773 -12.080807 1.4805443 -43.246315 -9.39705
-19.010399 11.243828 9.656224 5.197158 15.214138 19.175941 -16.292778 -24.323997
8.884689 -4.757716 7.138426 -0.9648422 -0.79586214 -5.3718348 14.593616 -8.427943
12.402467 10.568672 -5.547953 1.7852296 -11.350777 0.7448606 8.945691 -6.785634

2.weight f4 [96, 96]
00000000: b9de d9bd f3ea ac3e dce6 2f3f 0e86 99be
00000010: 11f6 7a3f b17f 663e 1482 d9be d105 c13e
00000020: c54a 083f 12e8 06be d3c8 85bd 5f52 3ebe
00000030: 6016 d2bd 2a8b 2a3d d093 bbbd fe93 053f
00000040: 58ac 86be 725a 25bf 1fb1 2ebf d026 df3e
00000050: 8239 4bbf 11c1 d9be 35e0 7ebe f35f 1cbf
00000060: 9c2b b73e f0a2 edbe d65f 24be 31d9 32bd
00000070: ddca 303e 8a43 363e 9b48 37bf 14cf 053e
00000080: 5c1f 15bd 6a1f 6e3e 44de f23d 5bd6 12be
00000090: 8905 bdbd 1c31 073e 34bd 2a3e d29a ce3e
000000a0: f891 8a3d fc38 983e ce82 92be 7740 34be
000000b0: 3902 74bd a32d 9b3e aba7 8ebe c4ef 1abc
000000c0: 3da2 dbbe 4f12 303e 811a 6cbe b822 ed3e
000000d0: 4955 c53e e63f bdbd 2553 80bf 2105 5f3e
000000e0: 0350 adbd ede0 b13d 4e13 47bf 6ee1 333e
000000f0: 76c5 2b3e 0e7e 1a3f f7ab c03e 4f3a d33d
00000100: c21e c43d 2a64 67bf c349 9c3e 4282 e73e
00000110: 292b 7dbe e5d2 52bc ab7f 773d 7d52 69be
00000120: 1c47 14bf 23cb a2bf a9ff 50be fc85 f5be
00000130: 0648 153e 2f49 f73d 50f3 ac3b addc e2bd
00000140: ac19 8bbd 7de9 233e b20a 92be 7d24 c63d
00000150: c1de f83e e5b9 d63d e08b debe d3a4 fc3c
00000160: 521a c5bf 71bc 94bd 711e b3bd 0368 71be
00000170: e3b1 9f3d d2ff 04bd 4013 8b3e b270 3e3d
00000180: 1110 823f 2402 913e c275 c83e 02f0 02bf
00000190: f8ea 7d3f f044 9e3e 18bc 82bf 99fe 873e
000001a0: e792 ddbe 2281 12bf 713f 8cbf 7869 ef3e
000001b0: d393 bfbe 71da 6dbe 9539 8c3d ddbe 2f3f
000001c0: ab1c 9dbf 93d0 f0be b3cd 793f 82a1 dd3b
000001d0: 36f7 1cbe 682b c4bc 9fcb e4bd bd87 583e
000001e0: 3a59 afbe 53c1 09be 9fef 9abe 0a1c a7bf
000001f0: 6e63 8ebe f2ab 1abf 2b65 59bf ad06 f1bf
00000200: c1b6 343f a40a a9bf 5f9e 5f3f 09bb a73f
00000210: 05a2 95be 83a2 95bf a35d 1d3f 5a4d 373d
00000220: c00b 98be f8f3 aebe c049 a13f 3f5f 96bf
00000230: 38bc 613e 6edd 13bf 7fca 10bf 0943 3e3f
00000240: e113 63be f320 31c0 e64a dfbd 8d53 1abd
00000250: e38d 8f3e 04f8 b23d 91b9 cf3f 8ef5 63bf
00000260: 62d2 30bf b216 ddbe e49e 27be c4c4 bfbe
00000270: 0858 9c3e e978 f63e c0ed 73be 7db0 8b3f
00000280: 0dda 593d 392e 7fc0 a7d2 b4be 593a 7f3e
00000290: 9984 803e a490 6d3f b9dc 183c 1022 833c
000002a0: 978a bbbf c063 83bf 4d97 633f 2433 a53e
000002b0: b5a6 003f 7782 d3bf 57ba 873f 9e48 5f3e
000002c0: 2668 57bc 39e8 16bf d831 033e 7fd9 f2be
000002d0: 3d70 673f 23c5 5d3f 5d91 083f 9c59 e7be
000002e0: 0d11 f33e f3a8 15be dcd4 c73e b96d 1ebf
000002f0: 7127 293e fe84 e13c 79b4 00be fe22 8e3e
00000300: 6ac8 4f3f 1d1f 753c c776 6bbe 9d1e 553b
00000310: e5de d83f 9a73 cd3e 12da b4be b26d 41bf
00000320: eb00 34bf 97ff 33c0 5f80 853e 2da3 233f
00000330: 47a7 47c0 9065 19be ff74 00c0 5a7f 40be
00000340: e611 b7bf f155 b13e b70a 413f 3a49 ef3b
00000350: b0d8 81be 4350 353f d0f4 0b3e e7c3 603d
00000360: 663d fc3d 953b 31bf 0d36 2fbe 4bd5 8dbf
00000370: bbe7 babe 8cdc efbe 6b9f d7be 485d e6be
00000380: 3899 7c3f 9952 5bbf 49ae c23f 606c d23e
00000390: 1834 a63e 4dd6 1bbf 5fac d03e 8e48 d9be
000003a0: 0ac1 16c0 4e09 4d3e ffbb 233f a1b0 dcbf
000003b0: 8152 c5bf 9307 83bf 0ce3 11be a4ce 18bf
000003c0: 9e5f 6cbd 040b a53e 4d78 b23e 7888 2cbf
000003d0: e75b 05c0 f7cd 0ebf 0a97 f53f f44e 383e
000003e0: 6022 1abf 312e 38bf 38ac e8bf d0b8 16c0
000003f0: fc55 cdbd 5f1e 423f 92a8 8a3f a015 6dbf
-0.10638184 0.33773002 0.6871164 -0.29985088 0.9803172 0.22509648 -0.42482054 0.3769975
0.5323909 -0.13174465 -0.06532445 -0.1858611 -0.10258174 0.041636623 -0.09159052 0.52178943
-0.26303363 -0.64591134 -0.68239015 0.435843 -0.79384625 -0.4253011 -0.24890216 -0.61083907
0.3577546 -0.46413374 -0.16052184 -0.04366416 0.17264886 0.17799202 -0.7159516 0.13067275
-0.03640686 0.23254171 0.118588 -0.14339583 -0.09229571 0.13202327 0.16673738 0.40352494
0.067661226 0.29730976 -0.2861542 -0.17602716 -0.059572432 0.30308256 -0.27862296 -0.009456579
-0.42897215 0.17194484 -0.23056985 0.4631555 0.3854163 -0.09240703 -1.0025374 0.217793
-0.08462527 0.08685479 -0.7776383 0.17566463 0.16774544 0.60348594 0.376312 0.10313856
0.09576179 -0.90387213 0.30525026 0.45216566 -0.24723496 -0.012867664 0.060424488 -0.22785373
-0.57921004 -1.2718242 -0.20410027 -0.47953784 0.14578256 0.120745055 0.0052780285 -0.11077247
-0.06792006 0.16007037 -0.28523785 0.09674928 0.48607448 0.10484675 -0.4346609 0.030840313
-1.5398657 -0.07262505 -0.087460406 -0.23574834 0.07797601 -0.03247053 0.27163124 0.046494193
1.0161153 0.28321946 0.39152342 -0.5114747 0.9918666 0.3091197 -1.0213652 0.2656143
-0.4327614 -0.5722829 -1.0956861 0.46760154 -0.37417468 -0.2322786 0.068469204 0.6865061
-1.2274374 -0.4703413 0.975795 0.006763638 -0.15328678 -0.023946479 -0.1117165 0.2114553
-0.34247762 -0.13452654 -0.3026094 -1.3055432 -0.27810234 -0.6041862 -0.84919995 -1.8830162
0.7059136 -1.3206372 0.8735103 1.3103954 -0.29225174 -1.169022 0.61471003 0.044751503
-0.29696465 -0.34170508 1.2600632 -1.1747817 0.22044456 -0.5775975 -0.56558985 0.7432104
-0.22175552 -2.767636 -0.109029576 -0.037677336 0.28037938 0.087387115 1.6228505 -0.8904656
-0.6907102 -0.43181378 -0.16369206 -0.37454808 0.30535913 0.48139122 -0.23821163 1.0913235
0.053186465 -3.9871962 -0.35316965 0.24924602 0.25101164 0.9279883 0.009329968 0.016007453
-1.4651669 -1.0264816 0.8890274 0.3226558 0.50254375 -1.652419 1.0603741 0.21805045
-0.0131473895 -0.58948094 0.12811983 -0.4743156 0.9040564 0.8662893 0.53346807 -0.45185554
0.47473946 -0.1461523 0.39029586 -0.61886173 0.16518952 0.027529236 -0.12568845 0.27761072
0.8116518 0.014961031 -0.22994529 0.0032519468 1.6943022 0.4012726 -0.35322624 -0.75558007
-0.703139 -2.812475 0.26074502 0.6392086 -3.1195848 -0.1498015 -2.0071409 -0.18798581
-1.4302337 0.3463588 0.75406975 0.0073024305 -0.25360632 0.70825595 0.13667607 0.054874327
0.12316398 -0.6923154 -0.17110462 -1.1080717 -0.3650492 -0.4684795 -0.42113814 -0.44993043
0.98671293 -0.8567291 1.5209438 0.4109831 0.3246162 -0.6087387 0.4075651 -0.42438167
-2.3555322 0.2002308 0.63958734 -1.7241403 -1.5415803 -1.0236686 -0.14246768 -0.5969031
-0.057708375 0.32234967 0.34857407 -0.67395735 -2.0837343 -0.5578303 1.9186718 0.17998868
-0.602087 -0.7194548 -1.8177557 -2.35503 -0.10026166 0.7582759 1.0832694 -0.9261112

2.bias f4 [96]
00000000: 399a 763f 9072 1241 d6b0 3740 552a 28c1
00000010: c1d2 94c0 4693 c2c0 6345 bd40 e0a4 9240
00000020: dc69 4cbe 6450 15c1 8635 8cc0 fa60 9640
00000030: ab4e 57c0 713a 03c0 57c6 8bc0 808d a43a
00000040: f678 6abe 45fb 9540 ac59 0c3f 08fb fcc0
00000050: 8021 1540 8075 2f40 582f d0c0 6fb0 1141
00000060: b532 bec0 14ca 603c 96bc f4bc 95fd dbc0
00000070: df22 3f40 2f08 2bc1 1e4d 57bd c614 73bf
00000080: cd11 1940 2d32 89c0 6280 4741 e177 72c1
00000090: 4038 ba3e ce3e 24c2 ef08 eebf bd86 2dc1
000000a0: 0b89 a041 9918 46bc 14ca af3d 27e7 9f40
000000b0: e476 8d3f fc45 9c40 ddb6 14c0 8bc7 81c1
000000c0: 52e7 dfc0 2fc0 3a40 18fb 52c0 01df a2c1
000000d0: 404e a041 29d5 57bc ef53 85c0 433c 5dc0
000000e0: 26c8 91bd bef8 86c0 cd8c 0bc1 7d36 d23f
000000f0: cc14 05bf a519 bec0 49f6 b540 9bac d640
00000100: ced7 9040 8931 e640 f3c9 bbbe 1b5e 44c1
00000110: 6bbc 3ec0 c7fa c83f e83e b240 1dc9 2741
00000120: 712d 4ec1 6a6e 9240 ad45 ae40 dbd1 b4bf
00000130: 670c 37bf 7b6d a3be d427 9441 06ee 07c0
00000140: cdbb 993e a253 8ec1 9bf8 afc1 71bf 2cbe
00000150: 2037 b13e c20f bd40 066c 9340 8d46 6441
00000160: 2c23 19be 71cb 963d c76b f63f d2eb 9941
00000170: db84 44c1 c040 a340 2615 aa40 81e3 96c1
0.96329075 9.152969 2.8701682 -10.510335 -4.650727 -6.0804777 5.91472 4.5826263
-0.19962257 -9.332127 -4.3815336 4.699338 -3.3641765 -2.050442 -4.3679614 0.0012554377
-0.22897705 4.6869226 0.5482433 -7.9056435 2.3301697 2.7415466 -6.5057793 9.105575
-5.94369 0.013720054 -0.029875081 -6.874705 2.9865034 -10.689498 -0.05256378 -0.9495357
2.3917115 -4.287375 12.468843 -15.154267 0.3637104 -41.061333 -1.8596476 -10.845395
20.066916 -0.0120908255 0.08583465 4.996967 1.1051908 4.883543 -2.323661 -16.222433
-6.9969873 2.91798 -3.2965755 -20.358889 20.038208 -0.01317338 -4.166496 -3.456803
-0.071182534 -4.217864 -8.721875 1.6422879 -0.5198486 -5.9406304 5.686314 6.70857
4.5263433 7.193547 -0.36677513 -12.272975 -2.9802501 1.5701531 5.570179 10.4866
-12.886094 4.5759783 5.4460053 -1.4126543 -0.715033 -0.31919464 18.519447 -2.1239028
0.30026093 -17.790836 -21.99639 -0.16869904 0.3461237 5.9081736 4.6069365 14.267224
-0.14954823 0.07363022 1.9251641 19.240147 -12.282435 5.101654 5.3150816 -18.861086

4.weight f4 [96, 96]
00000000: fc75 0c3e bb17 a0be 1d45 e7be f70d 26bf
00000010: 30b4 f43e 7d85 b63d ba4b 4f3e 341f b7bc
00000020: 0602 88bd 5024 363e d1e0 5a3f d6fb 1d3e
00000030: 0f78 cf3b 9537 1cbd 96a1 2a3f fb40 5c3c
00000040: 7df4 b23c fa7d 68be 35fc 8d3d b17d 1fbf
00000050: 9f36 01c0 8711 fcbe dd65 253f a96f 1e3f
00000060: f4d7 263e fab2 92bc 5dc0 1fbb bb1c dfbd
00000070: 8359 26be 7c43 203d 2281 3a3c d03f 393e
00000080: dc02 8abf 3530 85be cd8b 58be cb67 213d
00000090: 825c e3bf e05e d7be c3f0 ad3e 09f6 e03e
000000a0: 7cdf ca3e accf d1bc e61d de3d 702f 683d
000000b0: 8378 d6bf f7fb b63e 6bc2 debd 2071 81be
000000c0: 1188 223f c692 e03d b163 0dbf 6c64 f53d
000000d0: b8b3 3d3f bf9d 333d 0b1e 8abf fb25 9d3e
000000e0: da6f 94bd 3e9f cebe 4c0b b33f 750b bbbf
000000f0: d492 f0be d415 19bf ea55 4abe 4c8e 8abe
00000100: c659 3ebe 540f 093f efa8 24bd 1671 7bbd
00000110: 46fa 293e 175e 99be 446b 13c0 f190 79be
00000120: 0c16 633d c6c7 0cbd 86f6 9e3c 1c3e 17bf
00000130: 7cdc 1e3e 5a4d 0f3d 969a 263f b8de e23d
00000140: 893f b2bd 32c1 13bd a5bc 1d3e 3635 02bd
00000150: 33af 1abe d8ec 98bf fd88 2d3e 072c cd3d
00000160: 969a d6bd 2183 3bbd 2f59 aabe 6624 a1bf
00000170: 7e10 9ebe 0cb4 49be 6c99 bd3d 6164 cabd
00000180: f3c8 af3c 00a5 b5bf 821b 4ec0 1761 423e
00000190: 92b2 8cbc 2318 85be 33d7 f1be 80b4 d63f
000001a0: 79c2 333c 1028 b5bf e5f5 5b3f 571a d23e
000001b0: 6277 3dbf 525f 003f c500 883e 363b f3bd
000001c0: 841b 9f3f fe09 60be f471 1d3f 1429 8bbf
000001d0: dae7 31bf 0533 9fbf 93d9 79be c86d f43e
000001e0: 1da5 633e e36a 81bd 865d bb3d 34ac a6be
000001f0: 6df7 17c0 b725 74be 6566 593d 7645 273e
00000200: 4804 b7be 83bc b2be f77b a6bb 6172 7bbf
00000210: 2581 e03c e5fb 243e dace 96bf 5f31 1fbe
00000220: 196b bfbf 1ec1 d3bc 0d0b fa3d 3152 a23e
00000230: 2666 49bf 1f3d 50bf 261c 14bf 4f87 62be
00000240: c66e bebd 0591 1bbf 35f2 92bf 101f 78bf
00000250: 13ab 1d3f c11d 563d ccb6 91be 9b98 213e
00000260: 1faa 3a3d d54b 9bbd 323d 223f 1f92 44bf
00000270: 3c5c 76be a71d 453d 25db 223f 41c0 313e
00000280: 4282 79bd 4227 91bf 736f 2dbe 9b8d 69bf
00000290: 5c10 07be db44 0abd 42f1 6abe 2ce1 973e
000002a0: 49c8 c53e d692 a8bf f069 1b3e cd2c a9bb
000002b0: 8731 2dbe 7fda da3e 2377 363f de90 78bf
000002c0: 4143 943f ea78 113f fed7 8abd 220c 49bd
000002d0: 1d55 86bd ae2e f83d 05e2 02bf 5dee 243f
000002e0: fb00 b73d e6dd 9abd 1d38 60bf 7e8f b4be
000002f0: 9b09 a43e e794 59bf a398 12c0 03db 5e3e
00000300: 8b10 0c3e 7128 c2bf 4f6d 4abf 3a80 913d
00000310: 9460 1e3d f2e1 2cbf d495 c8be 5bb4 52bf
00000320: 3b79 893d aa1e 47bf 6170 523e 737f f23b
00000330: 2b52 1cbd cee7 3cbf d779 d2bd ce15 e1bc
00000340: ef54 a83d 3578 b33e 7b61 973d eeeb c7be
00000350: c708 953e a43c 693e c14a bf3e f59e 94be
00000360: 924f c5be 9705 5ebd f0ff 5b3d 5070 13bf
00000370: 3e15 42bf 2be8 51bf 7bdb 0cbc 4e38 93be
00000380: 338c dabe 814a 5a3e e97a 513e 68a4 02be
00000390: 0b5f ae3d 56ad 4abe e2af e7bd d3ef 123e
000003a0: 2202 543f bc7b f33b 084c d4bd 15ea 08bf
000003b0: 868b 2abf 7e2a 6d3e ee5c 243f b98d b6be
000003c0: f276 ccbe 0a48 0d3e 95f9 913e 3f87 27bf
000003d0: 8781 18be 2df2 84bd a97b 9dbe 7391 2abe
000003e0: d83e 06bd 7d91 8e3d 7577 b03f 27a0 20c0
000003f0: 52ce fbbc 8c6f 3bbf a43c 3bbf 0c21 383f
0.13716882 -0.31268105 -0.45169917 -0.6486506 0.47793722 0.089121796 0.20243731 -0.022353746
-0.06641011 0.1778729 0.8549929 0.15428099 0.006331451 -0.038138945 0.6665281 0.013443227
0.021845097 -0.22704306 0.0693287 -0.62301165 -2.0189588 -0.49232122 0.64608556 0.6188913
0.16293317 -0.017907608 -0.0024376132 -0.10894152 -0.16245084 0.039126858 0.011383327 0.18090749
-1.0782123 -0.26013342 -0.2114708 0.039405625 -1.7762606 -0.4206457 0.3397275 0.4393771
0.3962363 -0.025611721 0.108455464 0.056685865 -1.6755527 0.3573911 -0.10876926 -0.2528162
0.6348887 0.10965495 -0.5523024 0.119820446 0.74102354 0.04385161 -1.0790418 0.3069304
-0.072478965 -0.40355867 1.3987823 -1.4612871 -0.4698702 -0.5979893 -0.19759336 -0.2706169
-0.18588933 0.53539014 -0.04020017 -0.061387144 0.16599378 -0.29954597 -2.303422 -0.24371697
0.055440947 -0.034370206 0.01940466 -0.59079146 0.15513796 0.034985878 0.6507963 0.110776365
-0.087035246 -0.036072917 0.15403993 -0.031789027 -0.15105896 -1.1947279 0.16946788 0.10018163
-0.10478704 -0.04577935 -0.33271167 -1.2589233 -0.30871958 -0.19697589 0.092577785 -0.09882427
0.021458125 -1.4190979 -3.220429 0.1898235 -0.017174993 -0.25994977 -0.47234496 1.6773834
0.010971659 -1.4152851 0.8592208 0.4103572 -0.7401029 0.5014545 0.26563087 -0.11876528
1.2430272 -0.21878812 0.61502004 -1.0871911 -0.694944 -1.2437445 -0.24399404 0.47740006
0.22230954 -0.06319215 0.091486976 -0.32553256 -2.3744767 -0.23842512 0.053076167 0.16335091
-0.35745454 -0.34909448 -0.0050806957 -0.98221403 0.02740533 0.16111715 -1.1781876 -0.15546177
-1.4954559 -0.025848921 0.12209139 0.31703332 -0.7867149 -0.81343263 -0.5785545 -0.22121929
-0.09298472 -0.6076816 -1.1480166 -0.969224 0.61589164 0.05227447 -0.28459775 0.1578087
0.045572396 -0.07582823 0.63374627 -0.76785463 -0.24058622 0.04812398 0.6361564 0.17358495
-0.06091524 -1.1340106 -0.16937046 -0.912317 -0.13189834 -0.033757072 -0.22943595 0.2966398
0.38629368 -1.3169811 0.1517713 -0.0051628114 -0.16913424 0.42744824 0.7127554 -0.9709605
1.1583024 0.56825125 -0.067794785 -0.049083836 -0.06559203 0.121182784 -0.5112613 0.64426214
0.08935734 -0.07561855 -0.8758562 -0.35265726 0.32038578 -0.8499283 -2.2905662 0.21763234
0.13678186 -1.5168592 -0.7907304 0.071045354 0.038666323 -0.67532265 -0.3917681 -0.8230645
0.06712576 -0.77781165 0.20550682 0.007400447 -0.0381643 -0.73791206 -0.10277145 -0.027476218
0.08219325 0.35052648 0.0739164 -0.39047188 0.2910826 0.22777039 0.3736172 -0.29027525
-0.3853727 -0.05420455 0.053710878 -0.5759325 -0.75813663 -0.81994885 -0.00859725 -0.28753895
-0.4268509 0.21317483 0.20457043 -0.12758029 0.08514222 -0.19792685 -0.11312844 0.14349298
0.82815754 0.007430522 -0.10366064 -0.5348218 -0.66619146 0.2316074 0.642043 -0.35655
-0.39934498 0.13797012 0.28510728 -0.65440744 -0.14893161 -0.06491504 -0.30758408 -0.16657047
-0.032774776 0.069613434 1.3786455 -2.509775 -0.03073803 -0.7321708 -0.73139405 0.71925426

4.bias f4 [96]
00000000: c86d 9fc1 9e09 e23f 4617 e241 fb8a b1c0
00000010: 2fd5 07c0 4e21 1141 c1db ecc0 2d7e 3dc1
00000020: 86a6 a5c0 8a20 d441 8d30 28c1 a8d7 0641
00000030: 27a7 03bf b27c 4dc0 dde4 a040 3cf5 ecc0
00000040: 1da8 013f 83a4 5dc0 455e dec0 54fc 0541
00000050: 659d 1c41 23ef 9a3f 333a c740 47e8 a341
00000060: 8969 3040 f40e 1b41 aa3e 0841 23b1 e2c0
00000070: db47 48be 9663 bc3e 9a7f 7fbf 0ca8 3d41
00000080: e442 47c1 21d1 81be 7262 55c0 bdc6 2241
00000090: b4c8 2940 7f8a 2941 de5d 8b40 c7f5 b1c0
000000a0: d885 c13f cd8b 8e3f 9f28 8ac0 5866 3cc1
000000b0: ed41 7840 8c46 7340 7454 81c1 b176 303f
000000c0: e59c b43f bb19 87c0 f41b 9640 11a1 14c0
000000d0: 631b 74bf 0524 77c0 03e9 5b41 13ca 4140
000000e0: 37f7 4bc1 593b 2fc1 5a15 9440 f349 9ec0
000000f0: 7e40 d840 75bd b8c0 36e3 12c0 d2fc d3bf
00000100: 2862 0c41 85ce f53f c6fd 0ebd d098 6cbd
00000110: 987e b63e 6f5f fbc0 bb80 b7c0 7102 b5be
00000120: 30ef 3fc1 59eb 0041 f738 f240 2d00 75c0
00000130: d62b 3ec1 7b03 2641 7c8f 6240 5f7f 0cbf
00000140: fb64 e040 da5a 6a41 2189 8940 6f93 b240
00000150: 7a53 85c0 c35a 00c1 eca9 12c1 202c 01c1
00000160: d88a 71c1 6d24 2841 9c44 24c1 af12 81c1
00000170: 5ae1 8341 d300 043f c614 26c0 c138 4741
-19.928604 1.7659185 28.261364 -5.5482154 -2.1223867 9.070631 -7.4018254 -11.843305
-5.1765776 26.515888 -10.511853 8.42765 -0.5142693 -3.2107358 5.0279374 -7.404936
0.50647146 -3.463166 -6.9490075 8.374104 9.788426 1.2104229 6.2258544 20.488417
2.7564414 9.691151 8.515299 -7.084123 -0.1955866 0.36794728 -0.9980408 11.853527
-12.453831 -0.25354865 -3.3341336 10.17352 2.652875 10.5963125 4.3552084 -5.561252
1.5118971 1.1136414 -4.3174586 -11.774986 3.8790238 3.8011808 -16.166237 0.6893111
1.411038 -4.221891 4.6909122 -2.3223307 -0.9535429 -3.8615735 13.744388 3.0279586
-12.747855 -10.951989 4.6276064 -4.946527 6.7578726 -5.773127 -2.2951179 -1.656153
8.773964 1.920365 -0.034909986 -0.05776292 0.35643458 -7.8553996 -5.734464 -0.35353425
-11.995895 8.057458 7.5694537 -3.8281357 -11.885702 10.37585 3.5400076 -0.5488185
7.0123267 14.647181 4.2979894 5.5804973 -4.16644 -8.022159 -9.166485 -8.073273
-15.096397 10.508893 -10.26675 -16.134123 16.485035 0.5156376 -2.595018 12.451356

6.weight f4 [96, 96]
00000000: 0636 d8be 609e 9bbe 14ca 89bf b11d 9fbc
00000010: 7107 db3c 5729 2ebf 9966 bf3b 8726 133f
00000020: a349 e13c 2d88 f3bf 3c49 f7be 9e27 3ebf
00000030: c184 003c a517 30bf db01 12bf cf51 18bf
00000040: 143a 11bf 991d 64be e394 9ebe 6f2b 973c
00000050: c317 cf3d 0103 d23d 8512 593e c1df 26bf
00000060: 59ff 9a3d 256c 8ebe 3b09 b83d d9dc 78be
00000070: d605 41bc 918a aabe 8e48 d73e aa6d b3be
00000080: 0c32 bbbf 71e3 28bf 0f1e 27bf b2f9 c2bd
00000090: b919 83bf c820 313f 1deb 34bf 4d55 383d
000000a0: cc1a 2dbe 2b4a 32be ba3d 0dbe fb2e a1bf
000000b0: 9d20 f73b 40bc 71be 2a5e 15bf 7672 d8bf
000000c0: 2ed6 6bbf ab67 83bd 3f35 19bf e196 4cbf
000000d0: 3dc4 48bf 0600 4b3e d7f9 1abe 9175 b3be
000000e0: e7a8 31be 4884 01bf 87c3 87bf b912 51bf
000000f0: a341 61bf 463d 14be 77b6 7cbf a892 bfbd
00000100: 675f 363e af38 d3bf f3d7 1f3d bb56 9d3d
00000110: ecf9 40bf 59eb b13d 379e 28bf 0db6 a3bf
00000120: 5a87 7bbe b7e8 e6be f78f 97bf 06de 97bd
00000130: da7f 61bf cf74 fbbd 523f 16bf 0470 53bf
00000140: 778d 0bbf ef21 d8be 137d 223f c5e8 a9bd
00000150: 8500 78bf 29fa 34bf df64 39bf 1b56 d2bd
00000160: 8450 34be ff22 24bc 0e18 e4be e607 33be
00000170: 5887 f3bc 7477 cebd 2242 16bf d455 86be
00000180: a400 043e 1550 073f a395 01bf 1550 92be
00000190: a090 19be 2be6 8cbe 9c8b 4bbd c093 57bc
000001a0: b742 77be c1ec 2abf dc22 b1bd 79c3 1cbf
000001b0: aef2 47be fd11 2cbe 0ba0 10bd 6758 2dbf
000001c0: f74e 38be c447 33bd 574c 8abc 05c7 d2be
000001d0: 8e94 63bf e9c7 df3d 3833 95bc 6a3c c63e
000001e0: 9328 13bf 464e debe 2a4a 17be d242 2f3e
000001f0: 95cc c3bc bdaa 87be 5555 c9be 42d3 b9be
00000200: d60b 1ebf 26a5 61bf a041 bcbf ee19 00be
00000210: 229d 1fbe 7af0 8a3d 241f 3abe 005d d6ba
00000220: a776 b93e 4db6 663f 8e9f 373f 5086 38be
00000230: f6ec 803f 5a1b cebe 5bbe 10be 0d2f 84be
00000240: 4ad9 e5be 6450 e03c eb95 1dbf 650c c0be
00000250: 0cf1 1dbe 288c ac3e 04fa 15bf 8576 adbd
00000260: a61d 29bf 11d0 80bf 7128 1dbe 4831 1a3d
00000270: e18d 2b3f b7ef 04bf 30fb fcbe 8de7 363f
00000280: 6e50 5bbb 4099 48bf a2d8 cfbd b4e5 173d
00000290: 3b90 e1be facd e1be e7c0 a3be ce9e 00bf
000002a0: 7dc5 14bd df5b 07be 3e4d 5bbf 2e33 06bf
000002b0: 62a1 663d ec15 e1be 8bd3 e8be ee82 90be
000002c0: cade dc3e 0f29 6fbe 27d0 13bd ff29 b5bf
000002d0: 97a1 7e3c ff97 5f3e 0abd 1bbe 0530 e9be
000002e0: 3d7d 1e3f dbf2 42bf bda0 c8be 700d 0bbf
000002f0: a0ec 3cbd 5758 efbe 6a46 9cbd 3219 16be
00000300: de9e 78be cf38 a93d c785 fe3c 40f8 dbbe
00000310: cc15 94bd 9097 4fbe ceca 84be 3efa 86be
00000320: c3ba 94bd f6af 00be d470 bdbe 8639 9c3d
00000330: 98d1 293f df55 80be f969 38c0 21e2 8ebf
00000340: cfe5 f73d 2a23 a6be e344 bbbe 3329 353e
00000350: 9c97 dcbe 3cd9 fcbd 552d c1be 20b3 eebe
00000360: c3a0 a5bc 46b1 fbbf 5eda e73a 9f73 8c3d
00000370: 4e48 93bc f25d 6cbf 3409 6bbe 2975 efbd
00000380: bb78 d6be 81d9 1cbf 1bfa 983d 0acc 8b3b
00000390: 600b b8be 5c27 16bf 271d cebe 1d9e 54bd
000003a0: 888c 45bf beeb a8bf adfa a7be d5e1 a1be
000003b0: 9c1d 5a3f 619c 2abf 4591 65bf df19 02bd
000003c0: 2bc3 58bf a125 37bf 83a0 ba3d 8146 0b3e
000003d0: 2647 95be ae06 e2bd ffc9 68be ab32 2bbe
000003e0: 2beb aebc d735 d9bd 0f5c 38bf 9969 d9bc
000003f0: b27b 7dbf 0891 67be 12c7 b93e 5300 43be
-0.42228717 -0.30394268 -1.0764794 -0.019423338 0.026736947 -0.6803183 0.005841088 0.57480663
0.027500933 -1.9025933 -0.4829806 -0.742792 0.007844151 -0.6878608 -0.5703408 -0.5949983
-0.56729245 -0.22276916 -0.30972967 0.018453328 0.10111954 0.10254479 0.21198471 -0.6518517
0.07568235 -0.27816883 0.089861356 -0.24302997 -0.011781177 -0.33308843 0.42047542 -0.35044605
-1.4624648 -0.6597205 -0.6528024 -0.09520282 -1.0242225 0.69190645 -0.70671254 0.045003224
-0.16904753 -0.17411105 -0.13793078 -1.2592462 0.0075417296 -0.23606968 -0.5834681 -1.6909931
-0.9212369 -0.064162575 -0.5984687 -0.7991772 -0.78424436 0.19824228 -0.15134369 -0.35050634
-0.17349587 -0.5059247 -1.0606545 -0.81669194 -0.8799078 -0.14476499 -0.9871592 -0.09354144
0.1780983 -1.6501673 0.039024305 0.07682558 -0.7538135 0.08687467 -0.65866417 -1.2789932
-0.24563351 -0.45099422 -1.184081 -0.074153945 -0.8808571 -0.12278139 -0.5869037 -0.825928
-0.54512733 -0.4221339 0.634721 -0.082963504 -0.9687579 -0.70694214 -0.7241954 -0.102703296
-0.1760884 -0.010018109 -0.44549602 -0.17483482 -0.029727623 -0.100813776 -0.5869466 -0.26237357
0.1289087 0.5285657 -0.5061895 -0.28576723 -0.14996576 -0.27519354 -0.04969369 -0.013157785
-0.24146543 -0.6676751 -0.08649227 -0.6123577 -0.19526169 -0.16803737 -0.03530888 -0.67713016
-0.17998873 -0.043769613 -0.016882105 -0.41167465 -0.8889855 0.10926802 -0.0182129 0.38717967
-0.57483786 -0.43419093 -0.14774385 0.17115334 -0.023901263 -0.2649745 -0.39322916 -0.3629399
-0.6173681 -0.8814262 -1.4707527 -0.12509891 -0.15587285 0.067841485 -0.18175942 -0.001635462
0.36223337 0.9012192 0.71727836 -0.18019986 1.0072315 -0.40255243 -0.14135115 -0.25817147
-0.4489234 0.027382083 -0.6155688 -0.37509456 -0.15423983 0.3370068 -0.5858462 -0.084698714
-0.66060865 -1.0063497 -0.15347458 0.037644655 0.67013365 -0.51928276 -0.4941039 0.7144707
-0.0033464688 -0.7835884 -0.10148741 0.037084296 -0.44055352 -0.4410246 -0.3198311 -0.50242317
-0.036321152 -0.1321864 -0.8566474 -0.52421844 0.05630625 -0.43962038 -0.45473894 -0.2822489
0.43138725 -0.23355506 -0.03608718 -1.4153441 0.015541456 0.21835326 -0.15208831 -0.45544448
0.6190985 -0.7615182 -0.39185134 -0.5431738 -0.0461241 -0.46747085 -0.07630618 -0.14658049
-0.24279353 0.082627885 0.03106965 -0.42962837 -0.0723072 -0.2027266 -0.25935978 -0.26362795
-0.072621845 -0.12567124 -0.37000144 0.07628159 0.6633544 -0.25065514 -2.881468 -1.1162759
0.121043794 -0.32448703 -0.36575994 0.17691498 -0.4308442 -0.12346122 -0.37729898 -0.46621037
-0.020218259 -1.9663475 0.001768898 0.068579905 -0.017978813 -0.9233085 -0.2295273 -0.116922684
-0.41888985 -0.61269385 0.07469579 0.0042662667 -0.35946178 -0.5865381 -0.40256616 -0.0519086
-0.7716756 -1.3196943 -0.32808438 -0.3161761 0.8520143 -0.66644865 -0.8967479 -0.031762954
-0.846728 -0.7154179 0.091126464 0.13601114 -0.29155844 -0.1103643 -0.22733305 -0.16718547
-0.021352371 -0.10605972 -0.7201547 -0.02653961 -0.9901687 -0.22613919 0.3628469 -0.19043092

6.bias f4 [96]
00000000: c6a2 efc0 f9e3 56bf 464d 4b40 f142 f640
00000010: 9b25 8340 0aa5 03c0 3648 0540 0952 48c0
00000020: ed16 0440 d1e4 f03e 7767 83bf cbd0 18c1
00000030: 3e41 34c1 4983 d6c0 200a cac0 043c 07bf
00000040: 8678 c140 5c31 7340 81cb 11c1 3cf0 0a40
00000050: d70e b2c0 9278 0141 2794 a640 0817 1dc1
00000060: 9e14 6441 17be 2c3f 0fa6 8dc1 6709 8040
00000070: 2d38 4d3f 9ab5 9bbe 26c5 5f3e b768 6140
00000080: 0b34 1dc0 90d7 25bf aa76 12c1 00a9 37c1
00000090: 1f9d 9bbe f1eb 03c1 0c80 f6bf 73b3 23c0
000000a0: a6a1 47c1 937c 5140 1be3 50c1 e32d c940
000000b0: 6922 cc40 5d7f 2cc0 7ecb f740 d7a9 7dc1
000000c0: 749f b8c0 d5e5 30bf 8962 17c1 695d 00c0
000000d0: bd30 a9c0 548e 1abe 8136 d240 7570 d4be
000000e0: c7b6 6340 a37a 8ec1 dd3a a3c0 2147 2b41
000000f0: bc12 27c1 e3d2 3ac0 a0b4 4140 5635 8dbe
00000100: a771 8040 04bd 6bbf 5039 0b40 0611 2841
00000110: aa26 7640 509f cebe baf0 9740 4d9d 9dc0
00000120: fad1 e840 c158 50bf 4ada 8cbe 2fe6 6cc1
00000130: 812f e741 7e98 dbbe 8035 1041 6614 0dc0
00000140: ecd7 cac0 ffe2 df41 d614 1941 797c 17c1
00000150: d671 de40 6a65 0741 7606 10c2 9c07 b0c0
00000160: e2ff a2c0 317c 4140 b5f0 ee40 6331 a541
00000170: 0168 43c0 f7f2 7341 fd33 fa40 d295 aebf
-7.48862 -0.8394161 3.1765914 7.6956716 4.0983405 -2.0569482 2.0825324 -3.130007
2.0638993 0.47049573 -1.026595 -9.550975 -11.265928 -6.703526 -6.313736 -0.5282595
6.0459623 3.7998877 -9.112184 2.1709127 -5.5643115 8.091936 5.205585 -9.818123
14.2550335 0.67477554 -17.706083 4.0011477 0.8016384 -0.30411988 0.2185255 3.5220163
-2.4563015 -0.6478205 -9.153971 -11.47876 -0.3039331 -8.245103 -1.9257827 -2.5578277
-12.476965 3.2732284 -13.055446 6.2868514 6.3792005 -2.6952736 7.7435904 -15.853965
-5.7694645 -0.69100696 -9.461556 -2.0057013 -5.2871995 -0.15093356 6.5691533 -0.41492048
3.5580308 -17.809881 -5.1009355 10.704865 -10.442074 -2.9191215 3.0266495 -0.27579755
4.0138736 -0.9208529 2.175373 10.504156 3.8461099 -0.4035592 4.7481356 -4.9254518
7.275632 -0.8138543 -0.2751029 -14.806197 28.898195 -0.4288978 9.013062 -2.20437
-6.3388577 27.985838 9.567587 -9.467889 6.951396 8.462259 -36.00631 -5.500929
-5.0937357 3.023205 7.466883 20.649115 -3.053223 15.246818 7.818846 -1.3639472

8.weight f4 [6, 96]
00000000: 745c 413c 56ec 1d3e f425 913d 6fcd 87bc
00000010: 335f ca3d 9f77 3fbb 7139 2d3d 7ed8 213d
00000020: 0107 2dbb 8863 31bb 00f1 0ebd 2c6e 34bc
00000030: 2b91 48bc f3d9 eeba 084b 05bd c23f 883c
00000040: 05a5 883c be65 8bbc ffa3 853b 0efa 75bb
00000050: d2d8 213b 97f9 343c d562 f03b f707 3dbb
00000060: 35a5 43bc 6fc1 79ba e8a5 723c 1843 a23c
00000070: 16c9 623d d194 3a3e 1421 71bd 32e4 a5bc
00000080: abaf 58bc 50de 8ebc 5a39 ef3b b8b2 95bb
00000090: 3d6c 08bc 7e9f 25bc 1d49 0b3b aa9f 8f3c
000000a0: 8c49 0d3e f5d8 923b 13b3 a1bc 893b 363c
000000b0: ab5e b93d f7cd 8dbc 58d1 d63b 1646 3dbc
000000c0: 6988 ecbb 8465 eebd e39b b03d 52fa 87bb
000000d0: 16d6 11be 394e 57bc 44af 2d3c b244 1dbc
000000e0: 5acb 20bc db78 2ebd 5180 dd3a a131 a33a
000000f0: bf98 053e bc5b 82bc f0cd 723e 133b 4f3c
00000100: d530 f13b fc1e 07bb 73a3 7fbd 16c4 d1bc
00000110: 3ff9 f13c 24c7 ab3c 859e 97bc e28d 09bb
00000120: cdce 373c 5dd1 3bbd bdb5 1abc f39e 04bd
00000130: 332c f13b 0140 0f3b 725f b53b 5617 68bb
00000140: b4a5 1abc 63cd 0d3d 0476 47bc 0e54 1c3e
00000150: d851 8dbd 5aa8 273d 1ff9 713b beef a8bc
00000160: adae 5b3d 73a5 4fbc 3f53 a8ba da59 ab3c
00000170: dae9 903c 87f1 863c 35a7 b83c e8cc 62bc
00000180: 256f 323e ced0 f73e 6b3f b5bd d10f dd3b
00000190: 93c1 6a3d 87d8 1f3c a016 96bc b3ef 193e
000001a0: a659 983c 0cd1 62bb 0ac1 723c 0028 2bbd
000001b0: 8d4c 96bc 6be8 c43c 4ca5 c4bd d8ab c5bd
000001c0: 979b 90bc 05cf 233c 240a 6f3c 5257 493d
000001d0: 84a5 13bd 0ea3 133e 4dca f3ba c487 083b
000001e0: 3a25 f0bc a8c5 ef3a 7f5d c9bb 519b 14bd
000001f0: 0b63 ef3d f9b9 c9bb 19f3 fabd de9c 02bc
00000200: 7fdf 27bd cc94 65bd 8569 263d 2616 233b
00000210: 6e1e 5fbc 6028 ccbc 0dc7 08bd ce12 da3d
00000220: 4fa5 a43d 1dfd cd3b cd69 c43c 5d3e 473d
00000230: 4bcd 983d b9a5 903b b079 3b3c 61e2 1d3c
00000240: ef56 c73c b92a a8be 42e1 413c 65f3 0fbd
00000250: 6021 8abd 4b4b 0cbd 9418 3b3d cb31 efbc
00000260: 6347 a6bb 81d8 b2bd d614 90ba bdf7 b03a
00000270: 94bc 48be f298 80bc 82b8 173e 1c67 3e3c
00000280: 5c40 ba3c a60f c73b 6803 ca3d 0756 d93b
00000290: 5246 ef3c 3040 f0bc d577 49bb 48d5 463b
000002a0: d6ba 8fbc 1497 693d a0e5 e53d 494f f0bb
000002b0: a614 013d 321f 79bb ef61 a83c c27c bbbc
000002c0: ff01 0dbc f219 fc3c 63c1 a6bc b9c5 173c
000002d0: da87 8dbd 8497 96bb 92ae 80bc fc09 d73d
000002e0: 8636 993c 6ad7 b3bc 0ce6 843c 8001 803c
000002f0: 47dd c4bc f173 9c3c ead9 7d3d 07e7 a2bd
00000300: 939b 803e 36ad 903f 7e28 cabc df52 2c3d
00000310: 66dd c4bb 2892 0e3d 3b50 e2bd 74b7 563e
00000320: 08bd 1f3d 03da c13c 02d9 56bb ee1c d8bd
00000330: e9d4 b03b cdc7 35bd d0c7 a7bd bbc6 413d
00000340: 050f 2b3d a78d a83d 8a35 393b bbe7 2f3d
00000350: ea6f 89bd 0c00 a03d 15be 1d3b 56d6 5cbd
00000360: c0ae 95bd 5df4 3c3d 5612 43bd 6954 113c
00000370: a96d e73c a48d 68be 8bc1 f9bd 345a 003e
00000380: 28a1 15bd f026 93bd 3ba8 ea3d d20a ba3b
00000390: b86e c9bc e713 313d d8bb b3bd 896b ba3a
000003a0: 2bdb fd3c c09c 183c 0c40 88bd a005 d83d
000003b0: 7921 213d 538f a83d b27f a53c fcfa b3bc
000003c0: 21e9 acba 29d8 99ba 1d92 233d 3b9b 10bd
000003d0: 6e84 f4bd 5e04 8abd 9ff8 1a3e d578 86bd
000003e0: be98 153c 81f4 2bbd e89a 74bc c6ba ba3c
000003f0: 1182 b8bd 0a00 1dbd 23dc 983d b2e9 1f3d
0.011801828 0.15422186 0.07087317 -0.01657745 0.09881439 -0.0029215587 0.04229111 0.039513104
-0.002640188 -0.0027067382 -0.034897804 -0.011012595 -0.012241642 -0.0018222913 -0.03254226 0.016631965
0.01668025 -0.017016288 0.0040783877 -0.0037533077 0.0024695885 0.011045835 0.0073360004 -0.0028843859
-0.011941244 -0.000952742 0.014810063 0.019807383 0.05536755 0.18220831 -0.058869436 -0.020250414
-0.013225476 -0.017439991 0.007300538 -0.004568424 -0.008326587 -0.010108827 0.0021253296 0.017532188
0.13797587 0.0044814297 -0.01973871 0.011122593 0.090512596 -0.017310126 0.0065557174 -0.011552354
-0.00721841 -0.11640456 0.08623483 -0.0041497136 -0.14241824 -0.013141208 0.010600869 -0.009598898
-0.009814108 -0.042595726 0.0016899203 0.0012450704 0.1304655 -0.015912883 0.23711371 0.012648362
0.0073605576 -0.0020617833 -0.062411737 -0.025606196 0.029537795 0.020968981 -0.018508205 -0.002098911
0.011218739 -0.04585396 -0.009442744 -0.03237815 0.0073600053 0.0021858218 0.0055350596 -0.00354143
-0.009438921 0.0346197 -0.012174133 0.1526644 -0.06900376 0.040932037 0.003692217 -0.02062213
0.05363338 -0.0126737235 -0.0012842192 0.020916868 0.017689634 0.016472591 0.022540668 -0.013842799
0.17425211 0.48401493 -0.08849987 0.00674627 0.057313513 0.009756214 -0.018321335 0.15032844
0.018597435 -0.0034609465 0.014816532 -0.041786194 -0.01834705 0.024036607 -0.096018404 -0.09651917
-0.017652316 0.009998088 0.01458982 0.04915554 -0.03604652 0.14417669 -0.0018599719 0.0020832876
-0.029314626 0.0018293159 -0.006145179 -0.036280934 0.11688813 -0.006156203 -0.122533984 -0.00797197
-0.040984627 -0.056050107 0.040627975 0.0024885028 -0.013618095 -0.024921596 -0.033392955 0.10648118
0.080393426 0.006286277 0.023976231 0.04864346 0.074610315 0.004414287 0.011442587 0.0096364925
0.024333445 -0.32845095 0.011833491 -0.03514423 -0.06744647 -0.034251492 0.045677736 -0.029198548
-0.005074428 -0.08732701 -0.0010992538 0.0013501566 -0.19603187 -0.01569793 0.14816478 0.011621263
0.022735767 0.0060748635 0.09863931 0.0066325697 0.029208336 -0.029327482 -0.0030741591 0.0030339528
-0.017545145 0.057028845 0.11225438 -0.0073336703 0.031513833 -0.0038012979 0.02055451 -0.022886638
-0.008606433 0.03077409 -0.020355886 0.009263449 -0.06910677 -0.004595699 -0.015708242 0.10499951
0.018702757 -0.021953303 0.016222976 0.015625715 -0.024031295 0.019098254 0.061975397 -0.07954221
0.25118694 1.130286 -0.024677511 0.04207122 -0.006007838 0.034807354 -0.11050459 0.2096842
0.038998634 0.023663526 -0.0032783155 -0.10552393 0.0053964746 -0.044379998 -0.08192408 0.047308665
0.04176237 0.08230143 0.0028260672 0.042945605 -0.06710799 0.07812509 0.0024069597 -0.053915344
-0.073087215 0.04613148 -0.04762491 0.008870223 0.028250532 -0.22710282 -0.121951185 0.1253441
-0.036530644 -0.07185161 0.11457869 0.0056775594 -0.024588928 0.04323187 -0.08776063 0.0014222722
0.030988296 0.009314716 -0.06652841 0.10547948 0.039338563 0.08230462 0.020202491 -0.021970265
-0.0013192036 -0.0011737394 0.039934266 -0.03530429 -0.119393215 -0.06739114 0.15133904 -0.06566016
0.009130655 -0.041981224 -0.014929511 0.022794139 -0.09009183 -0.038330115 0.07463863 0.03904123

8.bias f4 [6]
00000000: a61c 853b 3beb f8ba 4571 8b3b 0854 9e3a
00000010: 024d c0ba 3bc8 af3a
0.004062253 -0.0018991003 0.004255446 0.0012079487 -0.0014671388 0.0013411114
