models/FF_with_station/FF_with_station_depth1_width48_batch106.pth (torch, 18760 bytes, 6 tensors)

0.weight f4 [48, 26]
0	0xbf52f3ca	-0.8240324
1	0x40851cef	4.159782
2	0x3f09818b	0.5371329
3	0x3dcd8b1b	0.10036298
4	0x3e3fbd3b	0.1872453
5	0x3e4561dc	0.19275612
6	0xbecd2792	-0.40069252
7	0xbdd3a4ff	-0.10334205
8	0x3f027e88	0.5097432
9	0x3e35055e	0.17677829
10	0xbfa469ba	-1.2844765
11	0xc0074f3a	-2.1142106
12	0xc01ee009	-2.482424
13	0xbf360d70	-0.71114254
14	0x3d1649a1	0.03669131
15	0xbda1894e	-0.07887517
16	0x3e4c8488	0.19972432
17	0xbe1a493f	-0.15067004
18	0x3eb9776c	0.36223924
19	0x3e816209	0.25270107
20	0x3f334a2a	0.7003504
21	0x3e1f2aa5	0.15543611
22	0xbf8370a3	-1.0268749
23	0xbf01c44b	-0.50690144
24	0xbe6b2c9e	-0.22966239
25	0xbf55fdfa	-0.8359066
26	0xc0af29e2	-5.4738626
27	0x3f15ddba	0.5854145
28	0xbf9ff5a5	-1.249684
29	0x3e33fb91	0.17576434
30	0x3ebcacdb	0.36850628
31	0x3e803397	0.2503936
32	0xbd2c5acc	-0.04207878
33	0x3d1bac4c	0.038006112
34	0x3ee42ab7	0.4456384
35	0xbdbabb56	-0.09117763
36	0x3b873ef6	0.0041273786
37	0xbdc5a297	-0.09650152
38	0xbd9ad4af	-0.075600974
39	0xbcc8c32a	-0.024507124
40	0x383d6a32	4.5160014e-05
41	0xbde8291c	-0.11335966
42	0x3dd59fd6	0.10430877
43	0xbe45c895	-0.19314797
44	0xbea49fc6	-0.32153147
45	0x3e23aa10	0.15982842
46	0x3f279e41	0.6547585
47	0x3eefda07	0.4684603
48	0x3ec94784	0.39312375
49	0x3e0e9b2f	0.13926385
50	0xbf3b7995	-0.73232394
51	0xbf3c289f	-0.7349948
52	0xc0b84a64	-5.759081
53	0x4018621a	2.3809876
54	0x3ee3c314	0.4448477
55	0xbcbd8422	-0.023134295
56	0x3d1d2116	0.03836163
57	0x3e20a90f	0.1568949
58	0x3f42ecd8	0.76142645
59	0x3eecbab3	0.4623619
60	0xbd211df1	-0.039335195
61	0xbe2b5b85	-0.1673413
62	0xbf38a20f	-0.7212228
63	0xbf962440	-1.1729813
64	0xbfb2a259	-1.3955795
65	0xbfcf7255	-1.6206766
66	0xbebb7440	-0.3661213
67	0x3df76151	0.120791085
68	0x3eb36515	0.35038057
69	0xbf07acb2	-0.5299789
70	0x3db38585	0.08765701
71	0x3e4af733	0.19820862
72	0x3db5f980	0.08885479
73	0xbe265766	-0.16244277
74	0x3e8ce0e3	0.27515325
75	0x3e3d6715	0.18496354
76	0xbe66bd5a	-0.2253317
77	0xbec54d19	-0.38535383
78	0x3ec5c65b	0.38627896
79	0x41393296	11.57485
80	0x3ecc1a3a	0.3986376
81	0x3d913333	0.070898436
82	0xbe820c09	-0.25399807
83	0xbe132691	-0.1437018
84	0xbeb68702	-0.35649878
85	0xbeb3bb7d	-0.3510398
86	0xbde4ff06	-0.11181454
87	0x3e8d748f	0.2762799
88	0x3e202e0a	0.15642563
89	0x3b58051e	0.0032962034
90	0x3e750511	0.23927714
91	0x3e24c163	0.16089396
92	0xbd81fbc4	-0.063468486
93	0x3e859169	0.26087502
94	0x3ea1bcfe	0.31589502
95	0x3d8d7703	0.06907465
96	0xbe15af5d	-0.14617677
97	0x3e21c4e0	0.15797758
98	0xbd5c41d0	-0.0537737
99	0xbe1fdfa8	-0.15612662
100	0x3e03d3d9	0.12873782
101	0xbe2a8290	-0.16651368
102	0xbead8411	-0.3388982
103	0x3f5d6625	0.86483985
104	0x40864f89	4.197209
105	0xc0ff2fe4	-7.974596
106	0xbfbcdcdc	-1.4754901
107	0xbe558d34	-0.20854646
108	0xbb60a76f	-0.0034279486
109	0x3e63a2ce	0.22230074
110	0x3f190643	0.5977518
111	0x3e4e3081	0.2013569
112	0x3d989d30	0.07451856
113	0xbe0711ef	-0.13190435
114	0xbecb0c73	-0.39657936
115	0xbea3020c	-0.318375
116	0xbdb71b01	-0.089406975
117	0x3d8211c7	0.06351047
118	0x3dcf6e77	0.10128491
119	0x3e0d180e	0.13778707
120	0xbe170cef	-0.14751028
121	0x3ebe5cb4	0.37180102
122	0x3b7c4487	0.0038492994
123	0xbf04d1d6	-0.51882684
124	0xbdacbb18	-0.08434123
125	0xbb9be90a	-0.004758005
126	0xbe76094e	-0.24026987
127	0x3e25e249	0.16199602
128	0xbe79efd4	-0.24407893
129	0x3f910ce3	1.1332058
130	0xbeaf6123	-0.34253797
131	0xc0fd4b28	-7.9154243
132	0xbebbf136	-0.36707467
133	0x3f872403	1.0557865
134	0xbc943453	-0.018091356
135	0xbf7adc77	-0.9799265
136	0x3cc4d6e0	0.024028242
137	0x3f25fc71	0.6483832
138	0x3e0006f6	0.12502655
139	0x3e03e076	0.12878594
140	0x3d9b5539	0.07584614
141	0xbd907994	-0.07054439
142	0x3d3cae2f	0.046064552
143	0x3de689ca	0.1125675
144	0xbd8f7fd4	-0.07006803
145	0xbd0e6437	-0.03476354
146	0x3c5f0816	0.013612768
147	0x3d37619e	0.04477083
148	0xbd410b44	-0.047129884
149	0xbd93db79	-0.072195955
150	0xbc73fa1d	-0.014891175
151	0x3c1a5046	0.009418553
152	0x3dc542d2	0.096318856
153	0x3be1549e	0.0068765422
154	0xbc7f6944	-0.015589062
155	0x3dd26a74	0.102742106
156	0xc0ad26db	-5.410993
157	0x415da510	13.852798
158	0x3f11df66	0.56981504
159	0x3dd13157	0.10214489
160	0xbec6b512	-0.3881002
161	0xbe1009b5	-0.14066203
162	0x3de2227c	0.110417336
163	0x3f1a8c72	0.6037055
164	0xbe0802e2	-0.1328235
165	0xbeea637f	-0.45779034
166	0xbe942b49	-0.28939274
167	0xbe16210e	-0.14661047
168	0x3dac5431	0.08414496
169	0x3ca9fd51	0.020750673
170	0xbda7b7ee	-0.08189379
171	0x3f028e08	0.5099797
172	0x3e107d22	0.14110234
173	0x3e972c50	0.29525995
174	0xbe7a0e54	-0.24419528
175	0xbf435044	-0.7629435
176	0xbe9e4349	-0.3091071
177	0xbdfbf936	-0.123033926
178	0x3eeaa0fa	0.4582594
179	0x3f471738	0.77769804
180	0x3eec351f	0.46134278
181	0xbf374b85	-0.7159961
182	0xc11c80c2	-9.781435
183	0x40d04752	6.508706
184	0x3e57ad5b	0.21062224
185	0xbf2a7117	-0.6657881
186	0xbde366da	-0.11103602
187	0x3f5c2993	0.8600094
188	0x3e8fa427	0.28054926
189	0xbf2e37d1	-0.6805392
190	0xbfc2f15e	-1.522991
191	0xbf4e444a	-0.8057295
192	0xbebf6c25	-0.37387195
193	0x3ecb754d	0.3973793
194	0x3f024ca7	0.5089821
195	0x3e8ccd02	0.2750016
196	0x3e9708bc	0.2949885
197	0x3dc6b00a	0.097015455
198	0x3eab1f3f	0.33422276
199	0xbe3e6f79	-0.18597211
200	0x3d428927	0.04749408
201	0x3d657b85	0.056026
202	0x3e20e1eb	0.15711181
203	0x3d73633b	0.059420805
204	0x3a1f4078	0.0006074975
205	0x3e03032a	0.12794176
206	0x3b2308ee	0.0024877149
207	0x3db66273	0.089054964
208	0xbf8e54a5	-1.1119581
209	0xc089b633	-4.303491
210	0x3e8e08d2	0.27741104
211	0x3f00d208	0.5032048
212	0xbe93e2fb	-0.2888411
213	0xbe24da87	-0.16098987
214	0x3e43318b	0.19061868
215	0x3e0361c1	0.12830259
216	0xbe9d21c5	-0.30689827
217	0xbcd42892	-0.025898252
218	0x3d862645	0.06550268
219	0xbd4e882f	-0.050422844
220	0x3e67353c	0.22578901
221	0x3db77c6f	0.08959281
222	0x3d05f6ae	0.032705955
223	0x3dda0af7	0.10646623
224	0x3e0c8754	0.13723499
225	0x3cc2efbd	0.023795957
226	0x3c24f9db	0.010069336
227	0x3e30b0ba	0.17254916
228	0xbe064416	-0.1311191
229	0xbf93dc4b	-1.1551603
230	0xbfd7410a	-1.6816723
231	0xbf101af1	-0.5629111
232	0xbf1fd369	-0.6243196
233	0x3f84dce5	1.0379912
234	0x414c21d0	12.758255
235	0xc18bcfc9	-17.476458
236	0xbdb3d126	-0.08780126
237	0xbe4023bf	-0.18763636
238	0x3c535585	0.012898807
239	0x3d5c4e1f	0.05378544
240	0x3e2934b6	0.16524014
241	0xbe583fff	-0.21118163
242	0x3c606345	0.013695543
243	0x3d654f73	0.05598397
244	0xbd8a8cef	-0.06765162
245	0x3d2f7c79	0.042843316
246	0xbe979f40	-0.29613686
247	0xc03729ce	-2.8619266
248	0xc0a822fc	-5.2542706
249	0xc04d3379	-3.2062666
250	0xbec19571	-0.37809327
251	0xbf083276	-0.53202
252	0x3ed22ec4	0.41051304
253	0x3f88f1d0	1.0698795
254	0x3f1c0257	0.6094107
255	0xbf7c6ca5	-0.9860328

0.bias f4 [48]
0	0x419aa4e1	19.330507
1	0x41c1798e	24.184353
2	0x41c2be05	24.342783
3	0x411979e3	9.5922575
4	0xc048fe92	-3.1405377
5	0xbf0f19ee	-0.5589894
6	0x412dc533	10.860644
7	0xc193e346	-18.485973
8	0x41977828	18.93367
9	0xc1d694ea	-26.822712
10	0x4006a9f6	2.1041236
11	0x411cf6b5	9.810231
12	0xc12040b5	-10.015798
13	0xc189b4e9	-17.213335
14	0xc158e9fc	-13.557125
15	0xc20aae03	-34.669933
16	0xc0c62a9b	-6.192701
17	0xbee0cfdb	-0.4390858
18	0xc1501b9b	-13.00674
19	0xc16929d5	-14.572713
20	0xc08a9eda	-4.331891
21	0x40b03986	5.507022
22	0xc18adda4	-17.358223
23	0x41b25747	22.292616
24	0x418cafda	17.585865
25	0x401533f1	2.3312953
26	0xc17f15e3	-15.942843
27	0xc13d25a4	-11.82169
28	0xbf75f343	-0.9607431
29	0xc1cb6a3b	-25.42687
30	0x41b4805b	22.562674
31	0xc2225cbc	-40.59056
32	0x41058d34	8.346973
33	0x419ce494	19.61161
34	0xbf16382c	-0.5867946
35	0x40249945	2.5718548
36	0x41f6f5cf	30.870024
37	0xc12fb06b	-10.980571
38	0xc03f91d6	-2.9932761
39	0x41fa0164	31.250679
40	0x413103ff	11.063476
41	0x3ecb520b	0.3971103
42	0xc0c43dca	-6.1325426
43	0x3fa88dc1	1.316826
44	0xc12de26b	-10.867778
45	0x41e42b25	28.521067
46	0x41c04ef9	24.03856
47	0x401d010e	2.4531894

2.weight f4 [48, 48]
0	0x4012be31	2.2928584
1	0xbe72a41f	-0.2369542
2	0xbebba2da	-0.36647683
3	0x3e909171	0.28235963
4	0xbf7e1154	-0.9924519
5	0xbe5a7735	-0.21334536
6	0x3e8a0857	0.26959488
7	0xbfa718fc	-1.30545
8	0xbed9a537	-0.4250886
9	0xbf9dbe4f	-1.2323703
10	0xbf126723	-0.57188624
11	0x3ed43eb1	0.4145408
12	0xbe9f8501	-0.3115616
13	0x3cdf7ff7	0.027282698
14	0xbe3461ce	-0.17615435
15	0x3ce77ec6	0.028258692
16	0x3e70260e	0.23452017
17	0x3e1026e7	0.1407734
18	0x3d972b01	0.07381249
19	0xbe482eb8	-0.19549072
20	0x3d88fd99	0.06688995
21	0xbf3591d8	-0.70925665
22	0x3d17d50b	0.037068408
23	0xbde1d51c	-0.110269755
24	0xbf26ed7c	-0.6520612
25	0x3da7245e	0.08161233
26	0xbe15fe6a	-0.14647833
27	0xc0084936	-2.1294684
28	0xbfafdfd4	-1.3740182
29	0xbf9000fb	-1.1250299
30	0xbe4caaf3	-0.19987087
31	0xbfd9b244	-1.7007527
32	0xbe2826a5	-0.16420992
33	0xbf7103e2	-0.9414655
34	0x3ec82040	0.39087105
35	0x3d941b0f	0.072317235
36	0x3e81361e	0.252366
37	0xbeb3b9f6	-0.35102814
38	0xbed3609d	-0.41284648
39	0x3ee0443c	0.4380206
40	0xbe980241	-0.2968922
41	0xbca75e77	-0.020430787
42	0xbe33ecb2	-0.17570761
43	0x3e319e03	0.17345433
44	0x3f0546ff	0.52061456
45	0xbdfcf0da	-0.12350626
46	0xbe1cd9ed	-0.15317507
47	0xbfa906a5	-1.3205153
48	0xbd954fd7	-0.07290619
49	0xbcca5019	-0.024696397
50	0xbeacfc3e	-0.33786196
51	0xbe86e72e	-0.2634825
52	0x3e4af456	0.1981977
53	0x3e285a11	0.16440608
54	0xbe1b452c	-0.15163106
55	0x3e143243	0.14472298
56	0x3e4caa7f	0.19986914
57	0x3baa80fa	0.0052033635
58	0xbe5ae0e4	-0.21374851
59	0x3d324209	0.043520007
60	0x3bf1c1e9	0.007377852
61	0xbe24298a	-0.16031471
62	0xbf38a200	-0.7212219
63	0xbde76794	-0.11299053
64	0x3eac4eec	0.33653963
65	0x3f1d56e3	0.61460704
66	0xbd572579	-0.05252597
67	0xbe25d156	-0.16193137
68	0x3e32fa26	0.17478237
69	0xbddd1479	-0.107949205
70	0xbec2b36a	-0.38027507
71	0xbdc51d30	-0.09624708
72	0x3e956548	0.29178834
73	0x3ea5c55f	0.32377145
74	0xbe15ef91	-0.14642169
75	0xbd967d7c	-0.07348153
76	0x3e17b87e	0.14816472
77	0xbe1c8d2d	-0.1528823
78	0x3dd287ed	0.10279832
79	0xbb6f9dde	-0.0036562602
80	0xbe209f6e	-0.15685818
81	0xbd49b714	-0.049246863
82	0xbee06b0f	-0.4383168
83	0x3e15a4ab	0.14613597
84	0xbcd82171	-0.026383134
85	0x3ce1d52b	0.027567467
86	0xbf0b04c0	-0.5430412
87	0x3eb22194	0.34791243
88	0xbe561606	-0.20906839
89	0x3d016c61	0.0315975
90	0x3eacc97a	0.33747464
91	0x3e0812e1	0.13288452
92	0xbd142e2a	-0.036176838
93	0xbd60d57b	-0.05489109
94	0xbea76f68	-0.32702184
95	0xbde48274	-0.111576945
96	0xbe5f0f20	-0.21783113
97	0x3c0ee438	0.008721404
98	0x3d6d4d50	0.05793506
99	0x3dac147a	0.08402343
100	0x3ce93c64	0.02847118
101	0xbf26c80a	-0.65148985
102	0x3d1dc82e	0.038520984
103	0x3c85b691	0.016322406
104	0x3daf00eb	0.08545097
105	0x3ea97169	0.33094338
106	0xbd9fdcf3	-0.078058146
107	0xbd3f18a8	-0.046654373
108	0xbd5780b2	-0.052612968
109	0x3d0dc38a	0.03461031
110	0x3d57b783	0.052665245
111	0x3e517035	0.2045296
112	0xbce9137a	-0.02845167
113	0x3c281f55	0.010261376
114	0x3ca3e17b	0.020004978
115	0xbdabb9bb	-0.08385035
116	0xbe40b613	-0.18819456
117	0x3e4028a9	0.1876551
118	0xbd165f6a	-0.036712088
119	0xbcf29d4d	-0.029616022
120	0x3d0a13ed	0.03371041
121	0xbe94f82b	-0.29095587
122	0xbd88a48b	-0.06672009
123	0xbcd72ee0	-0.026267469
124	0xbc8d2a90	-0.01723221
125	0x3d465b11	0.04842669
126	0xbcb53caf	-0.022123663
127	0xbc6a47c9	-0.0142993415
128	0x3da4d889	0.08049113
129	0x3c86c5f0	0.016451806
130	0xbdabff2f	-0.08398282
131	0x3e72a9cd	0.23697586
132	0x3d9cbd85	0.076533355
133	0xbe31f594	-0.17378837
134	0x3d1837a6	0.037162445
135	0x3e096742	0.13418296
136	0xbca2d775	-0.019878129
137	0xbc6036c8	-0.013684936
138	0x3d0b1049	0.033951078
139	0x3f3a29dc	0.7272012
140	0x3c9d1ee4	0.019179769
141	0xbd04a1c0	-0.03238082
142	0xbe6b7f24	-0.22997719
143	0x3d1a76ca	0.037710942
144	0xbfa901c9	-1.320367
145	0x3d816dfb	0.06319805
146	0x3ee7a77d	0.4524497
147	0xbc73e779	-0.01488673
148	0x3efc92a7	0.49330637
149	0x3dec3048	0.115326464
150	0x3e1874ca	0.14888301
151	0xbcaa2ce9	-0.020773368
152	0xbedf0308	-0.43557
153	0xbe07c807	-0.13259898
154	0x3e266758	0.1625036
155	0xbf147e0b	-0.58004826
156	0xbdc64a73	-0.09682169
157	0x3f21097e	0.6290511
158	0xc01b546a	-2.4270272
159	0xbea36ea6	-0.31920356
160	0xbf0107ba	-0.50402415
161	0xbf439e33	-0.7641327
162	0xc04d4245	-3.2071698
163	0x3f02e4f8	0.5113063
164	0xbd810143	-0.06299069
165	0x3d9874f2	0.074441805
166	0xbe7d3afb	-0.2472953
167	0xbee7e0f9	-0.45288828
168	0xbf6f7128	-0.9353204
169	0x3e13f50e	0.1444895
170	0xbcbff1ff	-0.023430822
171	0xc01fe5ab	-2.4983928
172	0xbff24c94	-1.892962
173	0x3e42e68a	0.19033256
174	0xbe7ee24d	-0.24891014
175	0xbfcc17d2	-1.5944769
176	0xbd0fdd11	-0.035122935
177	0xbdb3aed3	-0.087735794
178	0xbe210031	-0.1572273
179	0xbf138160	-0.57619286
180	0xbf766f8e	-0.9626397
181	0xbdb80472	-0.08985223
182	0x3e9686b0	0.29399633
183	0xbf9d327d	-1.2281033
184	0x3cf07aaa	0.029355366
185	0xc0197789	-2.3979208
186	0xbc74aa9a	-0.014933253
187	0x3ef75c26	0.4831249
188	0xbf82b504	-1.0211492
189	0xbf1093e1	-0.56475645
190	0xbd7cb5dc	-0.061696872
191	0x3d217464	0.03941764
192	0xbea15d6d	-0.3151659
193	0xbdb32209	-0.08746726
194	0xbc3487fa	-0.011018747
195	0xbe4c13a9	-0.19929375
196	0x3e24d599	0.16097106
197	0x3d02abdd	0.031902183
198	0x3da84bee	0.082176074
199	0x3c902946	0.017597806
200	0x3cb9b676	0.022670012
201	0x3eb1ed72	0.3475147
202	0xbebb02b5	-0.36525503
203	0xbdd7ce1f	-0.10537361
204	0xbdd554f2	-0.10416593
205	0x3e45080f	0.19241355
206	0x3db31838	0.08744854
207	0x3d867aae	0.06566368
208	0xbddfc40f	-0.10926067
209	0xbdc46c35	-0.09590951
210	0xbd8c70cf	-0.06857454
211	0xbe0546b7	-0.13015257
212	0xbf820bd8	-1.0159864
213	0x3e56cf37	0.20977484
214	0xbd071f7a	-0.032989003
215	0xbe9d3a8e	-0.30708736
216	0xbde42b9b	-0.111411296
217	0xbf509831	-0.81482226
218	0xbfaa974f	-1.3327426
219	0x3e7b109d	0.24518056
220	0xbd3d774b	-0.046256345
221	0xbf645430	-0.8919096
222	0x3e066a91	0.1312659
223	0x3c563762	0.013074728
224	0x3e801ed9	0.25023535
225	0x3e271659	0.16317119
226	0x3d9a7dfd	0.075435616
227	0xbe33bfbc	-0.1755361
228	0x3e177a50	0.14792752
229	0x3e09bd28	0.13451064
230	0x3cdfe0e9	0.027328925
231	0x3c1c4d10	0.0095398575
232	0x3e3364e5	0.17518957
233	0x3e617465	0.22017057
234	0x3cb94c45	0.022619376
235	0x3ea44f02	0.32091528
236	0xbc888ef7	-0.016669733
237	0xbda344a8	-0.079720795
238	0xbe22dca4	-0.1590448
239	0x3c092321	0.008370192
240	0xbe941027	-0.28918573
241	0xbd1da35b	-0.038485866
242	0xbe042689	-0.12905325
243	0xbe376d78	-0.17912853
244	0xbe14c3f2	-0.14527872
245	0xbdd5982a	-0.104294136
246	0x3d2872f6	0.04112526
247	0xbd30e366	-0.043185614
248	0xbb80e3b2	-0.0039333934
249	0x3eb093a5	0.34487644
250	0x3d972342	0.07379772
251	0x3d94e9a4	0.07271126
252	0xbe485276	-0.19562706
253	0x3e7c7cf6	0.24657044
254	0x3ea5be84	0.32371914
255	0x3f44663a	0.76718485

2.bias f4 [48]
0	0xc1059fbc	-8.351498
1	0x3f8bffaa	1.0937397
2	0xbfcaa39e	-1.5831182
3	0xc20de10a	-35.469765
4	0xc11735c9	-9.450631
5	0xc19fcc9f	-19.974913
6	0x4081749a	4.0454836
7	0x40cd25a2	6.410844
8	0xbe031795	-0.12801965
9	0x40ddf5f9	6.936276
10	0x41fec8d3	31.848059
11	0x403289d6	2.7896628
12	0x3ed744d8	0.4204471
13	0x3f8dbba3	1.1072887
14	0xbfb40745	-1.4064718
15	0xc1b266b1	-22.300142
16	0xc0f61145	-7.689608
17	0xbf92b3dd	-1.146114
18	0x4057d978	3.3726482
19	0xc00d4a6c	-2.2076674
20	0xbe58daa6	-0.21177158
21	0xbee4ff42	-0.44725996
22	0xc1266c48	-10.401436
23	0x3fd2ebba	1.6478188
24	0x41ef7c18	29.935593
25	0xbe9638c1	-0.29340175
26	0x408ce792	4.403268
27	0x404cc1f5	3.1993382
28	0x41ac1e52	21.514805
29	0xc135204c	-11.320385
30	0x407d8f31	3.9618647
31	0xc0906ffa	-4.513669
32	0xc108c7a7	-8.548743
33	0xc18f41ca	-17.907124
34	0x40cdd654	6.432413
35	0xc069d7b9	-3.6537917
36	0x40dfd825	6.995135
37	0xc036081d	-2.8442452
38	0xc1985d25	-19.04548
39	0xc07e541c	-3.9738836
40	0x4063b53e	3.5579371
41	0xc2146a72	-37.10395
42	0xc0d34501	-6.6021733
43	0xbe4992d5	-0.19684918
44	0xc0c218e6	-6.0655394
45	0xbdcf297d	-0.10115335
46	0xbf15659a	-0.58358157
47	0xc15db088	-13.855598

4.weight f4 [6, 48]
0	0xbda2436f	-0.07923018
1	0xbcad7e8b	-0.021178504
2	0x3b60a98e	0.003428075
3	0xbbaa26eb	-0.0051926277
4	0xbc5a716e	-0.013332708
5	0xba6efd8d	-0.00091167615
6	0xbcdc77be	-0.026912566
7	0xbc4a24f5	-0.012337913
8	0xbcdf598a	-0.027264375
9	0x3ecb92de	0.39760488
10	0x3be49d33	0.0069767474
11	0x3c80131c	0.015634112
12	0x3caa2b7a	0.020772684
13	0x3d217a50	0.039423287
14	0xbe0f2828	-0.13980162
15	0x3d318048	0.04333523
16	0xbe814d1b	-0.2525414
17	0xbda33d03	-0.079706214
18	0x3e9556f7	0.2916791
19	0x3da0b942	0.07847835
20	0x3d169a05	0.03676798
21	0xbe0093a9	-0.12556328
22	0xbc54e577	-0.012994162
23	0xbddebd30	-0.108759284
24	0x3dc444d5	0.09583441
25	0x3d17a849	0.037025724
26	0xbc4d23e0	-0.01252076
27	0xbdfb9c0b	-0.12285622
28	0x3b99315c	0.0046750735
29	0x3deaa654	0.11457506
30	0x3b408fbe	0.0029382552
31	0x3d8bafb2	0.068206206
32	0xbd60d5b3	-0.0548913
33	0xbc45fcb5	-0.012084176
34	0x3de6f3b5	0.11276952
35	0xbd679c7a	-0.056545712
36	0x3d291b9d	0.0412861
37	0xbc846a15	-0.016163865
38	0x3e0aeb09	0.13566221
39	0x3d88841c	0.06665823
40	0x3ea3b267	0.31972048
41	0x3cd95f4a	0.026534695
42	0x3ba7d478	0.005121764
43	0x3da341fc	0.0797157
44	0x3c701660	0.014653772
45	0x3da1e971	0.079058535
46	0xbccd1544	-0.025034554
47	0x3d53d36e	0.051715307
48	0xbdf1bd64	-0.118037015
49	0x3c2cca4e	0.01054628
50	0xbcba8f06	-0.022773277
51	0xbc0477c4	-0.008085195
52	0x3b711b3f	0.0036789922
53	0xbcd909c6	-0.026493918
54	0xbc6685d3	-0.014069992
55	0xbccd5e6a	-0.025069434
56	0x3dac1b40	0.08403635
57	0x3f090056	0.5351614
58	0x3badf1f9	0.0053083864
59	0x3e953ddd	0.2914876
60	0x3cdd9b03	0.027051454
61	0x3e15268b	0.14565484
62	0x3d022f77	0.031783547
63	0x3e45546f	0.1927049
64	0x3dc613a8	0.09671718
65	0xbe1a19e7	-0.15048943
66	0x3d2805c2	0.041021116
67	0x3e0cced9	0.13750781
68	0x3d8fab1a	0.07015057
69	0xbeb3bb04	-0.3510362
70	0xbc8ead35	-0.017416576
71	0xbde29c6e	-0.11064993
72	0x3e2a919f	0.16657113
73	0x3dcbe999	0.099566646
74	0xbd8a74c0	-0.067605495
75	0xbe193eb5	-0.14965327
76	0xbbbbc8ca	-0.005730723
77	0x3da39ccd	0.07988892
78	0x3e384e3f	0.17998599
79	0x3dcd9906	0.100389525
80	0xbe021554	-0.12703449
81	0xbc4dd967	-0.01256404
82	0x3ea2acbd	0.31772414
83	0xbd435073	-0.047684144
84	0x3d77d26d	0.060503412
85	0xbdb6a0a7	-0.08917361
86	0x3e46ed07	0.19426356
87	0x3d786759	0.060645435
88	0x3e06f48c	0.13179225
89	0x3d6bec24	0.057598248
90	0xbc08f85e	-0.008359997
91	0x3e410c88	0.18852437
92	0xbcdde0a8	-0.027084664
93	0x3d63a080	0.055572987
94	0xbcffdb9c	-0.031232648
95	0x3db5b8c3	0.08873131
96	0xbdd100f7	-0.10205262
97	0x3dab53ca	0.08365591
98	0x3dc95de3	0.098323606
99	0xbceeba20	-0.029141486
100	0xbdb8b0c9	-0.09018094
101	0xbd1318ff	-0.03591251
102	0xbc9ecfd1	-0.019386204
103	0xbdc2bff1	-0.09509266
104	0x3cdde6d7	0.027087612
105	0x3e64d6f4	0.22347623
106	0x3d2c1f2d	0.04202192
107	0x3f857a38	1.0427923
108	0x3d16404b	0.03668241
109	0x3e3add32	0.18248442
110	0xbb545453	-0.0032398894
111	0x3ecb2dbb	0.39683327
112	0x3db1ab3d	0.08675239
113	0xbe491a35	-0.19638903
114	0x3bac87d8	0.0052652173
115	0x3e16f486	0.14741716
116	0xbd1360cd	-0.03598099
117	0xbeb181fd	-0.34669486
118	0xba38c3d4	-0.00070482236
119	0xbd74f195	-0.059800703
120	0x3e630958	0.22171533
121	0x3e9cc3ad	0.3061804
122	0xbe04fe2d	-0.12987585
123	0xbdf310bb	-0.118684255
124	0x3c8360a1	0.016037287
125	0x3d7b32e2	0.061327823
126	0x3e10045a	0.1406416
127	0x3da29cbf	0.07940053
128	0x3dbb40bb	0.09143206
129	0xbc576afd	-0.013148067
130	0x3eb502c9	0.35353687
131	0x3e39a659	0.18129863
132	0x3d20536d	0.03914206
133	0xbeaa9d3d	-0.33323088
134	0xbd814188	-0.06311327
135	0x3d0edb61	0.034877185
136	0x3d5bb87c	0.053642735
137	0x3d8522c5	0.065007724
138	0x3d0c796a	0.034295477
139	0xbddfa930	-0.10920942
140	0x3d25d45e	0.040485732
141	0x3b8584c6	0.0040746657
142	0xbd815183	-0.06314375
143	0x3e33f701	0.17574693
144	0xbd38cb92	-0.045116015
145	0x3d85f4c9	0.0654083
146	0x3e723627	0.2365347
147	0xbe1891b8	-0.14899337
148	0x3e44856c	0.19191521
149	0xbd195b90	-0.037440836
150	0xbd09f971	-0.03368515
151	0x3bd217bf	0.006411522
152	0xbd0fa770	-0.03507179
153	0x3d8a171d	0.0674269
154	0x3d5f86f5	0.054572064
155	0x3f58cb37	0.8468508
156	0x3d6b0ae1	0.05738342
157	0x3e037e5c	0.12841171
158	0xbb61ab02	-0.0034434204
159	0x3f2fca9f	0.6866855
160	0x3c7b6187	0.015343077
161	0xbe0ce7d5	-0.13760312
162	0x3cafbafa	0.021451462
163	0x3dac7508	0.084207594
164	0xbd88e911	-0.06685079
165	0xbdf6781d	-0.120346285
166	0x3bf6b009	0.0075283092
167	0xbcae06e3	-0.021243518
168	0x3e8d9f8d	0.2766079
169	0x3eecbc52	0.46237427
170	0xbe1bc87d	-0.15213199
171	0xbdc3fb70	-0.09569442
172	0x3d58e886	0.052956127
173	0x3d0efc33	0.034908485
174	0x3cdb0b5c	0.026738815
175	0x3d02638e	0.031833224
176	0x3d5f225a	0.05447612
177	0x3d208597	0.0391899
178	0x3e665fd6	0.22497496
179	0x3c8eb264	0.017419048
180	0x3ce13764	0.027492233
181	0xbf0ba3e8	-0.54546976
182	0xbca84734	-0.020541765
183	0x3bd254f6	0.0064188195
184	0x3cbf5fa4	0.023361035
185	0x3da51bcf	0.08061945
186	0xbdc4ed87	-0.09615617
187	0x3db59919	0.08867092
188	0x3e46a2db	0.19398062
189	0x3daaf043	0.083466075
190	0xbde5bdb0	-0.11217821
191	0x3eb1d860	0.34735394
192	0xbb18a36f	-0.0023290773
193	0xbc709731	-0.014684484
194	0x3def8cd2	0.11696781
195	0xbed13410	-0.40860033
196	0x3d242ff6	0.0400848
197	0xbdd38f77	-0.10330098
198	0xbbf2c44a	-0.0074086534
199	0x3e552d92	0.20818165
200	0xbdb8d09c	-0.09024164
201	0x3cd00d76	0.025397044
202	0x3dee497e	0.11635111
203	0x3eb4ad59	0.35288504
204	0x3e1f834e	0.15577433
205	0x3d786391	0.06064183
206	0x3c40ee34	0.011775542
207	0x3f0b178e	0.54332817
208	0x3c75b257	0.014996133
209	0xbd802c8c	-0.06258497
210	0x3b1e85ba	0.0024188594
211	0x3d2fd1a8	0.042924553
212	0x3d1537a7	0.036430027
213	0xbcb3150c	-0.021860622
214	0x3e6d9d60	0.23204565
215	0xbcd746ae	-0.02627882
216	0x3e952452	0.29129273
217	0x3e8ce282	0.27516562
218	0xbe1e1a37	-0.15439688
219	0xbd533ed8	-0.051573604
220	0x3e28a23f	0.16468142
221	0x3d0f7844	0.035026804
222	0xbca9ec1d	-0.02074247
223	0x3c657aed	0.014006359
224	0xbbce2437	-0.0062909382
225	0x3dc225bb	0.09479853
226	0x3e3a278b	0.18179147
227	0xbd2e5a78	-0.042566746
228	0x3d031497	0.032002058
229	0xbea6a68b	-0.32548937
230	0xb99553ec	-0.0002848202
231	0xbcbf3056	-0.023338478
232	0x3ca229c0	0.019795299
233	0x3d697d3b	0.057004195
234	0xbb9bafd7	-0.0047511864
235	0x3d4a08b9	0.049324725
236	0x3d6ca8d7	0.057778206
237	0x3d45cad5	0.04828914
238	0xbe570eeb	-0.21001785
239	0x3f345443	0.70441073
240	0x3c3912d9	0.011295998
241	0xbda4d170	-0.080477595
242	0xbb2345fe	-0.0024913545
243	0xbf009137	-0.5022158
244	0xbd7c726d	-0.061632562
245	0xbb88b1ce	-0.0041715866
246	0x3e70015b	0.23438017
247	0xbcc4a759	-0.024005579
248	0x3dafa264	0.085758954
249	0x3c3dfe2f	0.011596247
250	0x3e1f0913	0.15530805
251	0x3e2dbea9	0.16967262
252	0x3eb25fe2	0.34838778
253	0x3caf21c7	0.021378411
254	0x3c7526a8	0.01496283
255	0x3e49a17d	0.19690509

4.bias f4 [6]
0	0xba114dd3	-0.0005542908
1	0xbb81e122	-0.0039636055
2	0xba51560c	-0.0007985539
3	0xbab97aa8	-0.0014150934
4	0xb7dbd8f0	-2.6207854e-05
5	0xbade5b23	-0.0016964417
