models/FF_with_station/FF_with_station_depth3_width24_batch106.pth (torch, 14456 bytes, 10 tensors)

0.weight f4 [24, 26]
00000000: fa35 1abf 322d 0741 90bc cdbe 4d90 9d3e
00000010: ebcb 38bd 753d 70bc 27eb d93d 36d7 133f
00000020: b392 983d 555c dfbd 5114 ef3d 034d de3c
00000030: be90 163d 51b7 dfbc 2931 7c3e 117f bd3e
00000040: 40d5 b23d 3e25 45be a74b fb3c 092a c53d
00000050: b01c 553e 3200 763e f421 0cc0 5663 5cc0
00000060: 9744 e4bf 8143 0940 c9c0 5641 7db5 9dc1
00000070: 5606 3cc0 d1df 103f af39 623e 21e8 053d
00000080: 6071 d23d 5cdb 09be 6b05 a9be d658 a8be
00000090: 6be4 753e 2bea 313e 5ed0 1bbe e5bb bf3d
000000a0: d3ff e33d c6cd 203f 0512 8ebf 2190 3dc0
000000b0: 2f88 dabf 0894 dd3e f27c 8cbe 489c a73d
000000c0: 1e0b 093e 9208 a13e 29e2 58bd 0826 5e3f
000000d0: c303 dd3f a0e8 25c0 24ed 413f a79f 883e
000000e0: 5f4a 61be 4899 603d e8a0 413d 9987 c0bc
000000f0: 3230 c0bc 6d54 26bd 44db 073d e1f7 10bd
00000100: 0c45 3a3c 8e70 bbbc bcc5 293b 1e8f d8bc
00000110: 67ad b03d 87cc 973d 3b65 05bd fa15 9dbd
00000120: 936a 833c 19c9 473c 3302 d13d c00a 813e
00000130: 75d5 cebd d1af e93f abbe dc3f 5948 9140
00000140: 4dc3 2640 9c99 a73d 7fb2 7dbb 7db0 04be
00000150: f55c 4b3e 79cc 91be 1e5a b73c 5a76 a53e
00000160: 5308 4e3e 1f5c c6be f45c 2abe b8f2 673d
00000170: b4a9 94bd 6694 2abe db8b 733e d137 8d3e
00000180: 1862 653d 994a c73e 852e 023d 91fd f83b
00000190: 9402 1d3d 17ed 803d 3408 a0bf ceb8 4cc0
000001a0: f4ef 9241 29d4 cac1 e2b3 a9be 415e 92be
000001b0: 4282 a53d 61d4 f2bd 01f5 90bd 80f5 2abd
000001c0: 98b8 8c3e 2cd0 5b3e 7f12 413e e767 183e
000001d0: 6bce d3bd 635d 2abc b3ee bbbf fdb8 b0c0
000001e0: e8ba 16c0 294f 6dbf 5237 e7be 953a d33e
000001f0: 4ee6 833f f29c 113f 4997 1c3e ebac c5bc
00000200: be4c dc3e 87d2 0f3f 43b9 1b3f 3a04 44c1
00000210: edf5 e6bd 5df5 8ebd 16c7 ae3e 2fc5 633d
00000220: 4876 0ebf cb28 e13e 1625 0dbe 6075 ea3d
00000230: c2e7 17bd 4a06 23be 5240 023e 2c38 2a3f
00000240: 422b 253f d508 c5be dc23 b0be f204 80be
00000250: 22d8 49bb dcdc e33d ab2d febd 3ecd 81bd
00000260: 7a75 903e f3df 98bd c6c3 c2be 0f78 343f
00000270: e4a0 d240 85eb 0740 0e8d 20bf 6ff4 58be
00000280: b6f5 363e ac68 4b3e aca0 81be 785b 563f
00000290: 2e6a 043f eea3 d13e 27d5 e53e 7418 96bd
000002a0: a086 a4bf eb27 b3bf 30d6 01be 59c5 cb3c
000002b0: 42ea 2c3f ad12 70be b0e7 cfbe 3744 e03e
000002c0: 244a 673e 6fbe 8ebd abee 003f 00fc 0bbf
000002d0: a8dc c7bf bf63 3d3f 7fc5 6840 d531 3241
000002e0: a1b7 883e fbc8 0a3e 7036 dc3d c405 d23d
000002f0: 8cb9 723d a6ed b6bd 7008 053d 1f98 003e
00000300: 4bd5 4e3d 16aa e3bd 355a c73c 41f9 073e
00000310: a76a 873d 80a3 343d c1b5 6a3e bd6e 14bf
00000320: ab2b 13bf 6967 71be 6e00 bf3d 7295 553f
00000330: 3458 b63f bef8 803f b894 cb3e fad7 ebbf
00000340: cec2 56c0 3e54 d4c0 5169 a7ba f6a3 133d
00000350: 3dc9 443e 51a0 96bd adfe 3cbe 67f3 053f
00000360: 2dce 3fbd 5242 c4bd 9ff1 b53d ee8e b93d
00000370: 389d cf3d a757 74bd c1f8 9abd 90d0 e53d
00000380: ec86 ad3d d905 46bd 3d3b a8bd 6660 b6bb
00000390: 1f48 333e 1e81 823f 7f73 4b3f 84b4 963f
000003a0: 9c33 8bbc 3b30 84c0 152f a3bf 427e b840
000003b0: 04be c03d 4296 b5be 0268 6fbe b5cd 6abc
000003c0: dbba 27bf ef22 a53f ffcb ca3e 3748 c33d
000003d0: 0004 8a3e 2bff 49bb 8428 00bd be39 e6bd
000003e0: ac71 3bbe ebfe cb3d 3bea de3d 3cc9 00be
000003f0: d9a3 88be 821f 8abd 1470 e2bc 15a1 083d
-0.6023861 8.448534 -0.40182924 0.30774155 -0.045116346 -0.01466309 0.10640555 0.5775026
0.07449856 -0.10906283 0.11673797 0.027136331 0.03675913 -0.027309092 0.24628128 0.37011006
0.087320805 -0.19252488 0.030675722 0.09627158 0.20811725 0.24023512 -2.1895723 -3.443563
-1.7833432 2.144745 13.422067 -19.713617 -2.9378867 0.56591517 0.22092317 0.03269208
0.10275531 -0.13462585 -0.33011946 -0.32880276 0.24012916 0.17374484 -0.15216205 0.0936201
0.11132779 0.62813985 -1.1099249 -2.961922 -1.707281 0.43277 -0.27439076 0.08184105
0.13383147 0.3145185 -0.052950058 0.8677678 1.7266773 -2.5923233 0.7575247 0.26684305
-0.22001027 0.05483368 0.047272593 -0.023502158 -0.023460481 -0.04060786 0.033168092 -0.035392646
0.011369001 -0.022880819 0.0025905212 -0.026435431 0.08626824 0.07412057 -0.032567244 -0.07670207
0.01604203 0.0121939415 0.102054976 0.25203514 -0.100993074 1.825678 1.7245687 4.5400815
2.6056702 0.081835955 -0.0038711128 -0.1295795 0.19859679 -0.28476313 0.022381838 0.32316858
0.20120363 -0.38742158 -0.16637021 0.05662796 -0.07258931 -0.16658172 0.2378382 0.27581647
0.056001753 0.389241 0.031782646 0.007598587 0.038332537 0.06295221 -1.2502503 -3.1987796
18.367165 -25.353594 -0.33145052 -0.28587535 0.08081485 -0.11856914 -0.07077981 -0.041738033
0.27484584 0.2146613 0.18854712 0.14883386 -0.103421055 -0.010398242 -1.468222 -5.5225816
-2.3551579 -0.92698914 -0.45159394 0.41255632 1.0304658 0.56880105 0.15292086 -0.024130305
0.430273 0.56180614 0.6082956 -12.251032 -0.11277375 -0.06980393 0.34136266 0.05560797
-0.5564923 0.43976435 -0.13783678 0.11448169 -0.037086256 -0.15920368 0.12719849 0.6649196
0.6451913 -0.384833 -0.3440236 -0.25003773 -0.0030798991 0.1112611 -0.12411054 -0.06337975
0.28214628 -0.0746459 -0.38039988 0.70495695 6.58214 2.12375 -0.6271523 -0.21186994
0.17867169 0.19864148 -0.25317895 0.8373332 0.5172452 0.4094538 0.44889185 -0.07328883
-1.2853584 -1.3996557 -0.12679362 0.024874376 0.6754495 -0.23444624 -0.4060645 0.43802044
0.22586876 -0.06969916 0.5036418 -0.54681396 -1.5614214 0.73980325 3.6370542 11.137166
0.26702598 0.1355323 0.10752571 0.10255006 0.059258983 -0.089320466 0.03247875 0.1255803
0.05049638 -0.11116426 0.024335006 0.13278677 0.06612139 0.04410124 0.22920896 -0.57981473
-0.5748851 -0.23574604 0.09326254 0.8343116 1.4245667 1.007591 0.397619 -1.8425286
-3.35564 -6.6352835 -0.0012772476 0.036045037 0.19217391 -0.07354797 -0.18456526 0.5232453
-0.046827484 -0.09582962 0.08883976 0.09060465 0.10137409 -0.059653904 -0.07566977 0.11221421
0.08473 -0.04834542 -0.08214424 -0.005565691 0.17507981 1.0195653 0.7947311 1.1773839
-0.016992383 -4.1308875 -1.2748743 5.7654123 0.094112426 -0.354662 -0.2337952 -0.014331271
-0.65519494 1.2901286 0.39608762 0.09535258 0.26956177 -0.0030822258 -0.03128864 -0.11241482
-0.18305081 0.09960731 0.1088452 -0.12576765 -0.26687506 -0.06744291 -0.027641334 0.033356745

0.bias f4 [24]
00000000: c5dd ad41 6c18 8f41 774c 7440 e432 4341
00000010: 3363 10c2 66e5 a9c0 e89c 613f ea15 3c41
00000020: 0726 0ac1 f9b9 6541 99a7 883f 9775 8ac0
00000030: f9f6 8dc0 da76 5841 a9d2 5641 5c8d 9140
00000040: 6499 d6c0 8705 123f b3c0 5740 4a17 a2c1
00000050: 5994 3fc2 b9b7 ab40 8393 0141 675f a6c1
21.733286 17.886925 3.817167 12.199924 -36.096874 -5.3092527 0.88130045 11.75535
-8.634284 14.3579035 1.0676147 -4.326854 -4.436398 13.5290165 13.426431 4.548506
-6.7062244 0.57039684 3.3711364 -20.261372 -47.89487 5.366177 8.098514 -20.796583

2.weight f4 [24, 24]
00000000: 6b63 88be d468 8340 e99a 80be 6f63 cd3e
00000010: ad6d 77c0 90ab 2ebf 7a25 053f d9ed 063f
00000020: b1b6 44bf 8be0 d03d 5f83 6dbf b63a 123f
00000030: 347b ecbd c78b 75bf 5f5c e1bf 121d f1be
00000040: a907 863e 441b 62be 8c8c 2ebe 3367 4c3d
00000050: abc2 f8be b8e1 f43d b8dc 033f 9cc2 2ebf
00000060: 7469 683f be48 ed3f 597b a53e b45d 6dbe
00000070: 4822 b43f 5d36 283e a82b 083f f446 d2bf
00000080: 058c 05c0 0536 2dbf ac17 f4be d685 673d
00000090: c2f0 173e 93ab 033f 0a4e 0c3e 2aca c13e
000000a0: 75b7 f73e 3ec5 15bf 5f41 043f 25ea 8fbe
000000b0: b132 c4bf 6902 adbd 6240 0cbf d491 93be
000000c0: be64 2f3f b14a 5dc0 7b93 043f 16b3 ad3e
000000d0: d433 82bb 4a7d 823e e747 f7be 7a68 8ebf
000000e0: c084 d5bf 5837 26bd 26e1 99be 272e 01bd
000000f0: 64c1 cc3c eef9 f0be bf95 76bd dd6b f9bd
00000100: ebd5 3fbd 245e 003e 60b4 c23d 8d7b a5be
00000110: b5c0 06c0 e570 eb3e 2b7a 603e 26a3 fe3e
00000120: f4df 52c0 322d aa3f 2492 3c3e 549f 6fbe
00000130: 627b 613f e441 e23e e009 c5bf 5a65 d73d
00000140: 5827 82bf 5e41 11be 7c4a 65be 8ed8 1e3e
00000150: 5de4 843e 1d09 1fbf 3b2b d4bf d742 83bf
00000160: b2d0 b6be daca a53e dd45 c2bf 28ce 82be
00000170: a753 40bf 202b 003e e66f 05c0 c243 453f
00000180: 33d7 6e3e ba16 8dbf 07ce 373e 5c25 a1bb
00000190: 08d7 193f 262c 4a3c 998a 7b3d f630 84be
000001a0: b2a2 b13e 1290 f83e 4f38 533d b2e8 a6be
000001b0: f0ba 3e3f c58b 173d 2c3c aa3e 3763 f4be
000001c0: 285c 223e 0290 503e a73a 143c a1fb 80bf
000001d0: 3ac3 0c3f 8e43 51be aa10 fb3c 35b4 bdbe
000001e0: 17c7 973e 27d7 41be 4142 f6bd 9572 7cbe
000001f0: f604 523e 1630 ee3d 6294 83bc 0d84 d6bc
00000200: a783 01bd 41b5 3a3e b253 24bd cfd8 a83d
00000210: 6163 f9bd f017 fb3d 7359 4f3d 6042 8a3e
00000220: c693 2b3d c573 2abf a09a 1f3e 5d14 bdbe
00000230: b781 ab3c 7dc3 4c3f 0b93 01bc f858 e13e
00000240: 9732 243f 012b c23f 8424 eebd 4723 6ebf
00000250: 0e4c 363f aa57 c73d 9203 c9bf 667b ecbe
00000260: f1fa 02c0 cb84 5a3f ba5e a5be 6905 7d3e
00000270: 93ae afbe 7abe 5abe c6f2 25be 177c c9be
00000280: 4dc3 c73e 8784 103d 5373 2e3d 3969 3cbf
00000290: 46b1 38c0 b975 503e fd21 22be 01d2 933e
000002a0: 7563 9ebc 5e9a 093f 0924 513f 8c18 f8bd
000002b0: 007a 963e 1ea2 433b 2422 81bd 4e17 bd3c
000002c0: 7d90 e8bd e2f0 213c 19fc 3bbd c071 2b3c
000002d0: a2f6 323c dd33 4b3c 265a 99bd 608e ca3e
000002e0: 9c0e bebb f6af c83e 064f adbd d4bd 0e3e
000002f0: 487a e8bb 33b3 fc3e ee61 14be d135 1dbe
00000300: a8f3 a6bd 77b3 d3bf 1b62 3f3d 6905 2dbe
00000310: 90dd b2bc 41a7 8b3f 2833 10be 381b 4abf
00000320: b0d5 34bf 09d8 2dbf d410 963f 7fb2 b2be
00000330: 2f82 cb3e 6f0a d93e e31f 77be aa04 343f
00000340: f160 873d dc84 73be ce51 21be ef72 13be
00000350: e9e3 93bf 8bd6 84be f245 1fbf cf66 0bbd
00000360: 1100 353f 8142 cfbe bc8b 25bf 56de a5bf
00000370: bb9d 9b3f 1d60 92be d435 47bd ab41 b0be
00000380: d570 63bf 143c 6d3e d016 8a3f cf96 c23d
00000390: 2d64 b33e 9cc2 c7be 0f4a f3be d28d 063e
000003a0: 45d9 303f 235b 733e 637d 3d3e c070 abbf
000003b0: 1b0c 47bf a832 a8bd 3d1f b0be 5b74 b03d
000003c0: 180a 523f 807c 22be 0e94 33be 75ee debe
000003d0: 59d0 753f e12c 88be 8fa0 68be 5a3e 7dbf
000003e0: e712 3dbf 08ec 79bf 5022 503c 430a 083c
000003f0: 3f3c eebe 7882 0abe 55b5 1fbf 9949 133f
-0.2663835 4.1065464 -0.25118187 0.40114924 -3.866069 -0.68230534 0.5201031 0.52706677
-0.76841265 0.10199078 -0.9277858 0.57120836 -0.11546937 -0.9591641 -1.7606314 -0.4709249
0.2617772 -0.22080714 -0.17045802 0.049903106 -0.4858602 0.11957115 0.51508665 -0.682657
0.9078591 1.8537824 0.3232067 -0.23180276 1.4072962 0.16426988 0.53191614 -1.6427903
-2.086671 -0.6766055 -0.4767431 0.05652412 0.14837936 0.51433676 0.13701645 0.3784955
0.48382154 -0.5850409 0.5166225 -0.28108326 -1.532797 -0.08447725 -0.5478574 -0.28822196
0.68513095 -3.4576838 0.5178754 0.33925694 -0.0039734636 0.25486213 -0.48297045 -1.1125634
-1.6681137 -0.040580124 -0.30054587 -0.031538155 0.02499456 -0.4706568 -0.060201403 -0.121787764
-0.046834867 0.12535912 0.0950706 -0.32320824 -2.105512 0.4598457 0.21921603 0.49733847
-3.294919 1.3295043 0.18415123 -0.23400623 0.8807889 0.44190896 -1.5393639 0.10517378
-1.0168257 -0.14185092 -0.22391695 0.15512297 0.25955477 -0.6212328 -1.6575693 -1.0254773
-0.35706097 0.32381326 -1.517757 -0.2554791 -0.75127643 0.12516451 -2.0849547 0.77056515
0.2332428 -1.1022561 0.17949687 -0.0049177837 0.60093737 0.012339627 0.061411474 -0.25818604
0.3469444 0.48547417 0.051567372 -0.32599407 0.74503994 0.03699853 0.33249032 -0.47731945
0.15855467 0.20367435 0.009047187 -1.0076791 0.5498539 -0.20435926 0.030647594 -0.3705155
0.2964408 -0.1892973 -0.12024356 -0.24653085 0.20509705 0.116302654 -0.016061965 -0.026186014
-0.031619694 0.18233205 -0.04011888 0.08244478 -0.12177158 0.12260425 0.050622415 0.27003765
0.041888975 -0.665829 0.15586329 -0.36929598 0.020935876 0.7998579 -0.007908593 0.4401319
0.64139694 1.5169374 -0.116280586 -0.9302258 0.712098 0.097335175 -1.5704215 -0.46187896
-2.0465662 0.85358876 -0.32298833 0.24709095 -0.34312877 -0.21361724 -0.16205892 -0.39352486
0.3901619 0.035282638 0.04259045 -0.7359806 -2.88582 0.20357408 -0.15833278 0.28871158
-0.019334534 0.5375117 0.8169561 -0.12114057 0.29389954 0.0029851268 -0.0630534 0.023082402
-0.11355684 0.009884091 -0.045894716 0.010464132 0.01092306 0.012402502 -0.074878976 0.39561749
-0.0058000814 0.39196748 -0.08462338 0.13939601 -0.007094655 0.49355468 -0.14490482 -0.1535256
-0.081519425 -1.6539143 0.04672442 -0.16896595 -0.021834165 1.0910417 -0.14082015 -0.7894778
-0.7063856 -0.6790777 1.1723886 -0.34901807 0.3974776 0.42390773 -0.24133258 0.70319617
0.06610287 -0.2378115 -0.15753862 -0.14399312 -1.1553928 -0.25944933 -0.62216103 -0.034033593
0.70703226 -0.40480426 -0.6466634 -1.2958477 1.215751 -0.28588954 -0.04863532 -0.344251
-0.88844043 0.23167449 1.0788212 0.09501421 0.35037366 -0.39015663 -0.4751744 0.13140038
0.69081527 0.23765235 0.18504862 -1.3393784 -0.77752846 -0.08212787 -0.34398833 0.08615943
0.8204665 -0.15867805 -0.17536947 -0.43541303 0.9602104 -0.2659674 -0.22717498 -0.98923266
-0.7385697 -0.9762578 0.012703493 0.008303228 -0.4653034 -0.13526332 -0.62386066 0.57534176

2.bias f4 [24]
00000000: cbda 5040 8a65 6dc1 1e9e 18c1 96ea f2c1
00000010: ee00 1941 b0ca 2bbf 5161 5941 1ea2 0c40
00000020: 3d7c 50c1 29a6 82c0 c0af 65c0 e081 b040
00000030: 13c4 31bf 836c ad3f 9937 e9c0 658b 96c0
00000040: c394 a4be 2c13 93c0 8258 e13e 5040 71c1
00000050: 0778 b1c1 ebce 9d40 d03a 03c1 37ed b840
3.263354 -14.83729 -9.538603 -30.364544 9.562727 -0.6710615 13.586259 2.1973948
-13.030332 -4.082783 -3.588852 5.515854 -0.6943981 1.354874 -7.288037 -4.704516
-0.32144746 -4.5960903 0.4401284 -15.078201 -22.183607 4.9315085 -8.2018585 5.778957

4.weight f4 [24, 24]
00000000: f1df f73e c378 b6be 7522 0d3f 3118 e93f
00000010: 2427 6f3d 701b 093f b82e 513f cb35 763d
00000020: f170 7f3d cc87 acbd 152a b3bd e8c7 51be
00000030: bb52 8e3e b025 11bf 9bf7 86bd 9d50 7fbe
00000040: 27ef 78bf d0a1 003e 2ffb eb3d d544 aa3e
00000050: b40d a1bd 3bd5 c93e 8357 46be 248d cb3e
00000060: 7ce5 8dbe 3e45 3b3f bcc3 293f 8fa9 aa3f
00000070: 7211 41bf 3f77 223e 123f c0be 2a04 f1be
00000080: e830 d4be d15d 0c3d dabd 5dbf bbec b5be
00000090: 61b5 51be 18a4 bebe 1813 b2be 40a3 9dbe
000000a0: 9887 043f ecef 4bbe 440f 8c3e 22ff 1e3f
000000b0: f20e b2be 2221 bc3e 57d2 9bbe 1730 ffbd
000000c0: 7c16 2dbf f264 18bf ac1f 86bd e756 793f
000000d0: 85bf 5d3e 8ed9 e83d 4227 3f3f b0ba 243e
000000e0: a548 45bd 91b6 a13e a577 c13e 415f a93e
000000f0: 5729 203c 58ba a93d 915e 4b3e 294e d0be
00000100: a95d cebe 4363 cdbc 49df 053c 577a 513d
00000110: f60a db3e ef11 023e 068b 773e 7623 1bbd
00000120: 20d2 6cbc cbb5 963e 8752 263e 2b17 f03d
00000130: df48 89bd 86cd 0a3e a282 26bd 5847 3b3f
00000140: 0c9d 35bd 42b7 24bc 9188 4fbc 06e2 98bd
00000150: e866 98be 70e7 203d b642 be3d 1f81 383b
00000160: b123 03be fad8 dd3d 2bd5 41be 635c 7d3d
00000170: 2744 bcbd 2371 c9bd f847 cebc ff5c 633e
00000180: 4bdf 45be e1e1 4f3d 02c9 65bd 4924 1b40
00000190: 32f0 063d 9629 69bd 9e68 eabd 73dd 7abc
000001a0: 8575 babc a038 d1bd 6441 0abd 037b 6a3d
000001b0: fd86 c33e 321f b83c a55a e03e 34aa f4bd
000001c0: 628f 373f 9702 02be 125a dbbd 7258 21bd
000001d0: 7ae9 0bbb 400d a03d a342 5b3d 7369 0b3e
000001e0: 5378 90bc 47d8 113e 333e 99bd 6431 e63e
000001f0: e394 023e f8db 60be 491b fbbd bb5a 983d
00000200: c1fb d73c b2ec f2bc 0fed 5b3c c9bc 98bd
00000210: 7714 623e 7318 3b3f 9cc0 d83b 2755 a2bd
00000220: dc57 233e 3724 81bd 6cc8 81be da8f 17bd
00000230: 80bc c4be 1c52 853e 0136 ddbd 7b4a 98be
00000240: edc4 9bbe 542a c8bd b8d5 0dbf a042 1f3d
00000250: 3e80 9cbe 9d1e 9dbe 51e8 41be 7ef5 a73e
00000260: 45ec 5a3e 9ef4 9fbd 64c2 8c3d 2a65 573e
00000270: 9459 5ebf e2ee cf3d 7e50 693e 9d41 08bb
00000280: 8d25 34bd be20 dbbe 0180 773e b77f 12bf
00000290: 0545 183d d182 123f 31e6 26bb a540 e63d
000002a0: 013b e6bf c3cc c23e f873 6d3e 5ef9 c9be
000002b0: 9694 e7be 34a4 9fbe 58cc b53e 0517 a03d
000002c0: 94ce 92bd 65c5 8a3e 3b87 06bd 8b8d 143d
000002d0: 7cbc 43c0 e2d1 34bf 70cb 06be 7387 6f3e
000002e0: 074e bd3d 3580 48be 2a56 f33e 2c66 a93e
000002f0: ccd4 8dbd 914c a83e 019e 77be 9734 d7be
00000300: 4119 d7be 9968 0a3e 349a b8bd 7e59 d33e
00000310: 92d8 49be de6b 87be 770f a13e be75 21be
00000320: e014 8abc 5b65 d73d a93c 563e c49e 0a3f
00000330: 1300 87be 9a43 fe3e 6c60 88be 058b 90be
00000340: fffd 9b3d 6395 59be 2c21 14bc 04a0 67be
00000350: b2fb 9abe 59a6 0a3f acb0 bebd 60b0 303f
00000360: 6b38 23c0 4569 c83e cd54 3f3f 453f 523f
00000370: a3b0 373d 5bcb 883e 5a25 5d3f cc09 c6be
00000380: 7626 65bf 14e7 99bd f98d a4bc e767 483f
00000390: 57fc 08c0 f5ab debe 91ff 4d3d a982 373d
000003a0: 1595 4b3e 115f 8dbe 9004 96bf 64ef 37bf
000003b0: 5693 22bf cf73 eb3e aa8e 11c0 472d 9dbe
000003c0: 852d 0cbc 1b97 cfbe fc0b 163f f64b 80bf
000003d0: 9182 513e f514 d4be 36e4 af3e 1056 c8bd
000003e0: 99d4 ba3d 0b63 6cbe 032d a83e 3b90 b63e
000003f0: d8bd 9cbe 42e9 883d cad3 163f 7abf 88be
0.4841304 -0.3563901 0.551307 1.8210508 0.058386937 0.5355749 0.8171191 0.060109895
0.06236357 -0.08424339 -0.08748261 -0.20486414 0.27797493 -0.5669813 -0.06590196 -0.24933095
-0.9723992 0.12561727 0.11522519 0.3325564 -0.07863942 0.39420494 -0.1936932 0.3975612
-0.27714145 0.7315253 0.6631429 1.3332995 -0.75417244 0.15865801 -0.3754812 -0.4707349
-0.41443563 0.034269158 -0.86617815 -0.35532174 -0.20479347 -0.3723457 -0.34780192 -0.30788612
0.517694 -0.19915742 0.27355397 0.6210805 -0.34777027 0.36744028 -0.30433914 -0.12460344
-0.67612433 -0.5952903 -0.0654901 0.9739823 0.2165509 0.1136962 0.7466928 0.1608684
-0.048164982 0.315846 0.37786594 0.33080485 0.009775481 0.082874954 0.19860293 -0.4068463
-0.40305832 -0.025071746 0.008170911 0.051142063 0.427818 0.12702154 0.24174127 -0.037875615
-0.014454395 0.29435572 0.16242419 0.11723169 -0.06703352 0.13554963 -0.040651925 0.73155737
-0.044339225 -0.010053458 -0.012666837 -0.074649855 -0.2976601 0.039283216 0.09290068 0.0028153134
-0.12806584 0.108324006 -0.18928973 0.061855685 -0.091926865 -0.09836032 -0.025180802 0.22203444
-0.19323461 0.050752524 -0.0560999 2.4240897 0.03294391 -0.056924425 -0.114457354 -0.015311587
-0.022761116 -0.102158785 -0.033753768 0.05724622 0.38188925 0.022475813 0.43819156 -0.11946526
0.7170316 -0.126963 -0.10710539 -0.03939099 -0.002134888 0.07815027 0.053530347 0.13614444
-0.0176355 0.1424266 -0.07482567 0.44959557 0.12752108 -0.21958911 -0.122610636 0.074391805
0.026365163 -0.02965388 0.013423218 -0.07457883 0.22078119 0.7308418 0.0066147577 -0.07926398
0.15951484 -0.063057356 -0.25348222 -0.037002422 -0.38425064 0.26039207 -0.10801316 -0.29744324
-0.3042368 -0.097736984 -0.55404234 0.038881898 -0.3056659 -0.3068742 -0.18936278 0.32804483
0.21379192 -0.07810329 0.068730146 0.21034685 -0.86855435 0.10152985 0.22784612 -0.0020791062
-0.043981124 -0.42798418 0.24169923 -0.5722613 0.037175197 0.5723086 -0.0025466795 0.11242799
-1.7986757 0.38046846 0.2318877 -0.39448065 -0.4523055 -0.31179965 0.35507464 0.078168906
-0.07168308 0.27103725 -0.03284381 0.0362678 -3.0583792 -0.70632756 -0.13163543 0.23391514
0.09243398 -0.19580157 0.47526675 0.33085763 -0.069253534 0.32870916 -0.24181367 -0.4203231
-0.42011455 0.13516463 -0.09013787 0.41279215 -0.19711521 -0.26449484 0.3145711 -0.15767571
-0.016855657 0.10517379 0.20921578 0.5414851 -0.26367244 0.4966095 -0.26636064 -0.28231063
0.07616805 -0.21248393 -0.009041112 -0.22619635 -0.30270153 0.54160076 -0.09311041 0.69019127
-2.5503185 0.39142814 0.7473877 0.8212779 0.04484619 0.26717648 0.8638512 -0.3867935
-0.8951181 -0.07514778 -0.02008723 0.7828354 -2.1404016 -0.43490568 0.050292555 0.04480234
0.19881089 -0.27611592 -1.1720142 -0.71849656 -0.63506067 0.45986792 -2.2743325 -0.30698606
-0.008555775 -0.40544972 0.58612037 -1.0023181 0.20459963 -0.4142224 0.343538 -0.0978204
0.09122581 -0.23084657 0.3284684 0.35656914 -0.3061359 0.066851154 0.58916914 -0.26708585

4.bias f4 [24]
00000000: 62e7 4741 ee39 90c1 8956 22bd aee3 ef3e
00000010: 609a 9c3f 916d 0841 f7e9 a7c0 19ad 0ac0
00000020: 24f2 9640 208d f63f 58ad 05c0 1b9d 17c1
00000030: 6fd4 fbc0 fe97 08c0 7a23 9bc0 d92c e140
00000040: 865e 2ec1 1527 0641 24bd 40be e07c 87c0
00000050: 1a46 efbe e4c2 36c1 c349 0040 a40b 9340
12.49399 -18.028286 -0.039633308 0.46853393 1.2234612 8.52675 -5.24731 -2.166815
4.717058 1.9261818 -2.088705 -9.475856 -7.869682 -2.1342769 -4.8480806 7.0367246
-10.898077 8.3845415 -0.18822151 -4.2339935 -0.4673317 -11.422581 2.004502 4.595171

6.weight f4 [24, 24]
00000000: fa14 ddbe 2d59 09be 0970 fdbc 8ba3 c3bd
00000010: dd44 573e 3132 c8bc 0dea 0c3e 0262 68bd
00000020: 938e b23d 9443 e73c 843c 3abd 06b2 ad3d
00000030: 0627 ffbc f672 15be 3f35 0f3e 5beb febc
00000040: 4368 fdbe 115c 313e bd9c 82bd 93c0 983a
00000050: c6a2 05be 1c68 1abf 14c8 7cbc 56e1 ad3d
00000060: 3ad5 55be cbd5 d83e e012 b4be 7f1a b03d
00000070: a601 b8be 2101 d33e c103 403f 3856 09be
00000080: a23e 883d d2ad 243f b311 7bbd 1ce5 aebd
00000090: eae7 29be bc5c cabd 0e0a 6ebc 1a0f c73e
000000a0: 159f 82bf 84b7 fabe 175d e83c 437c 16be
000000b0: dec0 b13e ab32 373e a275 4cbd 1602 d1bd
000000c0: ca30 44be ceca aabe bf7a 91be 9567 93bd
000000d0: 4afe 043e 9b8c 07be f210 f1bc 3763 c33e
000000e0: 34d4 86be 36e8 173f 6a91 0c3e b66c 9a3e
000000f0: 1994 84bf 3381 0ebf 9957 59be f1d9 eabd
00000100: 7dd9 48be 9eaf 5b3e 047d 323d 327a 253e
00000110: 10e8 20be cd1e 003f 8820 043e 3cc0 babe
00000120: f2e3 2cbf 0e24 343e 9b4f d2be 5b12 4dbe
00000130: d88a cbbe a22c 2dbf 6825 b63c 4bb8 64be
00000140: 6713 4c3e 84e2 833f 7151 e7be 676b ef3e
00000150: 4b1d b53e 3b5f abbd 69d5 073f 363f 42be
00000160: d743 61bf 2141 83bd 68ff 3bbd 60ea 96bd
00000170: 0abe f6bd 4312 d13e 508d 3cbd 17c3 f5bb
00000180: 84fd 293e 341a b63e a4a3 b8be 2a7f 5b3e
00000190: 5d3f 003e 6fb7 c2bd aa0b 39be 6f13 91be
000001a0: a5a0 bf3d 5b71 aabd 0520 a63d e2e8 6b3e
000001b0: 7fbd 603e f5b4 173e c626 bfbe bc88 5dbc
000001c0: b4a5 8dbe 9f19 38be 8b50 0d3e 20d7 36be
000001d0: 11a4 c83e d102 eb3c af1f 253d 02f5 233e
000001e0: e30a a1bf 2dac 36be 0760 10be 9662 93be
000001f0: 4d07 b63c 96a2 7e3e 7e82 cbbe 9b7f a33d
00000200: 30e4 8b3e bc8e 173f 1d7c 593d 5c3f 54bf
00000210: 3f9a 94bd 1467 053d 2c0b 823e 5374 60bf
00000220: 54ae 97bf 6a28 f7bd 7ab2 48bd aaeb 99be
00000230: 4d93 63bc 2b70 91be d21a 2fbc 8677 423d
00000240: 883f c5be ff9b ff3d 08cd 91be 6b49 55be
00000250: df23 a4bd 4cbd d1bd dcaa 1c3e 4147 c2be
00000260: b138 053e 9792 b73f 4fc0 2dbf f2bb bb3e
00000270: 141d 073e c449 eabd 71fd 8d3e 1a8d 05c0
00000280: 009c 6bbe 5714 9fbd d8ee 7e3b bd7c 9fbd
00000290: 8909 9e3d 0fd5 b33e 298d 4e3d 7341 a1bc
000002a0: 01cb 503c f817 893e a366 a63d c4b2 443e
000002b0: 99fa f33d be44 66bd 63e6 183e b18f 7b3e
000002c0: 37cb 54bd 4ad2 833e de08 04be 5996 23be
000002d0: cf5a a83c fd6e 9b3e 528b bdbe 336f 233e
000002e0: ff95 8d3e 282c 6fbb 8934 bd3d d4ad a2be
000002f0: c8fc b7bd 0dc7 afbe ec03 71be 27a9 fa3d
00000300: 3615 67be be1c ccbd c43f 76bd bfee 49bd
00000310: 9c0a bc3e 77e0 02be c087 9cbe 5878 4ec0
00000320: 0162 843c 245f 1abf 10d5 e23d 4e96 2b3e
00000330: 998b c23d d98a 0f3d 312f 01be 395f 53be
00000340: c842 c9bf a1e3 5fbb 62e1 183e 34c8 cabe
00000350: d15a d8be 922f 813d 9dde de3d 07c6 a4be
00000360: 6631 1d3e 5767 1f3f d9aa f93c 8ec9 d1be
00000370: ce20 a7bd a6ed 4abe d667 473d 14f5 0abf
00000380: 9a4b 55bd ede0 953f d8d5 f0be e565 edbb
00000390: 7723 1fbf 0827 79bd b46a 283f f4d6 98bf
000003a0: ccfb 0fbd 2cef b0be 5607 3dbc 5874 1abd
000003b0: f40a 913d 4b39 a53e f7c7 07c0 0aa1 98c0
000003c0: ab31 cebc 83c4 d93e 1789 93be 564d 843e
000003d0: ca79 adbe 68fc 69bf 04ed 61bf e5d9 52bf
000003e0: feca 0fbc f531 a8bf aec1 aabc 1387 eb3d
000003f0: a28a a1bd 23c7 073e ad72 033d 101e ddbe
-0.43180066 -0.13412924 -0.030937212 -0.09552678 0.21022363 -0.024437996 0.13761158 -0.056734093
0.087186 0.028230466 -0.04546787 0.08481221 -0.031146538 -0.14594635 0.13985156 -0.031118086
-0.49493608 0.17320277 -0.06377552 0.0011654071 -0.13050374 -0.6031511 -0.015428562 0.08490245
-0.2088212 0.4235061 -0.3517065 0.08598804 -0.35938758 0.412118 0.7500573 -0.13411796
0.06652571 0.6432773 -0.061296176 -0.08539793 -0.16592374 -0.09880969 -0.014528764 0.3887871
-1.0204798 -0.48968136 0.028364701 -0.1469584 0.34717458 0.17890422 -0.04991687 -0.10205476
-0.19159237 -0.33357853 -0.2841396 -0.07197491 0.12987629 -0.1323723 -0.029427025 0.38161632
-0.26333773 0.593387 0.13727346 0.30161065 -1.0357696 -0.5566589 -0.21224822 -0.1146735
-0.19614215 0.21453711 0.043576255 0.16159895 -0.15713525 0.50047 0.12903035 -0.36474788
-0.67535317 0.17591879 -0.4107636 -0.20026533 -0.39754367 -0.6764623 0.022234634 -0.22335927
0.19929276 1.0303502 -0.45179322 0.4676163 0.3537391 -0.08367773 0.53060013 -0.18969426
-0.8799414 -0.06408907 -0.04589787 -0.07368922 -0.12047966 0.40834245 -0.046033204 -0.007500063
0.16600615 0.35566866 -0.36062348 0.21435228 0.12524171 -0.095076434 -0.18070856 -0.2833514
0.093568124 -0.08322402 0.08111576 0.23038056 0.21947287 0.14815123 -0.3733427 -0.01352137
-0.27665484 -0.17978524 0.13800256 -0.17855501 0.39187673 0.028687866 0.04031342 0.16011432
-1.2581447 -0.17839117 -0.14099132 -0.28786153 0.022220278 0.24866709 -0.39747995 0.07983323
0.2732253 0.5920217 0.05309688 -0.8290918 -0.072559826 0.032569006 0.25399148 -0.87677497
-1.1850076 -0.12068255 -0.048998334 -0.3006261 -0.0138901 -0.2840589 -0.010687547 0.047477268
-0.38525033 0.12480926 -0.2847674 -0.20828788 -0.08014654 -0.10241184 0.15299553 -0.37944987
0.13009907 1.4341611 -0.67871565 0.36666828 0.13194686 -0.11439851 0.27732423 -2.0867372
-0.23008728 -0.077675514 0.0038899686 -0.07787464 0.077166624 0.35123488 0.05042759 -0.019684529
0.012743712 0.267761 0.08125045 0.19208819 0.11913032 -0.0562179 0.14931636 0.24566533
-0.051951613 0.25746375 -0.12894008 -0.15975322 0.020551113 0.30358115 -0.37020355 0.15960388
0.276535 -0.0036494825 0.09238536 -0.31773245 -0.08983761 -0.3433155 -0.23536652 0.122392945
-0.22566685 -0.0996642 -0.060119405 -0.04929995 0.36726844 -0.12780939 -0.3057232 -3.2260952
0.016160013 -0.60301423 0.11075795 0.16756555 0.094992824 0.035044525 -0.12615658 -0.20641793
-1.5723505 -0.0034162777 0.14929727 -0.39605868 -0.42256787 0.063079014 0.10882304 -0.32182333
0.15350875 0.6226706 0.030476974 -0.40974087 -0.08160554 -0.19817218 0.04868301 -0.5428021
-0.052074052 1.1709267 -0.4703815 -0.007244813 -0.6216349 -0.06082824 0.65787816 -1.1940598
-0.03515224 -0.34557474 -0.011537394 -0.03770861 0.07082167 0.32270274 -2.12158 -4.769658
-0.025170168 0.4253274 -0.2881553 0.25840253 -0.3388198 -0.91400766 -0.8825228 -0.8236373
-0.008776424 -1.3140246 -0.020844307 0.11500373 -0.0788777 0.13259558 0.032091785 -0.43186998

6.bias f4 [24]
00000000: 5642 d640 0377 02c0 3f32 48c0 25ad a8c0
00000010: dbc8 82c0 bd20 a5c0 7586 1bc0 c0bb 5ac0
00000020: 7971 5cbc 9c65 3fc1 c9e1 0e40 306d d6c0
00000030: 8795 7fbe 608c 5fc0 4647 2740 782e 823f
00000040: 06a6 9440 fcfe f93f ca9c 1c3e 5af9 ecc0
00000050: 14b8 84be 75ea c9c0 b3ea da3f aeee 7240
6.6955976 -2.038514 -3.1280668 -5.271136 -4.0870185 -5.1602464 -2.4300816 -3.4177094
-0.013454788 -11.962307 2.2325308 -6.7008286 -0.24959384 -3.4929428 2.6137252 1.0170431
4.6452665 1.953094 0.15294185 -7.4054384 -0.2592169 -6.3098702 1.7102875 3.7958179

8.weight f4 [6, 24]
00000000: e052 d1bc 1fd3 783d 0edd 273d c931 1a3c
00000010: f189 72bb 6c98 95bc 408b 22bd fec4 e93c
00000020: e850 a8bc bcaa d0bc 9396 323e bf01 14bc
00000030: 08b7 67bc c8f8 7b3e 5c2d d63c 1e03 013b
00000040: f455 393b 5de3 baba 4769 473d 029c 20bc
00000050: 967e 4abe 3762 c13e 8fce 9cba b957 10bb
00000060: feed 37bd 88b4 233e 6f44 213e e65a ab3c
00000070: 232d 85bc 7d86 68bd d8ff b7bd 060f 083d
00000080: 3e4a b2bc 06ef c7bd 14f6 523e 5000 02bc
00000090: afb3 acbc c706 f13d 506e 3c3d a035 0b3d
000000a0: 9c90 693c 746e 3b3d 34fc 863e 3c50 bfbc
000000b0: 3be2 cd3d bf22 033e be6b e7bc be81 ce3b
000000c0: 1e86 66bd 2da6 a83c c28c 3f3d 1078 3f3e
000000d0: 5711 a5bd dec2 5cbd f6d1 a23d f5f3 c6b9
000000e0: b2c8 a5bb ee20 63be e65d 073e b13b 37bc
000000f0: ea07 bebc e9cb be3c 6144 533e c7e7 d03d
00000100: 2a3c 743d 8709 163e 376e 333e 0b21 4bbd
00000110: 6834 4cbd ec3d d13c a339 913c c1d2 08be
00000120: 79b0 3b3d 8d59 663d d439 563d 3692 01bd
00000130: e90f b6bd 96af 5e3e 71d2 0f3e bea5 df3c
00000140: e881 70bd e27d 64be d2a2 5a3d 5c68 ca3d
00000150: 34b2 b7bd 31a6 363b 500d 933e 8c34 113d
00000160: 716b 983e 19a5 ad3e 4ccc 6d3c 20ec 15be
00000170: 9dfc 363e c2a2 26bc ae7d c4bd fc7a 49bd
00000180: cb00 bf3d c4f9 003d 6f8b 01ba dae2 89bd
00000190: a700 4ebd aaae 143d 9b81 3e3d 0eaa 4e3d
000001a0: d57c 8ebd 1310 acbd becb 353c 7863 a6bb
000001b0: 1c52 7e3e c7b8 87bc 68a8 5b3e 89eb 483d
000001c0: 5c6b 843f dafa 983e 618e 5dbd 4e40 7abe
000001d0: 507b 10be 3709 29bc 217d a9bd f901 4f3e
000001e0: 5dcd 013e 2ea1 e93c 178a 293c c43a 06bd
000001f0: 8c49 953c 84da 70bd d977 1f3c 9114 c23d
00000200: 7215 dc3e 03f4 a1bc d8a3 24bc 27c4 f2bd
00000210: 3b08 b7bd b8b8 c3bb ccbb 403e 5b41 103d
00000220: bd16 b23f dbb1 173e 79dd 91bd 0cac 84be
00000230: 2ccd a2bd d8fa e9bc 2a48 3a3e cd66 643e
-0.025552213 0.060748216 0.0409823 0.009411284 -0.003700849 -0.018261157 -0.03968358 0.028536316
-0.020546392 -0.025472037 0.17440252 -0.009033619 -0.014142759 0.24606621 0.026144676 0.0019685696
0.0028279992 -0.0014258433 0.048684385 -0.00980282 -0.19774851 0.37770244 -0.0011963415 -0.0022024943
-0.0449047 0.15986836 0.15748762 0.020917367 -0.016256874 -0.056768883 -0.08984345 0.033217452
-0.021763917 -0.09762387 0.20601684 -0.007934645 -0.021081774 0.11768871 0.04600364 0.033986688
0.014255669 0.045759633 0.2636429 -0.023353688 0.10052916 0.12806223 -0.028249618 0.0063020876
-0.056280248 0.020587051 0.046765096 0.18698144 -0.08059948 -0.053896777 0.07950203 -0.00037947265
-0.005059325 -0.2218053 0.13219413 -0.011183665 -0.023197133 0.023290591 0.20631553 0.10200458
0.05962769 0.14652072 0.17522512 -0.04959206 -0.049854666 0.025542222 0.017727679 -0.13361646
0.045822594 0.056237746 0.052301243 -0.03163358 -0.08889753 0.21746668 0.14045121 0.027300712
-0.05871764 -0.22313645 0.053377934 0.09883186 -0.089695364 0.0027870054 0.28721094 0.035450503
0.2976947 0.33915022 0.01451404 -0.14640856 0.17869802 -0.01017064 -0.09594284 -0.049189553
0.09326323 0.031488195 -0.00049417367 -0.067327216 -0.05029359 0.036299385 0.04651032 0.050455146
-0.069574036 -0.084015034 0.011095939 -0.0050777756 0.2483601 -0.0165676 0.2145096 0.04905275
1.0345263 0.29878885 -0.05409086 -0.24438593 -0.1410954 -0.010317138 -0.082758196 0.20215596
0.12675996 0.02851924 0.010347865 -0.032770887 0.018223546 -0.058802143 0.009733164 0.09476579
0.4298511 -0.019769674 -0.010048829 -0.11853819 -0.08937117 -0.005972948 0.18821639 0.035218578
1.3913189 0.1481394 -0.07122321 -0.2591251 -0.0794929 -0.028561994 0.18191591 0.2230484

8.bias f4 [6]
00000000: 4e6f 25ba 3147 903b 727d 333c 7e33 253b
00000010: 1c7a 8a3b 1a92 e03b
-0.0006310836 0.004403018 0.010955201 0.0025207694 0.0042259824 0.006853354
