models/FF_with_station/FF_with_station_depth1_width24_batch106.pth (torch, 8520 bytes, 6 tensors)

0.weight f4 [24, 26]
00000000: b9c8 82c0 a297 9941 ae46 053f a946 5cbd
00000010: 2d28 84bf 109f 30bf fa86 a0be 3b76 49bf
00000020: 8336 15bf 47e9 f73d b2ac 433e 8532 153f
00000030: 59ca d23d 03f9 393e 53ac 64be 2dc7 8dbe
00000040: 3310 b43c cd64 e93d 95a6 a5be c6e4 9a3d
00000050: d022 b13e ff13 003e 83a1 adbe 838c 46be
00000060: 763a 8f3d 41ad 6a3f 5abe 513e b94d dd3e
00000070: bcec 75bd a71a 963d 9e45 a3be 237c e43e
00000080: c856 d0be b8f7 b03f 8d0f 573e dfe6 cdbc
00000090: 486c 8a3d edd2 6e3d 9257 943c 1411 79bc
000000a0: ccbd a93c 38e6 1b3a e990 e1bb 5ebc ba3c
000000b0: 9182 14bd 8d38 393d ed59 01bd e50b 84bd
000000c0: 5ccd e03c 5154 3cbc 6fc7 5b3d c1fb 0f3e
000000d0: 7622 e93f 9c67 4ec0 9767 cbbe 67bd 983f
000000e0: 8919 c9be 6d4c 04bf 1e98 853f e38f 193d
000000f0: 5897 6bbd e619 2d3c 40bf 15bc 7a68 b2bb
00000100: 8a1b 093d 271b 4cbb 2612 eabb 678a fd3c
00000110: ba02 bdbc e40f 32bd f630 e53c de97 0dbd
00000120: b8bc 5d3d bbf8 afbc d3ea 38bc 9b21 603d
00000130: ab89 09bd dc9e 52bd 5685 0bc0 f53c 9040
00000140: f2a5 783f d131 9dbe df5b c03a c84c e03e
00000150: b6e8 de3d b82e 7e3d a25d 3f3c ecea ef3c
00000160: 6f24 0ebd 2e76 aebb b1cf 0bbe e564 a33d
00000170: 1f1c 62bd 60c7 edbd 26b9 463d 5ced 163e
00000180: 5c38 d23d fbf2 533e cfa9 0c3e 22d9 0e3f
00000190: d402 c03d a2e5 203e 191b 803e 511c 4bc0
000001a0: a717 e7c0 e62d 00bf 0688 99be fbc8 613e
000001b0: c7a6 9cbc 6ebe a4be dd92 95be 7ca5 3e3d
000001c0: 72eb f63e 22cf d53e cdf9 1ebd f62e 243d
000001d0: 3052 263e a457 7cbd e043 42be 9df4 09be
000001e0: 5384 8b3d 0a83 e13c 7f3e aabd 4481 26be
000001f0: 975e 0fbe 5d94 043e 5c88 493e ba2d bc3e
00000200: 7499 ee3d c0a6 b73e b22c 4f41 e895 6bc1
00000210: 5d53 3bbf 246e ce3d 966e 223e cd55 7c3d
00000220: 20db 233d 03d8 273c e288 a4bc 664b 723d
00000230: 9613 a63e aa6e cd3d ac04 96be f509 14c0
00000240: bfef e2c0 ccf8 80bf 3f80 11bf 32d3 53be
00000250: 38d7 af3e 28b8 3d3f 3baa 753f 6098 45bf
00000260: eaab 88bf d8f4 e93e b600 1dbc 3406 2d3f
00000270: 8a95 3540 328f 91c1 d7b9 733f 49c5 b1bf
00000280: 00fb e3be cf8a 2f3e 6038 6e3e 5d68 e23e
00000290: 4857 9b3e 6715 f13c 5c63 0f3e 7c22 d0bd
000002a0: a948 cbbe e5a6 46be c801 f33d f7f9 383e
000002b0: 26f8 c23e 1eb2 84bd edc1 b2bf 1108 28bf
000002c0: 26ef f4be 2681 a9bd 2178 263f 9b64 c73d
000002d0: ec92 7e3e 6170 3a3d a4d8 34c0 00bc c4be
000002e0: 8bab ac3e 468d 9e3f 9c57 0b3e 3002 093d
000002f0: c883 093e 9b45 e9bd 8741 cd3d 60d2 65bd
00000300: 6ef0 c03d 7d1e 2a3e 31c1 a9bd 4adf 143d
00000310: d104 b93c 8f02 23bc 3486 76be 4262 5fbd
00000320: b31a 9c3e a529 8b3e 972f 9b3d f6c6 39bc
00000330: 7890 c2bf 83bc 14c0 bdc9 cabf 0ccd 53bd
00000340: 246e 2b40 a518 17bf 238e b5bf d169 a03e
00000350: 8ddf eabd abd3 e03d 7913 843f a8f3 b23e
00000360: aed4 5f3e f9fd 3d3d daf3 2e3e ae55 53bf
00000370: 00a3 89bf 95e6 1cbf 019f 44bd 1d17 983e
00000380: 454c b43d 09b1 763e 9f29 b63e 5dac 6fbe
00000390: 4ac1 a13e 5752 b83c 54f5 c53e 1d23 13be
000003a0: e451 99bf 150d a93e db28 d7bc 059b c4be
000003b0: f50c ac3d b365 ecbe ea93 dabc 72ba cd3e
000003c0: daf5 dc3f 0979 453d 6a50 82bd 2a01 c6bc
000003d0: 1240 df3b 3226 7d3c ac9d 34bc a19f 5c3b
000003e0: 96d9 77ba 8136 7abb 96e1 cabb 3391 633c
000003f0: 09c8 ba3c 3a76 81bd 1c3f 31bd 0508 023d
-4.0870023 19.19904 0.52060974 -0.053778324 -1.0324761 -0.6899271 -0.3135298 -0.7869603
-0.58286303 0.12105041 0.19108847 0.5828021 0.10292501 0.18161397 -0.22331361 -0.27691022
0.02198038 0.11396179 -0.32353655 0.07563166 0.34596872 0.12507628 -0.33912286 -0.19389538
0.069935724 0.91670614 0.2048277 0.4322336 -0.06004022 0.07329302 -0.3188905 0.4462596
-0.4069121 1.3825598 0.21002026 -0.025134502 0.06758934 0.058306623 0.018108163 -0.015201826
0.020720385 0.0005947086 -0.0068837297 0.022794899 -0.03625733 0.045219947 -0.0315799 -0.06447581
0.027441673 -0.011494712 0.05365699 0.1406088 1.8213642 -3.2250738 -0.3972747 1.1932801
-0.39277294 -0.51679116 1.0437047 0.037490737 -0.05751738 0.010565257 -0.009139836 -0.0054445835
0.03347353 -0.0031144114 -0.0071432767 0.030949784 -0.02307259 -0.043472186 0.027977448 -0.03456866
0.054135054 -0.021480909 -0.011286455 0.05471955 -0.033578556 -0.05142103 -2.1800132 4.507441
0.9712821 -0.3070207 0.0014675817 0.4380858 0.1088423 0.062056273 0.011680039 0.029286824
-0.034702715 -0.0053241467 -0.13653447 0.079782285 -0.0552026 -0.116102934 0.048516415 0.14738983
0.10264656 0.20698158 0.13736652 0.5580007 0.093755394 0.15712598 0.25020674 -3.1736033
-7.2216372 -0.50070035 -0.2998659 0.22049324 -0.019122494 -0.32176536 -0.2921361 0.046544537
0.48226506 0.41759592 -0.038812447 0.040083848 0.1624229 -0.061607018 -0.18971205 -0.13472219
0.06812348 0.027528305 -0.083127014 -0.16260248 -0.14000927 0.12947221 0.19680923 0.36753637
0.116503626 0.35869408 12.948412 -14.724098 -0.7317408 0.100796014 0.15862498 0.061605264
0.040003896 0.010244372 -0.020084802 0.059153937 0.32436818 0.10030873 -0.2930044 -2.3131077
-7.091766 -1.0075927 -0.56836313 -0.20686033 0.34343886 0.74109125 0.95962876 -0.7718563
-1.0677464 0.45694613 -0.009582689 0.6758759 2.8372521 -18.19492 0.95205444 -1.3888332
-0.44527435 0.17142795 0.23263693 0.44220248 0.30340028 0.02942915 0.14002746 -0.101628274
-0.39703873 -0.19399603 0.11865574 0.18064104 0.38079947 -0.06479286 -1.3965431 -0.6563731
-0.47838706 -0.08276586 0.6502705 0.09735986 0.24860734 0.04551733 -2.8257227 -0.38424683
0.33724627 1.2386863 0.13607639 0.03344935 0.13429177 -0.11390229 0.10022264 -0.056108832
0.09420858 0.16613193 -0.082888015 0.036345758 0.022585304 -0.0099493405 -0.24074632 -0.054537065
0.3048912 0.2718021 0.075774364 -0.01133894 -1.5200338 -2.3240058 -1.5842816 -0.05170922
2.6785975 -0.5902198 -1.4184002 0.31330732 -0.1146842 0.109778725 1.0318443 0.3495152
0.21858475 0.046384785 0.1708521 -0.8255261 -1.0752869 -0.6128934 -0.0480032 0.29705134
0.0880361 0.24090971 0.3557863 -0.23405595 0.3159278 0.0225002 0.38663733 -0.14368863
-1.1978116 0.33017793 -0.026264599 -0.3839952 0.08400909 -0.4617134 -0.026681859 0.4018131
1.7262528 0.04821113 -0.06362994 -0.024170477 0.0068130577 0.015451001 -0.01102392 0.0033664482
-0.0009454725 -0.003817946 -0.0061914427 0.013889599 0.022800462 -0.06321378 -0.043273076 0.03174593

0.bias f4 [24]
00000000: f050 dec0 e0fe b33f 5710 d1bf 4331 5441
00000010: 2c00 adc0 d267 1ec2 689c 0dc2 ac44 c740
00000020: 5cdd 2341 3238 8b3e fc0d 8541 6988 e9c0
00000030: ce13 8fc1 0c28 9740 7dfe 1e42 eb9c a4c0
00000040: 36f2 ddbf 8335 b13d 6085 b93f 8361 5041
00000050: c17a 6b40 b621 25bf ec51 ea40 404f 26c2
-6.94738 1.4062157 -1.6333112 13.262027 -5.406271 -39.601387 -35.40274 6.227133
10.241543 0.2719131 16.631828 -7.2979016 -17.88467 4.7236385 39.748524 -5.144155
-1.7339542 0.08652785 1.4493828 13.023807 3.6793673 -0.64504564 7.3225 -41.577393

2.weight f4 [24, 24]
00000000: 6491 d03d 6292 a8be 007a 123f 974c c3bc
00000010: eff3 52bd db32 53be 3c2d 0fbe 7403 ab3c
00000020: b59e 403e adfb c6be 6982 de3d cb74 28be
00000030: 158b 41bf 4acf 563e b876 763c 8980 c9be
00000040: 2c90 9a3e 84a7 f13e dcfc 0cbd f6cb e6be
00000050: 3730 683d 01f5 79be 5553 09bb 016b 46be
00000060: ac96 72bd f1be 55be a26a 7e3e be1c 6b3c
00000070: f05f 34bf b256 1cc0 4b0e d73e 88ea 353f
00000080: 1709 91bd a7a1 bdbe 980f 943e dcc9 47bc
00000090: 21bd 0fbe 9224 7a3e 907c 0abe eb06 99be
000000a0: 92cb bbbf fca0 c83e 0dac ed3d 03d9 f5be
000000b0: d9cc b7c0 55f1 c1c0 db69 3ebe a18d 3cbf
000000c0: 0693 82bd c8bd 383f 246f 0abd 5f1f 05be
000000d0: 4ce0 123c 64ff 8bbe bad0 d03b ef76 b83e
000000e0: ee15 07be 2b51 e7bd 181d 223d 56e2 bd3e
000000f0: d717 12be 9935 27bf 4a99 6abd 12fd 27bf
00000100: 4ca5 933e 2bf7 81be 4bc8 6fbe 400c ba3e
00000110: 9f4a da3d 6ba9 463f 34ce 44bd 8fe2 f33e
00000120: c08c 213d 5ce9 a03e 9b65 013e fcdb 8dbc
00000130: 0893 2cbd 7a85 563f fc35 1f3e fa0f 763d
00000140: f713 913d 9e54 dc3d dd2b 20bd 8962 0b3e
00000150: 00d1 133d 05b1 c33c 57a8 c53c 35f6 ccbd
00000160: 9a20 133e 0017 193f 0ae3 2a3e b22a 08be
00000170: 143b 803b e068 e03e 8ccc 683b 6ee0 053f
00000180: f862 8cbf 5011 123d f382 bd3d 9927 39c0
00000190: 50ce e23d b43f b63e f542 1dc0 960b 433f
000001a0: a783 4f3e 9d05 8b3d 34d0 913e 9acc 38be
000001b0: b6e9 973c db4d cabe cb8c d83f 25cf 3f3f
000001c0: 6baf dbbe 85bf ebbe b591 8d3e c902 ef3c
000001d0: c8d8 1abd 371d 0ac0 0db9 29c0 5a30 643d
000001e0: 22b8 b0bf 0ad5 b4be 4ab1 083f 78ef 5fbe
000001f0: 3f86 a13e 5c57 553e 2b44 e73c 2307 43bd
00000200: 54bc 693e 465a 2e3e 8c8e 9cbe fa23 a33e
00000210: e1c0 7fbd 598f 45be ffa7 4ebd fb14 453d
00000220: 567b b13e 5896 eabd 04f8 0ebf c386 c03e
00000230: 7d73 03be 82e3 acbd db65 c83c 9b6a fe3d
00000240: feeb 78bd 5588 8d3e ffcf fabe 0aa2 48bd
00000250: 1833 423d b563 253e b4c6 4739 863c 59bc
00000260: 1850 f53c e3c7 4a3e c3ef 80bd 9d23 2bbf
00000270: c321 973c 59f8 16be b2d6 3c3d d3f5 cebb
00000280: dd15 243d c517 d13e b279 5d3a 5e1c 3a3d
00000290: 76e7 9abc 884f 0c3d 8c12 143d 4200 afbb
000002a0: 0b38 76be 5411 a83e 5207 c03e 20d2 92bd
000002b0: c303 92be e86a 19bf c4dd bcbe eb4f 333c
000002c0: 90c5 b0be 5e6e 953e 0218 bd3e 1c06 2e3e
000002d0: 2b86 a8be d750 95be 4595 27bf d026 f7bd
000002e0: 4a2a 78be 084e 35be 0f04 25bd a078 cc3e
000002f0: 254d 01bf 7cc5 5dbf e0b6 9fbe e9a6 24bf
00000300: bf6c ccbd 6dda e43e f769 8c3d e0b8 57be
00000310: e3e0 12bd 575b 6dbf 5ee7 cf3d 509f 83bf
00000320: 3d30 3e3e 2318 c6be 1b92 da3d 1f9f 6a3e
00000330: d2db 1e3e f336 d8bd ad77 0a3f 76c3 853d
00000340: 9a65 1cbf fd41 6c3d d7c7 b8bd df88 fbbf
00000350: 7302 f0bd 2749 c73e f524 4fbd 38a1 893e
00000360: d2ad 633d 4479 00bf 7664 08bf 719b d9bc
00000370: c960 e63d f708 5c3e 8f15 293e b431 e8bc
00000380: b7b4 1f3e 2a71 7f3e 5539 1dbe 1411 4b3f
00000390: 6d5b 9d3a efa6 54bd e5b1 ea3d 6d14 8fbe
000003a0: 99de f63e 024d 0439 1a91 40bc 23aa b9bd
000003b0: d68a cb3d d890 debd 4756 b93c 450d 313e
000003c0: ecfd f2bd d0cf 493f e596 203e b46c 853c
000003d0: b599 46bd dbe6 3fbd ca61 b9bc f10f 2b3c
000003e0: db9c 0abd 897d d63c d13f 63bc 2c80 863e
000003f0: 7968 21be 1138 093e 1ac6 aebc 83d6 b73b
0.10183981 -0.3292418 0.5721741 -0.023840232 -0.051502164 -0.20624869 -0.139821 0.02087567
0.18810542 -0.38863888 0.108647175 -0.16450803 -0.7560285 0.20977512 0.015042953 -0.39355877
0.3018812 0.47198117 -0.034420833 -0.45077485 0.056686606 -0.24409868 -0.002095421 -0.19376756
-0.059225723 -0.2087362 0.24845365 0.014350114 -0.7045889 -2.4427915 0.42003092 0.7106099
-0.07081812 -0.37037393 0.28918147 -0.012194123 -0.1403699 0.24428013 -0.1352408 -0.2988809
-1.46715 0.3918532 0.11605082 -0.4801713 -5.743756 -6.0607095 -0.18595068 -0.7365361
-0.06375699 0.72164583 -0.0337974 -0.13000248 0.008964609 -0.27343285 0.0063725384 0.3602824
-0.1319196 -0.112947784 0.039578527 0.37086743 -0.14266907 -0.6531616 -0.057275094 -0.6562053
0.2883705 -0.25383887 -0.2341625 0.3633747 0.10658764 0.7760226 -0.048048213 0.47633788
0.03944087 0.3142804 0.12636416 -0.01731681 -0.042132407 0.8379742 0.15547937 0.06007383
0.07083886 0.10758327 -0.03910433 0.13611807 0.03608799 0.02388812 0.024128122 -0.10007898
0.14367905 0.5980072 0.16688171 -0.13297537 0.0039132927 0.43830013 0.003552231 0.5229558
-1.0967703 0.03566104 0.09253492 -2.8930418 0.11074507 0.35595477 -2.4572117 0.76189554
0.20265065 0.0678818 0.2847916 -0.180468 0.01854406 -0.39512524 1.6917967 0.7492545
-0.4290727 -0.46044555 0.27650228 0.029176133 -0.037804395 -2.1580331 -2.6519196 0.055710174
-1.3806193 -0.35318786 0.5339552 -0.21868694 0.31547734 0.20834106 0.028230747 -0.047614228
0.22825748 0.17026624 -0.30577505 0.31863385 -0.062439803 -0.19292964 -0.050453182 0.04811571
0.3466441 -0.11454457 -0.5584719 0.37602815 -0.12837024 -0.08441831 0.024462631 0.12422677
-0.060771935 0.27643076 -0.48986813 -0.048982657 0.047412008 0.16151316 0.00019052142 -0.013259059
0.029945418 0.19802813 -0.06295731 -0.66851217 0.018448716 -0.14743175 0.046103187 -0.0063159256
0.040059913 0.40838447 0.0008448615 0.04543721 -0.018909197 0.034255534 0.0361505 -0.005340607
-0.24044816 0.3282572 0.37505585 -0.071689844 -0.28518495 -0.5992875 -0.36887944 0.010944347
-0.34525728 0.29185766 0.3693238 0.16994518 -0.32914862 -0.29163238 -0.6546214 -0.1206795
-0.24234882 -0.17705548 -0.040287074 0.3993578 -0.5050834 -0.8662946 -0.3119421 -0.64317185
-0.09981679 0.44697896 0.06856149 -0.21066618 -0.035859 -0.927175 0.10151552 -1.0282993
0.18573089 -0.3869029 0.10672399 0.22912262 0.15513542 -0.10557356 0.5408886 0.06531422
-0.6109253 0.05768012 -0.090224914 -1.9651145 -0.11719217 0.38922998 -0.050572354 0.26880813
0.05558569 -0.50185037 -0.5327829 -0.026563378 0.11248929 0.21487795 0.1651213 -0.028344013
0.15596281 0.24945512 -0.15353902 0.79322934 0.0012005396 -0.051917013 0.11459712 -0.2794527
0.48216704 0.00012617189 -0.011753345 -0.09065654 0.0993859 -0.108674705 0.022624148 0.17290218
-0.11864838 0.7883272 0.15682562 0.016287185 -0.04848643 -0.04685102 -0.022629637 0.010440812
-0.033840995 0.026182907 -0.0138701955 0.26269662 -0.1576251 0.13400294 -0.021334697 0.0056102886

2.bias f4 [24]
00000000: 0a64 e3c0 72e4 aec0 f16c 0fc1 7f32 a5bf
00000010: 945f a7c1 3970 cfc0 6714 8dc0 2d2d 77bf
00000020: e19b 0641 7abd 0cc1 b324 cabf 360c 4240
00000030: 0550 e33f a20f 123e 1fc0 3fc0 e21d a43f
00000040: 9c2a 13c1 90e3 0541 32cb b3be bba7 1ac1
00000050: e754 adc1 231b 02c1 53b0 21c1 50d3 7dc0
-7.105962 -5.4653864 -8.964097 -1.2906035 -20.921669 -6.482449 -4.4087405 -0.9655331
8.413056 -8.796259 -1.579245 3.0319953 1.7758795 0.14263776 -2.9961011 1.282162
-9.197903 8.368057 -0.35115963 -9.66595 -21.666456 -8.131625 -10.105548 -3.9660225

4.weight f4 [6, 24]
00000000: e10f 333d 63dd 21be 4490 24bd 23a6 6a3d
00000010: 0012 ef3e 0b29 23bc b0e0 18bc f89f 663c
00000020: d3f9 2dbd 6d87 fcbc d38a 103d 7a03 3fbd
00000030: 4833 dfbe 32a8 933d 6e79 1abd 9732 e23e
00000040: c497 89bc f41b 32be 7286 e23c f42c 30bd
00000050: d01d 55bc 8850 d7bd 2464 e43e 45c1 413c
00000060: 6f0c 393e 61bd e6be e5c7 5fbd 7f2e 2f3e
00000070: 0a49 573f 2617 003d 7dc7 66bd a000 bd3b
00000080: b51b a7bc b462 0dbe 504e 61bc b55c 903e
00000090: 8079 22be cf31 953e 6dd4 5fbd 07be 463e
000000a0: 133c 1d3b 218e 23be 743e 903d f3e8 d5bd
000000b0: f66e 033d 8615 15be 03a9 463e 9991 84bd
000000c0: 6f6a 513d 85a4 c1be 0834 8fbd 4235 b53e
000000d0: 69fa ef3e 4dae 023c 813e 22bc 2da8 b1bc
000000e0: 8055 22bb e407 cd3d c21c a5bd 4d95 933c
000000f0: 5857 b3bc 72e0 263f 5369 7fbd 2918 b43d
00000100: 2a5f 91bd 7071 aabd 87fe 5c3e 2e39 a1be
00000110: 04c6 b73e 7b58 01be dcdd 943c 86db 2ebe
00000120: a432 d1bc 54cc 16be 57ec a4bd eb8a 7e3e
00000130: 60ea 3b3e c929 1cbe 7532 843e 7bb2 e4bd
00000140: a964 94bc 5e55 50bc dd7e 99bd 0b16 5ebd
00000150: eb23 6bbc 4ae0 653f 4085 083e e13b bc3c
00000160: 7fcf 7f3e 21f2 29bc 1db1 df3e 9b97 19bf
00000170: ab6e 483e a6b3 ddbd c948 f53c 0f3e c5bd
00000180: 2647 03bd fd43 2fbd fcd5 0ebe f25d 143e
00000190: ce16 bf3d 13a8 4a3e 7d3f 78bc d635 a7be
000001a0: 0275 733d b0b2 cdbc 665e c93b 5707 c4bc
000001b0: 1541 443c 1cb6 463f 125c cd3e cb4a 69bb
000001c0: 11b6 ddbb d6a1 2abc dd3f 083f c168 23bf
000001d0: 7a02 fa3b e490 a1bd 706e 913b ce62 a1bc
000001e0: f8b2 37bd 64ee b9bc 6e3e c3bd 934c 153e
000001f0: 3642 3b3d d619 413c e08c 66bd 8ac8 bdbe
00000200: 57dc 8f3e 7eb7 5cbd 2086 cd3e e6a4 97bd
00000210: 9e3a 5b3b 8a72 e93e fc34 0e3e cc7c 39bc
00000220: 9d93 8abd 5f81 c5bb f77a ab3e 5b86 b9be
00000230: 7262 9639 10a0 54bd 7415 93bc d0b5 e83b
0.043716315 -0.15807109 -0.040176645 0.057287347 0.4669342 -0.009958516 -0.009330913 0.014076225
-0.04247458 -0.030826295 0.035288643 -0.046634175 -0.43593812 0.07209815 -0.03771346 0.44179222
-0.016796 -0.17393476 0.027652 -0.04301162 -0.013007596 -0.10513407 0.4460765 0.011825864
0.1807115 -0.4506636 -0.054633994 0.1710758 0.84095824 0.031272076 -0.05634259 0.005767897
-0.020398954 -0.13807184 -0.013751581 0.2819573 -0.15866661 0.29139563 -0.054645944 0.19408427
0.0023992106 -0.15972187 0.07043162 -0.10444822 0.032088242 -0.14558992 0.1940041 -0.06473083
0.051126894 -0.3782083 -0.06992346 0.35392195 0.46870735 0.007976127 -0.009902597 -0.021686638
-0.00247702 0.10011271 -0.08062126 0.018015528 -0.021892235 0.65186226 -0.062356304 0.08793671
-0.07098229 -0.08322418 0.2158147 -0.31488937 0.3589326 -0.12631409 0.018172197 -0.17075929
-0.025536843 -0.14726382 -0.08052891 0.2485768 0.18351126 -0.15250315 0.25819746 -0.11166855
-0.018114405 -0.012715666 -0.074949004 -0.05422024 -0.014351825 0.8979536 0.13332081 0.022977771
0.24981497 -0.010372669 0.43689814 -0.59996957 0.19573466 -0.10825281 0.029941933 -0.09630977
-0.032050274 -0.042789448 -0.13948816 0.14488962 0.093305215 0.19790678 -0.015151856 -0.3265826
0.05943776 -0.025109619 0.0061452864 -0.023929281 0.011978407 0.77621627 0.40109307 -0.0035597559
-0.006766089 -0.010414561 0.5322245 -0.63831717 0.0076296898 -0.07888964 0.004438214 -0.019700434
-0.044848412 -0.022696681 -0.09533392 0.14579992 0.04571744 0.011785945 -0.056286693 -0.37067062
0.28097793 -0.05388593 0.40141392 -0.07404499 0.0033451687 0.455952 0.138874 -0.011321258
-0.06766436 -0.006027385 0.33492252 -0.36235318 0.00028683577 -0.05191046 -0.017954566 0.007101752

4.bias f4 [6]
00000000: 94c2 37b9 2fa3 27bc 53d3 c9b9 3780 4ebb
00000010: 5474 e3ba 78a3 ee37
-0.00017524726 -0.010231777 -0.00038495156 -0.0031509527 -0.0017353394 2.8447932e-05
