models/FF_with_station/FF_with_station_depth2_width24_batch106.pth (torch, 11520 bytes, 8 tensors)

0.weight f4 [24, 26]
00000000: 2ce5 05c1 3441 0a41 7fcf 7e3f c66c aebf
00000010: 0d2d 18bf db8b 8c3e 5f59 013e 1163 d7bd
00000020: 08b5 8fbd 1d56 a73d 7530 943e f1f3 00be
00000030: 2c8d babe 39de 2d3e 8a88 63bd 0f1c 803e
00000040: 6ebf bb3e 6373 8dbf 54df fcbe 8311 e83e
00000050: 0bf4 c5be afd6 07bf 2bfa f2bc 9ccd e7be
00000060: a2a1 8d3f 6481 5f3e d7f0 8841 df9f a4c1
00000070: 215f 65bf bf2c c53e 1f10 7cbe ce13 c8be
00000080: 606b 993e 313c 063e 64d9 393e 69b5 4fbd
00000090: b483 e1bd d4ee 903e a83c e83d 5ba6 b93d
000000a0: d312 51be 67d6 80bf 8010 05c0 e24b 55c0
000000b0: 5be4 2ec0 20d1 0ec0 caa9 7cbf 3345 e13f
000000c0: 89cc 7a3f d893 0f3f dfcc 30bf 7069 a5bd
000000d0: 89c9 003e 93a0 4fc0 3d41 45bd fc73 1abf
000000e0: c155 363f a054 c13f 6ca2 b2be 2411 47bd
000000f0: 16dd 323d a41e ccbc 8585 7e3d 6c42 053d
00000100: 5ae2 4d3d 124d b53b 3835 6a3b 4ca6 b83b
00000110: fabd 38bd c947 1ebc db21 33bd 06cc 113d
00000120: c3ab f13c b594 edbd b895 853d f4e7 cb3d
00000130: 5177 c43d 6c7c 7ebd e117 e7c0 aed1 ef40
00000140: 7562 64bf 5e81 1ebf 1bea f43d 01b2 1ebe
00000150: fa13 f53e 6d69 6a3f edbd dd3e e4cd 333e
00000160: a3ba df3d 611d 12bf 4128 92bf bcc9 99bf
00000170: d786 b8be 25a3 30be 0284 7f3f 0adc 413f
00000180: 0eca 02bd 9313 d3be 8ea1 f63d 74f0 ed3d
00000190: e452 3bbe cbfb 5a3e 774a f93e 2328 5cbe
000001a0: 0d58 9cbf a430 6cc0 e703 6e3f 44d6 b63f
000001b0: 98b0 1cbe 4c9b f83e 4fe9 943e 1c4b d0be
000001c0: 2796 f0bd af4b b53d 8d33 b43d 1e36 133b
000001d0: e19c 183d 5cff 053b 8fae 33bd faf4 65bd
000001e0: 7257 9dbd cc44 893d 10c7 1c3b b4d6 073d
000001f0: 40bb eb3c ef38 4dbc b556 fabc 900f bc3c
00000200: 4ffe 1bbe 5e9d 26bf 46d8 4bc0 6e24 82bf
00000210: 4440 a33f 90cd f4bd dff2 613e 753e 50be
00000220: 45e4 dbbe 7c5d b83e ff61 f23e cd88 a13e
00000230: 7c11 723e 8bf6 0f3c bfa5 e2bc 64eb 233d
00000240: 9e7f 02be 48c5 d4bd 143c 623e 4cea 8f3e
00000250: 44f4 18bd 6fa5 2fbe 2dfe a6bd 8473 1a3d
00000260: ac5c 4abe 2def 1d3e 83fc 073e a643 51bf
00000270: 6e36 a1c0 b40b ea40 e508 12bf 9677 353e
00000280: 4fc3 173e 3897 91be c72f 5ebf 59c0 debe
00000290: 0065 193e 811e d53e ccbd 843e 018f 763e
000002a0: f4c0 cb3e 58fe 623e fcff bebe 9240 8abe
000002b0: 543d 793c 9400 823d 8eaa 83bd 04ee 12be
000002c0: d126 f1be 97ec a9be 8063 593e ecc1 ab3e
000002d0: 64cc 533e cb66 eb3f 8c65 a1bd 2dfb b9bf
000002e0: 1bc0 f13e 6441 983d c113 c3be c048 803e
000002f0: 3c22 c0be 92b1 f73e 2189 cb3b 7e90 ffbd
00000300: 1a44 7d3d 7bff b2bb 2298 133d 074e 803b
00000310: 2634 133d 087e 753d 52da 34bd c03a 9ebd
00000320: df65 53bd 7761 a73d 9386 d43c 9dea f5bc
00000330: 2a66 c23d 70da 413d d319 85bd c944 0040
00000340: f35c d3be c5ef 7340 cc33 c6be 5db8 7e3d
00000350: 9740 663f 7b5b fbbd e632 253f 0720 a7be
00000360: a1f2 723d 27b4 113e ad59 fdbc 5353 35bc
00000370: 0034 d8bd 4a45 ec3c 6ecd 8ebc 96bb 253d
00000380: 9583 b23c 114d 2dbb e6ac d93c c387 d4bd
00000390: e8b7 ffbd 89ce 263e cead b53c b249 d7bd
000003a0: f6bd 61bc 9e6c d13f 0bec 913e 859d 77bf
000003b0: 1552 1240 888a 91bd 1288 b13e 8c84 40be
000003c0: ecf1 00be df34 213e cce9 153c dfb7 35bd
000003d0: f5c1 25bd 671a 0c3e 92b8 623d c769 a03d
000003e0: 70b0 dfbd 06b5 6cbe f45d 06bd b4e5 f93d
000003f0: 0037 c23d f482 803e 6ae0 8abe 6fc4 5dbf
-8.36845 8.640919 0.99535364 -1.3626945 -0.5944374 0.2745045 0.12631749 -0.10516942
-0.07016951 0.08170722 0.2894322 -0.12593056 -0.3643583 0.16979302 -0.055550136 0.25021407
0.36669487 -1.1050838 -0.49389136 0.4532586 -0.38662753 -0.53061956 -0.029660305 -0.45274055
1.1064951 0.21826702 17.117598 -20.578062 -0.8959828 0.385107 -0.24615525 -0.3907761
0.29964733 0.13108899 0.18149334 -0.050710116 -0.110114485 0.2830721 0.11339694 0.09064933
-0.20417337 -1.006543 -2.079132 -3.3327565 -2.7326877 -2.231514 -0.9869658 1.7599243
0.97968346 0.56084967 -0.6906261 -0.08076751 0.1257688 -3.2441757 -0.04815792 -0.6033323
0.712246 1.510395 -0.34889543 -0.04860033 0.043667875 -0.024916954 0.062139053 0.032534048
0.050264694 0.005532869 0.0035737287 0.0056350585 -0.04510305 -0.00966067 -0.04373346 0.035594963
0.029500848 -0.11600629 0.06522697 0.09956351 0.0959307 -0.062130377 -7.221665 7.4943457
-0.89212734 -0.6191615 0.119587146 -0.1549759 0.47866803 0.91567117 0.43308964 0.1755901
0.1092427 -0.5707608 -1.1418535 -1.201469 -0.36040375 -0.17249735 0.998108 0.7572638
-0.031930976 -0.4122587 0.12042533 0.116181284 -0.18293339 0.21385114 0.48689625 -0.21499686
-1.2214371 -3.6904688 0.92974705 1.4284139 -0.1530174 0.48555982 0.2908425 -0.40682304
-0.11747389 0.08852326 0.08798895 0.0022462676 0.037258986 0.0020446396 -0.043867644 -0.05614183
-0.076826945 0.06702575 0.0023922361 0.03316374 0.028775811 -0.012525781 -0.030558923 0.02295664
-0.1523373 -0.65083873 -3.1850753 -1.0167367 1.2753987 -0.119532704 0.22065304 -0.20336325
-0.42947593 0.36008823 0.4734039 0.31549683 0.23639482 0.008786808 -0.027666925 0.040019408
-0.12743995 -0.10389191 0.2209323 0.28108442 -0.037342325 -0.17152952 -0.08153949 0.03770782
-0.19761914 0.1542327 0.1327992 -0.8174385 -5.0378942 7.3139286 -0.5704482 0.177214
0.14820598 -0.28435683 -0.8679165 -0.43506125 0.14979935 0.41624835 0.25926054 0.24077989
0.3979565 0.22167337 -0.37304676 -0.27002388 0.015212376 0.063477665 -0.06429015 -0.14348608
-0.47099927 -0.33188316 0.21229362 0.33546388 0.20683438 1.8390745 -0.07880697 -1.4529778
0.47216877 0.07434347 -0.3810101 0.25055504 -0.3752612 0.48377663 0.0062114154 -0.124787316
0.061832525 -0.0054625846 0.036033757 0.0039155516 0.035938405 0.059934646 -0.04415352 -0.077260494
-0.051610824 0.08172887 0.025943076 -0.030019099 0.094921425 0.04732746 -0.06499066 2.0041983
-0.41281852 3.8115094 -0.38711393 0.06218754 0.89942306 -0.12273308 0.6453079 -0.32641622
0.05931342 0.14228879 -0.03092655 -0.011067229 -0.10556793 0.028841633 -0.01743194 0.0404621
0.021791259 -0.002644364 0.026571702 -0.10377457 -0.12486249 0.16289724 0.022177603 -0.10512103
-0.0137782 1.6361272 0.285004 -0.9672473 2.28626 -0.07106501 0.34674126 -0.18800563
-0.12592286 0.15742825 0.00914998 -0.044364806 -0.040468175 0.13681947 0.0553518 0.078326754
-0.10922325 -0.2311593 -0.032804444 0.122020155 0.09483147 0.2509991 -0.2712434 -0.8662786

0.bias f4 [24]
00000000: 24d8 b4c1 1541 cac1 4d10 e9bf 0077 3040
00000010: 8394 8240 0e66 4b41 14cd d540 8e10 1540
00000020: 7654 d83f 2818 3ac0 a489 6ac0 3327 c4c1
00000030: 009f 8ec1 32cd 14c2 c41a 8440 296f 4141
00000040: 51b3 8141 1482 68c1 d69e 8741 dde6 6341
00000050: 181c bb3f bf2c d840 e359 8cc0 54db 0642
-22.605537 -25.281778 -1.82081 2.7572632 4.080629 12.712416 6.681284 2.3291354
1.6900775 -2.9077244 -3.664651 -24.51914 -17.827637 -37.200386 4.1282673 12.089639
16.212557 -14.531757 16.952557 14.243863 1.4617949 6.755462 -4.3859725 33.714188

2.weight f4 [24, 24]
00000000: f205 0b3f 47c7 26bf 6bee 57bc 69d1 63be
00000010: bd46 3b3e ede3 603e 55e3 1ebf 52a7 1abd
00000020: ea12 bc3e 3fbe beba 4252 ccbe b157 673e
00000030: cf01 2ebf a0ee dabf 5044 31bf d7ac e7be
00000040: 076f ebbe e8b1 06bf b5d1 cbbe 0cbd e83e
00000050: bd92 123f 7497 8f3c 7128 113e 2c5f cf3f
00000060: 8e35 8d3b 291d 193e 3d1b 48bd 94ef 03bd
00000070: 8eb2 373f 7a62 8d3d 687a 673c 718a 34be
00000080: 7d81 b6be 2882 403e 7135 08be ea1d f6bc
00000090: 8623 3d3e c847 9c3c 6f1c f5bf 3128 353d
000000a0: 41d1 bf3e ee46 7c3d f333 a7bd aba1 0dbe
000000b0: 4390 b8bc 8306 78bd 726f 033d cb76 16c0
000000c0: 27e4 b3bf 4c80 9ebf 9f72 ec3e ee4c a4be
000000d0: 189c 56bb f916 aebd eae2 3ebe cbef c9bf
000000e0: aaee 90bf de71 0a3f ab50 5abf 9d4f 263f
000000f0: 6a63 673d 5d52 89be fab0 6fc0 e691 d2bc
00000100: 0258 c8be 26dd a4be de73 68bd bfd1 3d3f
00000110: 99a5 873f 8d53 9e3e 03ab 443e 8674 a1bf
00000120: 1a16 9ebc 1239 88c0 8885 193f d883 28be
00000130: 3f63 a8be fef8 df3e b71b f9bd 2419 133d
00000140: b0dd eb3e 854c fa3e 3e4e 793d 95f6 56bd
00000150: afd9 cc3d 7ce0 ecbb 53e5 21be 40bf e9bc
00000160: c76c e13e ff8d bbbd 1975 0c3d 3945 733a
00000170: 0a55 443e 06a1 3abe d1e6 45bf 8869 4e3f
00000180: 6b33 0ebe 731a 6d3d 6665 933e fbdb f93b
00000190: 4ce7 553e 0711 90bb 1f26 41bd 67b8 c73e
000001a0: b425 923e b748 853d f437 a9bc 2cee 38bc
000001b0: 6fed 8f3c db61 883d c70f 09bd 75fd 04bb
000001c0: 862b 853d c841 19bd 80ad d43c 1353 b73b
000001d0: 7d0f 1b3d 7592 61bf 14a1 c23e 98f7 103e
000001e0: 13fa 023d 3ba5 683f a5b4 ce3e 4bb1 2ebc
000001f0: 54ce 03bf ade5 743e ceb4 313e c033 853e
00000200: 9b68 4e3d c54c 91be e16f 04bd 9843 7e3e
00000210: b786 99be 0b4d 77bd 0ed5 95bd 3680 9abc
00000220: 09ec 6fbe 8eb0 78bd 2ac8 ac3d 6e43 44be
00000230: f305 a1be 0330 1bbe 8291 c6be 5a10 b13f
00000240: 0ae9 9b3e b163 1cc0 0949 393f 8c13 60bd
00000250: a25a 9a3e 294e 3b3d 8d02 6cbe 95a0 d7be
00000260: 40d3 32be e7ec 0fbe d1fb d4bd 11ba 01bf
00000270: 3e03 abbe 1405 0dbf 4cc7 00bf 6c0a 2b3e
00000280: 092e a0bf b558 e4be 6d4c aa3c 8073 a8be
00000290: bb97 5c3f 28e5 003e 216c b2bd 1460 9e3f
000002a0: 0c41 57bf c73b 1abf adf5 a9bd 33bd 90bf
000002b0: ed54 9a3e 49b8 9b3f a014 52bf 2642 33be
000002c0: 163b 10bf 0f92 1fbe 91cf 66be dac0 4c3e
000002d0: e80b ccbe 526c f2bd 233a 38bf 295d ddbd
000002e0: cc0b afbe 1346 50be 51e5 a53c 8adc 05bf
000002f0: 4bf0 a43f a8e3 79be d28d 9abd 00db 36c0
00000300: 1cb0 c1be 89d0 173e 7c9e ef3e 0e92 f1be
00000310: 8a97 07be 98aa 073e 46ab 57bf f87f 233f
00000320: 7803 03be 4cf0 1dbf f93c 953e 1567 27bf
00000330: 68e8 4dbf 21f5 89bf e6e9 8fbd f886 b8bd
00000340: 8266 f7bf cd32 05c0 4ff6 09bf 13e7 95bf
00000350: ee42 f5be 335a 5c3b 3cb3 063f 77d6 23bf
00000360: 6a8e 1fc0 a77f 243e a21f 35be 6677 fabf
00000370: 78bc d8be a0e8 60be 6311 0fbf 3689 083f
00000380: 5420 ea3e 72f5 553d 85ff 913e 6527 abbd
00000390: 95b6 213f e81c 3d3f 33eb d3be b6d2 d5bf
000003a0: e84a 51bf f876 23be 83fb 62bf b028 0ebf
000003b0: c088 783f 614c 03be c0e3 b1bd 10d8 e23f
000003c0: db39 4c3e 0545 3fc0 66b0 6b3e cf55 37bf
000003d0: fd88 97be be8e 95be 8e74 1bbe 1049 2e3d
000003e0: b177 a93e 46fc 26bd 7856 af3e 0369 af3e
000003f0: a435 883d 7b5a dcbf deab 323d e612 afbf
0.54305947 -0.65147823 -0.013179402 -0.22247852 0.18288703 0.21961947 -0.6206563 -0.037757225
0.3673318 -0.0014552547 -0.39906508 0.22592045 -0.6797151 -1.7104073 -0.6924486 -0.45249054
-0.45983145 -0.52615213 -0.3980843 0.4545673 0.57255155 0.017528273 0.14175583 1.6200919
0.0043093627 0.1495253 -0.0488541 -0.0322109 0.7175683 0.069035485 0.014128305 -0.17630936
-0.35645667 0.1879965 -0.13301636 -0.030043561 0.18470582 0.019077197 -1.9149302 0.044227783
0.37464336 0.06159108 -0.081642054 -0.13831203 -0.022529727 -0.060553085 0.032088704 -2.3510005
-1.4054002 -1.2382903 0.461812 -0.32089943 -0.0032746848 -0.085004754 -0.18641248 -1.5776304
-1.1322834 0.5408 -0.8527934 0.6496523 0.056491293 -0.2682065 -3.7451768 -0.025704335
-0.39129645 -0.32199973 -0.056751125 0.7414817 1.0597411 0.3092312 0.19205861 -1.2613685
-0.019297648 -4.2569666 0.5996938 -0.16456544 -0.3288822 0.43744653 -0.12163489 0.035912648
0.46067572 0.48886505 0.060865633 -0.052481253 0.10002457 -0.007228909 -0.15810136 -0.028533578
0.44028303 -0.09157943 0.03429136 0.00092800293 0.19173065 -0.18225488 -0.7730532 0.8062978
-0.13886802 0.057886552 0.28788298 0.0076251007 0.20889014 -0.004396561 -0.047155496 0.39007875
0.2854439 0.0650801 -0.020656563 -0.011287253 0.017569272 0.066592894 -0.033462312 -0.0020292674
0.06502442 -0.03741625 0.025961637 0.00559462 0.037856568 -0.881141 0.38013518 0.1415695
0.03197677 0.9087712 0.40372196 -0.010662387 -0.51486707 0.2391574 0.17354128 0.26016045
0.05039273 -0.28378883 -0.03233326 0.24830472 -0.29985592 -0.06037621 -0.073160276 -0.018859964
-0.23429884 -0.06071525 0.08436616 -0.19166347 -0.3144985 -0.15155034 -0.3878289 1.3833115
0.30451232 -2.4435847 0.7237707 -0.05470614 0.30147272 0.045728836 -0.23047848 -0.42114702
-0.17463398 -0.14055215 -0.10399593 -0.5067454 -0.3340091 -0.55085874 -0.503041 0.16703194
-1.2514049 -0.44598928 0.020788396 -0.3290062 0.8616902 0.12587416 -0.0871203 1.2373071
-0.8408363 -0.60247463 -0.08298812 -1.1307739 0.30142918 1.2165614 -0.8206272 -0.17505702
-0.5634016 -0.1558306 -0.22540118 0.19995442 -0.39852834 -0.11837067 -0.7196371 -0.108087845
-0.34188688 -0.20339231 0.020250948 -0.5228964 1.2885832 -0.2440325 -0.07546581 -2.8571167
-0.37829673 0.14825644 0.468006 -0.47181743 -0.13241401 0.1324867 -0.8424572 0.6386714
-0.12794292 -0.6169479 0.2914808 -0.65391666 -0.8043275 -1.0777932 -0.070270345 -0.09010118
-1.9328158 -2.0812256 -0.5389146 -1.1711143 -0.47902626 0.00336231 0.5261724 -0.6399912
-2.4930673 0.1606432 -0.17687848 -1.9567688 -0.4233129 -0.2196374 -0.55885905 0.5333437
0.4572779 0.052236028 0.28515258 -0.08357123 0.63169223 0.7387223 -0.4139038 -1.6704929
-0.8175492 -0.15963352 -0.88665026 -0.55530834 0.97083664 -0.12822105 -0.08686018 1.7722187
0.19943945 -2.9885876 0.2301651 -0.7161531 -0.295967 -0.29210466 -0.15181181 0.042550147
0.3309913 -0.04076793 0.34245658 0.34259805 0.06650856 -1.7215112 0.043620937 -1.3677642

2.bias f4 [24]
00000000: 6361 0042 5203 a3c0 0454 0641 f9f4 2a41
00000010: 2b8d f940 12ed 3e3e 2289 05c2 b6a1 bd41
00000020: 062c 81c0 4b4a dac1 7ac9 85bf 8e57 61c0
00000030: 1a09 a53f a9fd ccbf b37f 2441 13b6 e0bf
00000040: 6931 d8c0 b578 23c1 792b 1cc0 bc59 fac0
00000050: dec2 8e41 c76a b8c0 726d d540 3bfb d0c1
32.095104 -5.0941553 8.395512 10.684808 7.7984824 0.18645123 -33.38392 23.70396
-4.036624 -27.286276 -1.0452111 -3.520969 1.2893403 -1.6014911 10.281177 -1.7555565
-6.7560315 -10.2169695 -2.4401534 -7.823454 17.84515 -5.7630343 6.66961 -26.122671

4.weight f4 [24, 24]
00000000: eebc bc3d 82ea a5be 1ba3 4c3e 2c7f 19be
00000010: 7bb2 a9be ff0c e1bb 4012 adbf 3c3f a6bf
00000020: 9537 03c0 125a 1a3f fecf 30bd 6e42 d33e
00000030: db46 99bc efcb 8cba 0300 93be dd94 683e
00000040: f3a5 42be 6218 a03d 5cc2 2e3d 9797 aebf
00000050: 7873 ffbd 8968 cfbf 058a 4d3d f8c6 583d
00000060: cf02 12bc 1b58 57be 457e 1dbd 7aec 293d
00000070: 7e97 b83e af35 303d bd60 8e3c 72b0 3ebe
00000080: 7960 66bd d293 293d b187 06bc 6875 5e3d
00000090: 0bfc 2cbe 08e0 e13e ccf7 0abd 2fb8 5fbd
000000a0: 4343 563d 5ebe 66bd 815c 7dbb 42c5 5cbd
000000b0: 6429 4a3d ebae dc3d 21e1 45be 11bd 3abd
000000c0: a987 e13d 8b16 143f 185e dd3f 42a7 00be
000000d0: 92cd 3ebf b6a9 c1bd ba5f b9be 2a79 323e
000000e0: bc55 d4be 4e85 c03f aa8f 31bf c52b a3be
000000f0: e3ee 2f3e d1bc 71bf 98b7 2b3f 0d1f 5e3e
00000100: eec6 a9be 245b 02bf 84d0 b53e bd51 8b3d
00000110: d655 ad3e 16c1 493d b1e6 333f ab45 7dbe
00000120: cc5c 44bf 7c70 e03e eb7e 123e c892 92be
00000130: 859b a3be 8241 bfbd ddaf 273e 0d9e 8bbf
00000140: e8cf 6dbe 4d52 d23e 1cba e8bd 2dcf 813e
00000150: 48af e23d df4c a43e f579 1b3e af02 83be
00000160: 2999 963e ddb9 2cbe 7564 69be 36c1 2ec0
00000170: f00e 143f cc2a 4f3e b08f 39be da44 623e
00000180: c5a0 bbbf 4858 123f 96b5 8e3f 86e2 d33d
00000190: 538e 123e 95df bbbe 88d3 e6bd e0e7 6ebf
000001a0: 11c3 d6be 1069 dc3d 3c37 04be ac20 01bf
000001b0: 42fc fdbd c5bd be3d 46e5 a7be 8cf3 60bb
000001c0: 1704 463f 7ee3 56be 2278 25c0 c2ee 9dbf
000001d0: 836f 9d3f 984b 163e 683a 9bc0 39cd bebe
000001e0: b526 803e 57f1 3abe 2791 cb3f 7051 4bbe
000001f0: a063 d73d 249d e4bd b990 02be 9bd8 5fbf
00000200: 9e6c 3c3f ed53 513f fba0 2dbf e953 bbbd
00000210: f308 e3bd dbdd f93c fbce 123f 5673 caba
00000220: b54b d03e 89f6 7dbf 25db 1f3e b3d5 503e
00000230: 7741 383f d499 6fbd 66a3 643f d74d adbe
00000240: 9e56 e6be f0c0 1a3f 0908 b13c 4871 0cbe
00000250: 886b 4fbf 5e35 cdbf 5c23 353d 16c2 77be
00000260: 934e e8bd 735b b5be 640e a4bd 1c57 06be
00000270: 7b79 513e 11a2 d73d e374 113e 5cf0 dabd
00000280: 807b 0f3e 3bb7 61be db14 48c0 8c1d 133f
00000290: d150 a9bf f916 523f 02a3 5ebe bd8e c6bd
000002a0: cfe8 77bd 8088 42be c926 92bd eea8 d73e
000002b0: 23c8 1bbf 3296 47bc 7502 183e fd6b 24bf
000002c0: 4e93 9ebe 8af4 3b3f 230a 2bbf 74f1 2bbe
000002d0: 060c 0a3f c904 99ba dd9d 9bbe 07c4 ccbd
000002e0: 0fed 83bc dd61 463d 9c91 453d e7bf e1c0
000002f0: f675 933e 466e c43e e12b c13d d7fd b73d
00000300: 5bf6 213d ccef 6dbf 2005 813e 3cc8 6fbf
00000310: ba85 90be ac61 81be aae7 b1bf f95e db3e
00000320: 11a7 76bf ee9b 4b3f 9da0 53c0 eb82 2abd
00000330: fc15 e33e 41e5 a5be 0ab9 0ebe c3d2 083d
00000340: 1fd8 303f 44fa 80bf c272 04bf 4b7b 93c0
00000350: 168e e03f 0fb6 46bf c3eb 5cc0 f491 34bf
00000360: a48d d8be eac4 6f3e 7098 7dbe 32c5 d0bd
00000370: 0c0e 4d3e 860a 39be bb11 453f 13bc 85be
00000380: ff2d ccbf bef2 8f3f e4e9 cbbe 8fbd 9d3d
00000390: 69e4 463e 686d a0be aa25 293d 452b dfbd
000003a0: c053 a1be 6413 b73d 8905 a5bd 25eb f5c0
000003b0: 7072 89bb 98c3 023c b651 aabd f622 5bbe
000003c0: e29c 4bbe db64 1ebf c94c 8b3f c953 85be
000003d0: dfd6 ecbe a9be 7ebe beab b6bd 6558 bf3f
000003e0: 0807 f5be 6c56 9dbf 8052 ee3e 4ed9 43be
000003f0: 0bd8 6e3e b1de 35be f798 673d ed25 443e
0.09215723 -0.32405478 0.19984095 -0.14989918 -0.33143982 -0.0068680043 -1.3521194 -1.2988048
-2.0502675 0.60293686 -0.043167107 0.4126162 -0.018710544 -0.0010741929 -0.28710946 0.22713037
-0.19008617 0.07817151 0.042665824 -1.3640012 -0.12473196 -1.6203777 0.050180454 0.052924126
-0.008911802 -0.21029703 -0.038450498 0.041485287 0.3605308 0.043019947 0.017380113 -0.18621996
-0.056244347 0.041400738 -0.008211062 0.054311186 -0.16893022 0.44116235 -0.033927724 -0.05461901
0.05231024 -0.056333892 -0.0038659873 -0.053899057 0.04935588 0.107755505 -0.19324161 -0.045590464
0.11012203 0.578469 1.729434 -0.12563804 -0.74532425 -0.09456198 -0.36205846 0.17429033
-0.4147166 1.5040681 -0.6935984 -0.3186933 0.17180972 -0.94428736 0.67077017 0.21691532
-0.33159584 -0.5092032 0.35510647 0.068027 0.3385455 0.049256407 0.7027388 -0.24733607
-0.76704097 0.4383582 0.14306228 -0.2862761 -0.3195459 -0.093386665 0.1637568 -1.0907608
-0.23223841 0.41078416 -0.113636225 0.25353375 0.110685885 0.32089898 0.15183242 -0.25587985
0.29413727 -0.16867776 -0.22792228 -2.7305427 0.5783529 0.2023117 -0.18121219 0.22096577
-1.4658438 0.57165956 1.1149166 0.1034594 0.14312105 -0.36694017 -0.11270815 -0.93322563
-0.419457 0.107622266 -0.12911695 -0.5044048 -0.1240163 0.093135394 -0.3279211 -0.0034324853
0.7734999 -0.20985219 -2.5854573 -1.2338488 1.2299656 0.14677274 -4.8508797 -0.37265947
0.2502953 -0.18256126 1.5903672 -0.19855285 0.10517049 -0.11162785 -0.1275052 -0.8743989
0.73603237 0.81768686 -0.6782376 -0.09146864 -0.11085691 0.030501297 0.5734708 -0.001544575
0.4068276 -0.9920431 0.15610941 0.2039402 0.7197489 -0.05849631 0.89311826 -0.3384845
-0.4498796 0.6045065 0.021610277 -0.13715088 -0.81023455 -1.6031911 0.044223174 -0.24195132
-0.11343112 -0.35421333 -0.08010557 -0.13119167 0.20456497 0.105289586 0.14204745 -0.10690376
0.14011955 -0.22042553 -3.126273 0.5746696 -1.3227788 0.82066303 -0.2174187 -0.09695194
-0.060524758 -0.18997383 -0.07136304 0.4212107 -0.6085226 -0.012181805 0.14844687 -0.6422728
-0.3097176 0.7342001 -0.6681234 -0.16791326 0.53924596 -0.00116744 -0.30393878 -0.09998327
-0.01610425 0.048433173 0.048234567 -7.0546756 0.28800935 0.38365382 0.09432197 0.08983963
0.039541584 -0.92944026 0.25199223 -0.9366491 -0.28227025 -0.2526983 -1.3898823 0.42845896
-0.96348673 0.79534805 -3.306678 -0.04162876 0.4435271 -0.3240147 -0.13937774 0.033404123
0.69079775 -1.0076375 -0.51737607 -4.6088004 1.7543361 -0.7762155 -3.4518898 -0.70535207
-0.42295563 0.2341496 -0.24765182 -0.10193862 0.2002489 -0.1807042 0.7698018 -0.26120052
-1.5951537 1.1245954 -0.39826882 0.07702171 0.19423069 -0.3133347 0.041295685 -0.10896925
-0.3150921 0.08939245 -0.08057696 -7.684954 -0.00419455 0.0079812035 -0.083163664 -0.21400055
-0.19884065 -0.61872643 1.0882808 -0.26040486 -0.46257684 -0.24877419 -0.08919476 1.4948851
-0.47856927 -1.2291999 0.46547318 -0.19125864 0.23324601 -0.17760731 0.056542363 0.19155093

4.bias f4 [24]
00000000: 48b0 4dc1 25f1 92c0 b637 cf40 80be 8fc0
00000010: 04c8 e1c0 965f 4340 410c 53c1 4030 dfc0
00000020: 2fe8 8ec0 2c2c 5bbf 6261 ef40 78ce 9240
00000030: f766 09c1 df68 adc0 b0dd 80c1 6031 e23e
00000040: e0a8 22c1 23a6 b6c0 3134 8e3f 3b90 7c3f
00000050: d7c1 1e41 c3ea ab3f ac2b 4f41 71de c2bf
-12.855537 -4.5919366 6.4755507 -4.4920044 -7.055666 3.052709 -13.190492 -6.97464
-4.4658427 -0.85614276 7.4806376 4.5877037 -8.587638 -5.4190516 -16.108246 0.44178295
-10.166229 -5.7077804 1.1109678 0.9865758 9.922324 1.3431019 12.948162 -1.5224134

6.weight f4 [6, 24]
00000000: 228c cbb9 266e d13e ed10 19bc e044 ca3d
00000010: f8ff af3e 1f9b bd38 f552 b1bd 54b0 853a
00000020: 201a 1d3d af2e 9b3b 1390 b9bb 4cdc 2ebd
00000030: 8255 07bc 4f75 193d e2e4 353c c11c 9cbd
00000040: d82e b9ba 2df9 5f3d 7947 1cbc 567d 063d
00000050: 7385 223d fe3b 68bb 1931 e5bc 99c8 e33d
00000060: 52b5 cdbc 499d b33d 158a 15bd 146c 983e
00000070: 7638 ee3d a52c fb3b 2111 25be 207c 2a3c
00000080: 9e19 8ebd 9fbe 3f3d 02bf 66bc 13fa bbbd
00000090: e9dd 3b3c fb1e 4c3d 5572 293d d1fc b23e
000000a0: 72ad c5bc 1bda 05bd 3b87 45bc 6520 4a3d
000000b0: f10c 4d3d cfd5 493b 1a88 75bd e80e 973e
000000c0: dc1d 19bc 065d ac3c 9505 b3bd ca38 af3d
000000d0: 0cae 1e3d 9dae 5e3d 7474 13be d811 c93e
000000e0: 2a41 dc3e 02e1 f13c b132 203c f51f b7bd
000000f0: 686a 2e3d 360f e83b 9653 173d 9c0c a23e
00000100: 36f3 5c3b 35ec 18be b3e0 f43d bea4 32bd
00000110: 01d4 9b3d 56e7 f3bb cd86 b1bd 0602 863e
00000120: b8c6 fe3b 3fa9 023d d173 05be f5e9 b93c
00000130: 2aed 8d3c bfbd 993d ed47 46bd 45b2 b13d
00000140: 2c2d 4c3f 5d75 d03e 7e7f 1c3d 26b0 adbd
00000150: 9a2c ca3d e73f 9cbd b108 de3c 25d3 983d
00000160: 9c64 733e 3de1 acbd 42d3 953e 3292 07be
00000170: 309a b33d efb9 b93d 714e c2bd 47a0 f33d
00000180: f5f0 e4bd 9d00 6a3c e071 43be 99f8 ccbb
00000190: a4bb e03a a418 bf3d 493a f13b d716 ddbc
000001a0: 70ec c23e f2b9 4b3e f324 f63d ac90 4fbd
000001b0: ddaf a53e 8e5a cfbd 6860 963d 57f1 023d
000001c0: 5ef3 01bd 27ec 46bb 1f1c a73e 94cf dabc
000001d0: 15c4 9d3d a266 b63e 4022 cdbd c959 303d
000001e0: f413 c93e 4b38 95bb 4485 75be ee16 ffbc
000001f0: 4aac d1bc a557 a13d 431e 723c 800b 19bc
00000200: 6af7 0c3e f8d0 813b 060e 6c3e 4432 7a3c
00000210: efee 383e 2f81 99bd fde2 0f3e 2e4b 683c
00000220: a931 89bc b7e1 043c e50f 353e 7743 bb3e
00000230: 6256 653d 157b 823e 14d1 8fbd 7b2d d23c
-0.00038823584 0.4090435 -0.009342414 0.09876418 0.34374976 9.041116e-05 -0.08658401 0.0010199645
0.038354993 0.0047357897 -0.005662927 -0.04269056 -0.008260133 0.03746539 0.011101933 -0.07622672
-0.001412834 0.054680992 -0.009538525 0.032834373 0.03967805 -0.0035436149 -0.027977513 0.11122245
-0.025110874 0.08770234 -0.03650864 0.29769957 0.11631863 0.007665234 -0.16119815 0.01040557
-0.0693848 0.04681265 -0.014083626 -0.09178557 0.011466482 0.049834233 0.0413688 0.3495851
-0.024130557 -0.032678705 -0.012056167 0.0493473 0.05006117 0.0030797606 -0.05994425 0.2950356
-0.009345498 0.02104045 -0.08741299 0.085557535 0.038740203 0.054365743 -0.14399892 0.39271426
0.43018466 0.029526237 0.009777711 -0.08941642 0.042581946 0.0070818914 0.036944948 0.31650245
0.00337143 -0.14933856 0.119569205 -0.04361414 0.07608796 -0.007443349 -0.08668289 0.2617342
0.007775154 0.031899687 -0.13032462 0.022694567 0.017325003 0.07506894 -0.048408438 0.0867658
0.79756427 0.4071454 0.038207524 -0.08480863 0.09871788 -0.07629376 0.027103754 0.074621476
0.23768848 -0.08441398 0.2926274 -0.13239363 0.08769643 0.09068667 -0.09487618 0.11895805
-0.111787714 0.014282373 -0.19086409 -0.006255221 0.0017145765 0.09330872 0.0073616845 -0.02698843
0.38071012 0.19895151 0.12018766 -0.05067508 0.32360736 -0.10124694 0.07342607 0.03196844
-0.031726234 -0.003035316 0.32638642 -0.02671031 0.07703415 0.35625178 -0.10016298 0.043054376
0.39273036 -0.00455383 -0.23976618 -0.031138863 -0.02559485 0.07878045 0.014777723 -0.009341121
0.13766256 0.0039616786 0.23052225 0.015270773 0.18059896 -0.07495343 0.14051433 0.0141780805
-0.016747313 0.008110455 0.17681845 0.3657491 0.055990584 0.2548453 -0.070223 0.025656452

6.bias f4 [6]
00000000: 7e20 673e 63d8 1c3f 49fb 1c3e bdfb 3e3f
00000010: fc46 803f ac46 5d3f
0.22570989 0.6126768 0.15330233 0.7460287 1.0021663 0.8643596
