models/FF_with_station/FF_with_station_depth1_width96_batch106.pth (torch, 52936 bytes, 6 tensors)

0.weight f4 [96, 26]
000000 03 b5 e6 40 91 5f 53 c1 7b 36 72 bd a3 af c8 be
       7.209596 -13.210832 -0.059133988 -0.391965
000010 e9 94 82 bd d0 3f 5d 3e 75 00 50 3e e1 96 e0 3d
       -0.063760586 0.21606374 0.20312674 0.10966278
000020 f3 8f 97 bc 40 28 63 3b f2 4f 32 3f b4 0b 83 be
       -0.018501258 0.0034661442 0.69653237 -0.25594866
000030 cd 2e 60 bf ef d8 18 3e 0c 34 59 3f e5 5b 62 3f
       -0.8757141 0.14926504 0.8484504 0.8842147
000040 2d 14 a0 be 08 63 12 c0 d6 c3 8a c0 ec 43 bd bf
       -0.31265393 -2.2872944 -4.3364058 -1.4786353
000050 5f f1 0a c0 66 26 61 bd 77 2a 2b 3f a1 6e 06 bf
       -2.1709821 -0.05496826 0.6686167 -0.52512556
000060 2c e7 2a 3f 4f 55 54 be 7f 0c b6 be 50 9d 83 c1
       0.6675899 -0.20735668 -0.3555641 -16.451813
000070 1d a3 b6 bf 89 e7 fc 3e a4 0f f0 3e 1a aa 24 3e
       -1.4268528 0.49395397 0.46886933 0.16080514
000080 a0 25 00 bf 79 5e 53 bd ba 81 c3 3d d8 da 25 bc
       -0.5005741 -0.051603768 0.09546228 -0.010122977
000090 83 44 f9 3c 0f 67 1f 3d b9 79 6f 3d 99 07 3b 3e
       0.030428177 0.038916644 0.058465693 0.18264617
0000a0 62 a6 e7 3e 52 8b f9 bd 93 7b 1e bf 17 52 19 bf
       0.45244128 -0.12184776 -0.6190731 -0.59890884
0000b0 c2 0c ac 3d b4 38 03 3f 16 a2 2e 3e 65 36 9e 3d
       0.08400871 0.512584 0.17054018 0.07725219
0000c0 17 e4 93 be 6d 84 f8 3d fb 41 af 3e 9a de 13 3f
       -0.28884956 0.12134633 0.34230027 0.5776154
0000d0 3a 32 40 3f d8 bd 57 c1 1e 04 84 bf f3 11 3f 3e
       0.7507664 -13.483849 -1.0313756 0.18659191
0000e0 10 f1 35 3f 44 02 ff 3d 51 60 b6 3e 6e 44 dc 3c
       0.7107096 0.12451604 0.3562036 0.026888099
0000f0 91 07 ac be 3d cc e2 bd fe 69 00 3e 16 6a 61 3e
       -0.33599523 -0.110741116 0.12540433 0.22013125
000100 6a 60 a6 bd 4c 8f 22 be c6 76 9b 3d cf 3a aa bc
       -0.08123858 -0.15874976 0.075910136 -0.020779995
000110 6e 6a 2a 3b 62 af 16 bd a4 4d 53 3e 83 21 e8 bd
       0.0026003378 -0.03678835 0.20635086 -0.11334517
000120 03 c6 54 bc aa 75 9a 3c 39 20 bd 3d 1e 04 11 be
       -0.012986663 0.018854935 0.092346616 -0.14161727
000130 0d a3 3d bd 15 7e 34 3d 70 84 bf 3f 13 65 a4 bf
       -0.046298075 0.044065554 1.4962292 -1.2843345
000140 72 1c 4c 3e 9a 77 9e 3e f3 16 2e 3f 1d 0f 59 3f
       0.19932726 0.30950624 0.6800377 0.84788686
000150 3f 54 73 bf 0e bf 0f c0 22 83 5c bf 00 ef b6 bd
       -0.95050424 -2.246036 -0.8613759 -0.089323044
000160 ef f7 d3 3c e0 28 93 3d 44 51 8a 3c e2 ae e4 bc
       0.02587506 0.07185531 0.016884454 -0.027915422
000170 90 35 86 3d c9 6a 1d bd 9a f8 5a bc 2b ee 24 3d
       0.06553185 -0.038431916 -0.013364935 0.040266197
000180 33 3e 8a bd 76 70 5c 3d 53 9e 5f 3d 00 0e ad 3d
       -0.06750145 0.05381819 0.05459435 0.08449936
000190 99 9c fe bb 84 3f 35 3c 62 e4 c9 3a bf 9e ac 3e
       -0.0077701327 0.011062507 0.0015403146 0.33714864
0001a0 62 1f e9 40 8d 0f 52 c1 0a c9 77 3f 54 63 39 bf
       7.285081 -13.128797 0.96791136 -0.7241719
0001b0 5d 0b 51 c0 af d8 ee bf 58 13 87 bf 17 34 df 3e
       -3.2663186 -1.8659877 -1.0552778 0.4359443
0001c0 1d 82 26 3f 57 40 d3 bd 66 6a 59 3d 76 c9 74 3d
       0.6504229 -0.10315006 0.053079985 0.05976244
0001d0 21 98 57 be 0d 98 2d be 3d f9 44 bd 6d ee ea 3c
       -0.21054126 -0.16952534 -0.048089255 0.028678143
0001e0 6e d3 24 3e 29 ca 93 3d d6 c7 11 bd c8 b1 12 be
       0.16096279 0.07216293 -0.03559097 -0.1432563
0001f0 e5 a2 6b 3e 83 e9 40 bb e4 5d f8 bd 57 3e b8 3e
       0.23011358 -0.0029436059 -0.12127283 0.35985062
000200 ce 56 b0 3e 68 59 ce 3c 5e 47 9e 40 dd c0 4a 41
       0.34441227 0.025189117 4.946212 12.672086
000210 93 06 7d bf 64 28 ee 3e 51 7a 05 3f 4d e7 6f bf
       -0.98838156 0.4651519 0.52139765 -0.9371231
000220 c5 ea 82 3e f8 a8 fa 3e 23 a0 19 3f 78 9b fa bd
       0.2556974 0.48957038 0.60009974 -0.122366846
000230 97 0b 91 bf e1 60 75 bf b5 6f fd be 4f 36 d6 bd
       -1.1331662 -0.9585095 -0.49499288 -0.10459577
000240 1e 87 44 3e 31 62 a3 3e 0a 7a d4 3e 77 9d e4 be
       0.19192168 0.31910852 0.41499358 -0.44651386
000250 22 2d 03 bf 92 03 20 3f b2 7f 1a 3f 4c ca 58 be
       -0.5124074 0.6250545 0.603511 -0.2117092
000260 3f 81 7f be bc a6 8d be 5e fb 8e 3e 1a 79 9b 3e
       -0.24951647 -0.2766627 0.27926153 0.3036583
000270 95 b3 b5 40 e6 75 e1 40 94 ee 16 bf 0d cb 3f bf
       5.6781716 7.045642 -0.5895779 -0.74919206
000280 ab 32 c6 3d a4 fb 3a 3f d0 b2 bf be 36 2e 7e bf
       0.09677633 0.73040223 -0.3744111 -0.9928926
000290 91 d4 84 3e 19 99 c3 3d d8 2b 9f be 25 78 d0 be
       0.25943425 0.095506854 -0.31088138 -0.40716663
0002a0 11 b9 68 bf fe 6d 28 be c7 69 92 bd 63 c8 de 3d
       -0.9090739 -0.16448209 -0.07149082 0.108780645
0002b0 c8 ca f1 3e c0 17 99 3e 83 8b 50 3e 7a e6 8c 3e
       0.47225022 0.29900932 0.2036572 0.2751959
0002c0 76 93 33 be 54 a9 e8 bc a4 27 2c 3e 5a 7e 94 bc
       -0.1753672 -0.028401054 0.16811997 -0.018126655
0002d0 ec 88 50 be 97 ee 81 3e d9 b7 9f 40 fc 53 a3 40
       -0.20364732 0.25377342 4.9911923 5.104002
0002e0 2c 36 74 be e9 96 d6 3e 4b 65 13 3e 01 a6 a1 3e
       -0.2384879 0.4191201 0.14394109 0.31571963
0002f0 a3 d0 0b 3f 5e 1c bf be eb ce 1c bf 4b 3f 78 3c
       0.5461523 -0.3732633 -0.6125323 0.015151809
000300 f1 d2 14 bc 7a 3d 8c bd d2 75 81 bd 15 8c f6 bc
       -0.0090834955 -0.06847663 -0.063213006 -0.030096093
000310 fb 55 2b 3e 9c 04 87 3e 57 f7 9d bd a9 af 0c bf
       0.16732018 0.26370704 -0.07713192 -0.54955536
000320 95 97 57 bf 3d 46 d2 be 54 59 0d 3f 83 d1 55 3f
       -0.8421567 -0.41069213 0.5521443 0.83522815
000330 e6 c8 df be a5 9b b3 bf 80 10 06 bf 6d b1 e9 3e
       -0.4370796 -1.4031874 -0.52368927 0.45643178
000340 2b 85 98 41 02 fb d3 41 7e 89 ed 3d 58 42 07 3f
       19.065023 26.497562 0.1159849 0.5283561
000350 35 60 cb bd fc d5 91 be d0 6a 17 bd 27 cd 17 3f
       -0.099304594 -0.2848357 -0.0369671 0.5929741
000360 90 db d4 be 8a 66 a0 be 8b bd bf bd 48 35 40 bd
       -0.41573763 -0.3132823 -0.09362324 -0.046925813
000370 af 78 c1 3d 48 1f 30 3e 52 52 de 3e f4 72 ff 3c
       0.09446847 0.17199433 0.4342218 0.031182744
000380 02 2e 85 be 8f 4e fd be 0a 36 4a be 53 53 7e 3e
       -0.26011664 -0.49473998 -0.19747177 0.24836473
000390 a9 09 16 3f 37 1f d9 be 67 2c ab be 77 13 b9 3d
       0.5860849 -0.42406628 -0.33432314 0.09036916
0003a0 a0 b1 5f be b0 3e 90 3e ed 81 19 c0 e4 5f 44 c0
       -0.21845102 0.28172827 -2.398555 -3.0683527
0003b0 69 f1 04 3e 82 d5 3c 3e 7b bd 4d be ff 31 16 3f
       0.12982716 0.18440822 -0.20091812 0.5867004
0003c0 eb 37 7b be f7 15 fa 3b 9d fd b4 3e 04 a4 f5 3d
       -0.2453305 0.007632013 0.35349742 0.11994174
0003d0 12 71 0a be 68 99 2e 3f 98 66 6d 3e 32 cc b1 3d
       -0.13519695 0.6820283 0.23183668 0.08681525
0003e0 e4 b1 f5 be 4c 8b be bf 81 c6 f6 bf 95 1a 9e 3d
       -0.47987282 -1.488626 -1.9279329 0.07719914
0003f0 a0 9d ee be 7d 42 ad be 2a 5b 80 3e 1b 5d 55 3e
       -0.46604633 -0.3383979 0.25069553 0.20836298

0.bias f4 [96]
000000 67 25 bb c1 31 df ea c1 1c b1 2f c1 1e eb 17 41
       -23.393263 -29.35898 -10.98074 9.494902
000010 19 4e a8 41 01 42 13 c1 f3 51 77 40 1d 0e 01 c1
       21.038134 -9.203614 3.8643768 -8.065946
000020 76 d5 2f 41 13 b3 49 41 6b 22 c6 c0 8b f8 92 c1
       10.9896145 12.606219 -6.1917014 -18.371359
000030 bd ca 76 41 03 64 10 41 14 9b 0d 41 d0 d6 78 c1
       15.424497 9.024417 8.850361 -15.552444
000040 94 87 3b c1 ed 62 03 c1 c4 05 05 c1 33 79 11 c2
       -11.7206 -8.211652 -8.313908 -36.36836
000050 90 08 7d c0 3e 4f c3 40 87 f4 68 40 4d 97 56 c0
       -3.9536476 6.103423 3.6399248 -3.3529847
000060 64 8e 46 c1 d4 89 06 41 6e 0a 0d c1 ca 29 a5 3f
       -12.409763 8.408649 -8.815046 1.2903378
000070 41 9f 09 c2 d8 4c c4 c0 40 a4 7d 40 cd 6a bc c1
       -34.40552 -6.1343803 3.96315 -23.552149
000080 79 a6 2c 40 ca 88 e9 3e 24 0c 32 c1 1e 67 13 41
       2.6976607 0.45612174 -11.127964 9.212675
000090 4f 08 d3 40 2d 9e a7 41 e4 ee 83 bf d9 68 9b c0
       6.594764 20.952234 -1.0307279 -4.856549
0000a0 91 ca b6 41 fc 02 7b bf 13 78 80 c1 07 3b 76 41
       22.84891 -0.9805143 -16.05863 15.389411
0000b0 1e e3 00 40 6e 48 42 bf e9 53 6c 41 c8 df 32 40
       2.0138621 -0.7589177 14.770486 2.7949085
0000c0 59 c3 c0 c1 6c ff 80 40 b7 4a a2 c0 cc 1d 80 c1
       -24.095385 4.0311794 -5.0716205 -16.01455
0000d0 23 e5 f9 c0 cf 15 4e 41 de cc 9b 40 91 c8 0e 41
       -7.809221 12.880324 4.868758 8.923966
0000e0 b8 f4 ae 3f 54 36 d2 41 3f 67 99 41 c6 5f 02 41
       1.3668432 26.276527 19.175413 8.148382
0000f0 5b bf 45 41 fd e5 93 c1 db d5 ab c0 f6 c7 87 c1
       12.359218 -18.487299 -5.3698554 -16.972637
000100 99 9c f2 bf 27 55 8d 41 c5 f0 32 3f f7 44 73 c1
       -1.895404 17.666578 0.69898635 -15.204337
000110 84 99 6c c1 07 ea e3 3f b0 4b 59 41 5c 1e 1e 41
       -14.787479 1.7805794 13.580978 9.882412
000120 76 5a 21 c1 53 94 0d c1 68 4b dc 40 d1 18 a5 40
       -10.084585 -8.848712 6.884205 5.1592793
000130 77 7b 67 c0 91 79 23 c0 31 aa 93 c0 e2 0d 01 c0
       -3.6169107 -2.5542948 -4.6145253 -2.0164723
000140 25 4c ba c0 6a 2b 57 41 d0 f3 07 c1 ac 9f fa 41
       -5.821795 13.448099 -8.497025 31.327965
000150 20 25 87 c1 8a ad ec c1 0d 06 34 41 52 b2 93 41
       -16.893127 -29.584736 11.251477 18.46207
000160 17 e6 8b 40 3a 5f 6a 41 c4 03 37 41 c2 2b 0a 40
       4.371837 14.648249 11.438419 2.1589208
000170 ee 6e 14 42 0c 94 a3 3f 47 c1 a8 c1 fa bd a5 c1
       37.10833 1.2779555 -21.094374 -20.717762

2.weight f4 [96, 96]
000000 82 4f fc be a8 20 0a bf 26 d3 13 3e 34 03 5b bf
       -0.4927941 -0.5395608 0.14436015 -0.8555176
000010 e2 85 bc bf c1 40 00 be eb 50 5c bf 22 aa ad 3e
       -1.4728358 -0.12524702 -0.8606097 0.33918864
000020 14 ff 1b 3e 97 d7 35 bf 8e a2 3d 3e 77 7c 27 3f
       0.15234023 -0.7103209 0.18519041 0.65424293
000030 9e 29 84 3d bb 18 89 be 0e f7 a1 3d 7c c4 24 3f
       0.0645325 -0.2677668 0.0790845 0.6436231
000040 74 3b 9b be 6e ea 6a bc 2a 81 a6 3e 8e cb 84 3e
       -0.30318797 -0.014338119 0.3252042 0.2593655
000050 2b a4 0f 3e e8 55 a5 3d be 58 a7 3e 5f f5 ee be
       0.14027469 0.08073026 0.32684892 -0.46671578
000060 f9 29 37 3e e1 a4 27 bf 5c 82 1f 3e 16 73 03 bf
       0.17887105 -0.6548596 0.15577072 -0.5134748
000070 52 a8 80 3f f7 1f 2e bf 4e 36 57 be 88 f7 76 3e
       1.0051367 -0.68017524 -0.2101681 0.24117863
000080 89 64 b7 3e 5e b8 bf 3e 8f 5e c6 be 0f f5 4c bc
       0.3581889 0.37445349 -0.38744017 -0.012509598
000090 97 9d 22 3e 29 f0 75 bf f1 97 94 bd 4f f8 06 3f
       0.15880428 -0.9606958 -0.07255543 0.5272264
0000a0 38 16 e8 3e 2d 13 95 3e 58 a1 e2 be 13 30 89 be
       0.45329452 0.29116192 -0.4426372 -0.2679449
0000b0 cf e7 95 3e 57 59 84 3c 5e e2 58 3e 7d 1b 7e bd
       0.29278418 0.016155882 0.21180102 -0.062037934
0000c0 36 1c 77 c0 4e af 19 bf 1d c9 e4 3d fc 7c c8 3e
       -3.8610969 -0.6003312 0.11171172 0.39157856
0000d0 d4 8e ae bf 13 c2 90 3d b7 9c 1b 3d 95 77 3f be
       -1.3637338 0.07068267 0.03799125 -0.1869796
0000e0 59 7b 9b bd ee 86 c5 3d 90 41 1e bd 70 cd c7 be
       -0.07591886 0.096448764 -0.038636744 -0.39023924
0000f0 11 46 10 bf 17 e3 09 3f 8e 9a 3c 3e b7 72 32 bf
       -0.5635691 0.53862137 0.18418333 -0.6970629
000100 ee 29 00 c0 fe 32 fa bd 57 dc 94 3e e7 88 83 bf
       -2.0025592 -0.12216757 0.29074356 -1.0276154
000110 7e be 04 3d 30 f9 a4 be d6 ec 90 3e c4 b8 cc 3e
       0.03240823 -0.32221365 0.2830569 0.39984715
000120 d4 f4 a0 bf c4 b7 d1 3a d8 fd b3 3c 1d b6 42 3d
       -1.2574716 0.0016000201 0.021971628 0.047536958
000130 bb fd 0c 3f 5a ca 10 be 2a cc 09 bd 2d b5 b9 bd
       0.5507466 -0.14139691 -0.03364197 -0.0906776
000140 35 05 cf 3d 0e e4 e2 be 60 e1 c8 bd 55 0b e5 be
       0.10108415 -0.44314617 -0.09808612 -0.44735208
000150 3e 5a ed 3c 7e 9d 00 3f 56 71 2e bf d6 fa 8b be
       0.028973695 0.50240314 -0.68141687 -0.2733981
000160 b8 ff 02 bf 5e 48 18 bf 28 ed 70 be 31 de 91 3f
       -0.51171446 -0.59485424 -0.23527968 1.1395932
000170 29 90 07 be 7d 9f af 3e 85 67 eb be 3d 39 85 bf
       -0.13238586 0.34301367 -0.45977417 -1.0408093
000180 af a7 ce bd e9 e5 44 3d ac 5e 0a be f0 79 2d bd
       -0.10090577 0.048070822 -0.13512677 -0.042352617
000190 b5 c5 45 be c5 e0 0e be 2f 67 31 3d 9a 42 fc 3d
       -0.193137 -0.1395293 0.043311294 0.12317391
0001a0 4a 40 92 bb d1 8d bb bc 76 a9 c8 bd 9e 75 bc 3c
       -0.0044632303 -0.022894772 -0.09797947 0.023005303
0001b0 b6 9d ae bd e0 15 51 bd ba b6 4f be 6c 7d d4 bd
       -0.08526175 -0.051046252 -0.20284548 -0.10375485
0001c0 f5 ec 0e bd 9d 31 d0 bd 33 f5 a2 bd f7 e3 de bc
       -0.03489395 -0.10165713 -0.07956924 -0.027208311
0001d0 29 77 04 bd 12 b7 0d 3d 32 2d f4 bd 71 0b 38 3d
       -0.032340202 0.034598418 -0.11922683 0.044932786
0001e0 5a ab 20 be 14 1e a2 3c 0f 4b 1b be b7 1e b7 bd
       -0.15690365 0.019789733 -0.15165351 -0.08941405
0001f0 3e b0 c7 3d 67 da 82 3d d3 18 13 be ae f7 d4 bd
       0.097504124 0.06389313 -0.14364938 -0.10398804
000200 dd 06 e2 bd 0d 26 ed 3c 26 91 72 bd 5c d4 e0 bd
       -0.11036465 0.028948808 -0.059220456 -0.10978004
000210 0c c7 8d bd 3a 92 5c bd 4a 87 83 3d 78 dc 35 3d
       -0.06922731 -0.05385039 0.06422289 0.04439971
000220 6c c3 9c bd 10 e0 22 be 19 36 17 be 62 4a dd 3c
       -0.07654461 -0.15905786 -0.1476673 0.027013008
000230 7d 54 29 be 14 8c 8b 3d ce 38 f9 bb 01 71 ea bc
       -0.16536136 0.06813827 -0.0076056486 -0.028618338
000240 2f da c7 bd b4 3b b1 3d b3 9b f4 39 e3 b7 bd bd
       -0.09758412 0.086539656 0.00046655312 -0.09263589
000250 fe 86 77 3d 92 95 2b bd a2 15 fd bc 58 b5 f1 bd
       0.060431473 -0.04189069 -0.030894104 -0.11802167
000260 60 12 0d be d9 27 16 be f5 78 bd 3d 4a 19 0a be
       -0.13776541 -0.14663638 0.09251586 -0.1348621
000270 ed 73 da 3b 2b 73 cf 3c b2 89 a2 3d 8f bd ad bd
       0.0066666515 0.025323471 0.079364195 -0.08483421
000280 96 01 8b bd 36 90 eb bd 91 39 24 be 8b 37 f8 3a
       -0.06787412 -0.115021154 -0.16037585 0.0018937452
000290 03 28 fe bd ac c7 14 3d cd 14 a5 3d 4e 9f b7 bd
       -0.124099754 0.036323234 0.08060608 -0.08965932
0002a0 85 05 a6 bd fa d6 88 3c 2e 14 01 3d 3e ee ca bd
       -0.081065215 0.016704071 0.031513385 -0.09908722
0002b0 d4 b8 51 bd c9 09 51 bd 33 e2 c2 3c 46 28 85 bd
       -0.051201656 -0.051034722 0.0237895 -0.06501822
0002c0 c1 41 90 bd 11 c1 90 bd 9d 09 f9 bc b4 08 c6 3c
       -0.070437916 -0.070680745 -0.030400092 0.024174072
0002d0 d3 64 be bd 35 7d 37 3c c8 ba 18 bc 6d 05 64 bd
       -0.092965744 0.011199285 -0.009321876 -0.055669237
0002e0 06 07 77 3d 8e 61 b8 bd 22 a5 32 bd 9d b4 cd bd
       0.060309432 -0.09002982 -0.043614514 -0.10044215
0002f0 b8 52 c5 bc 9d 4b 16 bd f8 52 a4 bc e5 48 13 be
       -0.024087295 -0.036693204 -0.020059094 -0.14383276
000300 0d d0 79 bf 92 8f 9b bc 19 5c c9 bc 1f 18 30 3d
       -0.97583085 -0.018989358 -0.024580048 0.042991754
000310 5d 86 5a c0 68 1d 35 bf 16 a1 58 c0 65 fe 6a be
       -3.414451 -0.70747995 -3.384832 -0.22948606
000320 1f 91 ff be 5e ea 60 be 77 42 89 3d 04 06 a9 bf
       -0.49915406 -0.21964404 0.0670213 -1.3204961
000330 97 dd ca 3e 11 35 ff 3e 78 43 82 be 9a 59 91 bc
       0.39622185 0.49845174 -0.254421 -0.01774292
000340 26 10 93 3e 0c 2b f4 3c 7d a7 02 3e 37 98 8b 3f
       0.28723258 0.029805683 0.12759204 1.0905827
000350 01 3f 0f 3e cf 45 c7 bf 09 79 9f bf c4 69 a6 3c
       0.13988878 -1.5568179 -1.2458812 0.020314105
000360 95 31 6a be 5f c2 05 3f 0a 9f 55 bf c1 9a c3 be
       -0.22870477 0.5224971 -0.834458 -0.38204005
000370 0a db 89 3e 1d 32 f5 be e4 29 ac 3e 1b 22 d2 3e
       0.26924926 -0.47889796 0.3362571 0.41041645
000380 d9 18 8a 3e c5 32 7b be 31 b4 db be b0 ee 27 be
       0.26972082 -0.24531086 -0.42910913 -0.16399646
000390 c8 8b 27 3d 7e 48 09 3f ff 91 c0 be 3f 41 04 bf
       0.04090479 0.5362624 -0.37611386 -0.5166206
0003a0 c1 2c a3 bd f4 77 d1 be be c1 b7 3e 78 98 22 3e
       -0.079675205 -0.4091183 0.3589 0.15878475
0003b0 cb ec 36 be f8 05 42 3e c0 de 7b bf aa 05 13 be
       -0.17863767 0.1894759 -0.98386765 -0.1435763
0003c0 7e 4f 7d be 18 79 63 3f 11 2b e8 3d 44 d0 c2 be
       -0.24737355 0.8885665 0.11336339 -0.3804952
0003d0 e9 e8 bc bf d4 d6 46 3d ed a3 b3 bf 00 0f 1a bf
       -1.4758579 0.04854472 -1.4034401 -0.6017914
0003e0 f4 47 6a 3e 24 8d 85 bf e9 1e b2 be ff 94 ac bf
       0.2287901 -1.0433698 -0.34789208 -1.348297
0003f0 03 83 fa 3e 49 dd a0 3e 7e 14 76 bf 0d d4 cd 3e
       0.4892808 0.31418827 -0.9612502 0.40200844

2.bias f4 [96]
000000 e8 4e 26 41 f1 fa 94 bd 17 ac 84 3f d6 d7 99 40
       10.394264 -0.07274426 1.0365018 4.807597
000010 15 7a 40 be 9c 84 70 bf a8 2b df c1 6a 15 13 40
       -0.1879657 -0.93952346 -27.896317 2.298182
000020 7d ba 39 41 65 49 a8 bd 82 0a 2c 41 7a 77 67 c0
       11.608029 -0.08217124 10.752565 -3.6166673
000030 6a 41 91 c0 7c 51 8d c0 9a 60 92 c1 eb df 62 c1
       -4.539235 -4.416197 -18.297169 -14.179667
000040 10 58 7d bd 22 a3 dc c1 60 b1 15 40 d0 9e 9d c1
       -0.06185156 -27.579655 2.338951 -19.702545
000050 20 7f 5b 3f 25 93 04 be 66 e2 84 3f f3 02 96 c0
       0.8574085 -0.12946756 1.0381591 -4.68786
000060 80 b4 c2 bf fd 44 8a 40 99 2e 02 40 13 dd 87 c1
       -1.5211334 4.3209214 2.034094 -16.982946
000070 ff bb 8f c1 4d d5 27 be ff 4b 43 c0 ff 10 d6 40
       -17.966795 -0.16389962 -3.0515134 6.6895747
000080 e8 7c a0 41 c0 89 b2 3e 80 ad 49 3f f0 44 22 c1
       20.06099 0.3487072 0.78780365 -10.14183
000090 4e a4 5d 40 43 56 3a 3f af bb 9f c0 34 b0 cf bd
       3.4631534 0.72787875 -4.9916606 -0.1014103
0000a0 9b 31 6f c0 76 2d 93 c1 3f e0 53 be e7 ca 19 c1
       -3.7374027 -18.397198 -0.20691012 -9.612037
0000b0 ef 31 c3 40 51 8a 99 c1 da 0e 18 c0 e3 2b 1c c1
       6.0998454 -19.192537 -2.3759065 -9.760715
0000c0 c3 11 6f 41 b3 91 af c1 8f 1b ec c0 6a ce d7 41
       14.941836 -21.946142 -7.378364 26.975788
0000d0 fd 15 1a be f1 f0 e0 40 41 16 cd c0 a1 a5 c9 bd
       -0.1504745 7.029412 -6.4089665 -0.09846044
0000e0 9a 47 61 40 a4 2a 1e 41 31 d2 c5 bf cd e9 59 c1
       3.5199952 9.88541 -1.545477 -13.61958
0000f0 1a 68 e5 40 eb ab 36 41 72 0b 7e 3f b1 1b 5f 41
       7.1689577 11.416972 0.99236214 13.944261
000100 a1 c3 0b c1 0d 1f 9c c0 d1 ea 30 41 16 75 a6 c1
       -8.735261 -4.8787904 11.057328 -20.80717
000110 ad b2 8f bf 7e e1 eb bd 96 10 5d c1 c1 ce e4 bd
       -1.1226403 -0.115176186 -13.816549 -0.11172248
000120 1d 4c 97 40 c7 68 0e c0 7a 38 da c0 36 97 37 c1
       4.728041 -2.225145 -6.819394 -11.474417
000130 c3 21 06 c1 14 9d 82 bd 0d 45 11 c1 b0 24 0d c1
       -8.383243 -0.063776165 -9.079358 -8.821457
000140 9e 90 34 c1 e3 ba 30 be b5 d9 30 bf 5c 98 88 3f
       -11.285307 -0.17258792 -0.69082195 1.0671496
000150 63 c8 d1 c0 7a 44 f4 c1 ca 40 be 3d 53 f1 13 41
       -6.5557113 -30.533436 0.09289701 9.246417
000160 22 fb 4e c1 7f 52 e6 bd 04 1b 70 c0 aa 55 bb c1
       -12.936312 -0.11246204 -3.751649 -23.416828
000170 09 e7 6c c0 78 59 4c 40 7d 5b 8f c1 88 fa 36 be
       -3.7016013 3.1929607 -17.919672 -0.17869008

4.weight f4 [6, 96]
000000 ed 69 b4 b9 1b 36 70 3d ca 72 9c bb 1b d6 60 bb
       -0.00034411196 0.05864535 -0.004774426 -0.0034307304
000010 38 00 88 3c 6a a4 a6 3d 46 c5 32 3d 6f b4 57 bd
       0.016601667 0.08136828 0.043645166 -0.05266231
000020 97 bb 1f bd 94 2e 98 3a 87 7b 90 b9 c2 39 04 3c
       -0.03899726 0.0011610561 -0.00027557855 0.008070411
000030 43 ba 94 3d 8e 5c b9 bc 7a a6 37 3b 8a 27 ef 3d
       0.07262089 -0.022627141 0.0028022812 0.11677463
000040 c3 f3 ae bd e3 34 8b 3d f5 23 b5 bc 6d 57 fa 3d
       -0.085425876 0.06797197 -0.022111872 0.122237064
000050 61 7d 40 bd 8b 82 07 be 1b 04 1f 3d 4b e6 f6 bb
       -0.04699457 -0.13233392 0.038822275 -0.0075347773
000060 f7 6a 98 bc 5f db 31 bc 30 3a 1a bd 11 79 e0 3a
       -0.018605692 -0.010855525 -0.03765315 0.0017125924
000070 96 c8 c0 3b 64 75 a2 bc c0 87 f7 3b 11 54 11 be
       0.0058832867 -0.019831367 0.0075540245 -0.14192225
000080 9b 2d 05 bd 6e cb 49 3d 4a 2f df 3c 01 1d b7 3d
       -0.032514196 0.04926627 0.027244229 0.08941079
000090 26 f1 b5 bb c4 71 7b bd 2b 4a be 3d 62 39 b4 ba
       -0.005552429 -0.061387792 0.0929149 -0.0013750012
0000a0 c1 ef 62 bc 64 39 98 ba 5d 65 b0 3b 9c ad 1c 3d
       -0.013851107 -0.0011613783 0.005383177 0.038251504
0000b0 1c b9 09 3e 80 2a 22 bc 55 86 1b 3c c0 44 e5 3a
       0.1344952 -0.009897828 0.0094924765 0.0017491803
0000c0 3a 2e e2 3a 97 2c b6 3c 93 cb 13 3a 11 bf cc 3d
       0.0017256208 0.022238059 0.000563794 0.099973805
0000d0 03 5a b9 3b 4d b5 1f bd 52 e8 96 bd aa 43 5c bd
       0.005656482 -0.03899126 -0.0736853 -0.053775467
0000e0 bc 38 6a 3e d5 31 a0 3d 0b 9e c7 3c 37 a7 c9 3b
       0.22873205 0.07822005 0.024367353 0.0061539668
0000f0 67 ca af 3a 75 41 4c bb 64 80 a5 bc e2 b8 df bd
       0.0013411761 -0.0031166945 -0.020202823 -0.109239355
000100 bc 13 02 bc 3c 0a 56 bc 47 a5 5e 3d a1 16 fe 3a
       -0.007939275 -0.0130639635 0.05435684 0.0019385406
000110 cc b7 0f 3e 63 b1 6b 3b ab d8 bd b9 75 63 ae 3c
       0.14034957 0.0035963885 -0.0003621032 0.02128766
000120 eb 20 75 3c 86 64 b8 3d d3 d2 6f 3d c3 9d 95 3a
       0.014961462 0.09003548 0.058550667 0.0011414815
000130 88 d8 a8 3d 10 fe 32 3d 21 aa b8 bb 7d 8e 85 3e
       0.08244425 0.043699324 -0.0056355153 0.26085272
000140 ea 9b 78 3b 08 59 57 3d 55 9e 8f 3d 6a cc 05 bd
       0.003793473 0.05257514 0.07012621 -0.032665648
000150 2a 68 3b 3d f8 6b b2 bc 78 05 23 bc bd dd ba 3e
       0.045753635 -0.02178 -0.009950034 0.36497298
000160 2e 9d 29 3e 7f 13 00 3d 0a 32 88 3d bd 4e c5 bb
       0.16563866 0.031268593 0.06650169 -0.006021349
000170 7d 8f a5 3e 64 b0 d5 bd 48 88 5d 3c 03 ef c8 bd
       0.32336035 -0.104340345 0.0135212615 -0.09811213
000180 25 ef 3e bb 5b 41 af bc 10 a3 c0 bb ed 7e 9f bc
       -0.002913424 -0.021393469 -0.0058788136 -0.019469703
000190 75 09 60 bd 80 d5 8f 3e fc 56 be 3d 74 68 9a 3d
       -0.05469652 0.28092575 0.09293935 0.07539454
0001a0 bb 88 44 bd 37 38 84 bc e6 46 8a 3b 94 61 48 3c
       -0.04798196 -0.016140087 0.0042198775 0.012230296
0001b0 ad 93 a6 3d 10 86 1c bd 9e d8 2d 3b c1 fa 83 3d
       0.08133636 -0.03821379 0.002652682 0.06444312
0001c0 9e 53 8d 3c b5 11 a6 3d e7 83 2d bd e8 77 ab 3d
       0.017251786 0.08108846 -0.04236212 0.0837248
0001d0 ef 39 a3 bd 1f 6b 76 3e 1d 06 69 3d 3a c5 aa bb
       -0.07970034 0.24064301 0.056890596 -0.0052114995
0001e0 75 42 8f bd 8e 9b f6 bc 7c b3 7c bd 35 ca 1d bc
       -0.069950975 -0.030103471 -0.061694607 -0.009630729
0001f0 a9 83 9b bc fe 12 af 3d 8c d0 8a 3b 06 27 13 be
       -0.018983679 0.08548544 0.0042362865 -0.14370355
000200 f9 35 3a bd 9d 58 0a 3d b1 8c a4 3c 96 e4 b2 3d
       -0.04546163 0.033775914 0.020086618 0.087350056
000210 44 51 6f bd ad fc 61 bc f2 05 9f 3e b6 bd a9 3d
       -0.05842711 -0.013793153 0.31059223 0.082881376
000220 eb ce ec bc 9b 68 a2 bc 9b b0 ed 3d ad c5 f5 3d
       -0.02890726 -0.01982527 0.116059504 0.12000594
000230 b4 7a b3 3e 64 32 cb 3d cd 0b cc 3b f9 66 05 3c
       0.35054553 0.099217206 0.0062269927 0.008142226
000240 22 65 ce bc ba d3 6f 3d 61 9d 93 3d 19 02 eb 3d
       -0.025194708 0.058551528 0.07207752 0.114750095
000250 2a d8 66 3c c5 5d 1e bd 7a f8 60 be 7f fb 8f bd
       0.0140896235 -0.038663644 -0.21969786 -0.07030391
000260 e7 f3 2c 3e 97 1f 57 3e dc c3 3a 3d 05 7f 01 bc
       0.16889916 0.21008144 0.045596942 -0.007903819
000270 8b 8d 8c bc cc 64 07 3d 51 aa 85 3d 3b 74 c9 bd
       -0.017157337 0.03305511 0.06526626 -0.09836622
000280 90 df 8c bc 5b 64 ba 3d 7b 05 84 3e dd 81 3d 3c
       -0.017196447 0.091011725 0.2578543 0.011566606
000290 86 06 53 bd e6 44 98 3b 1e f6 fe bc 4b 10 c1 3d
       -0.051519893 0.004646885 -0.031123217 0.09426936
0002a0 c1 2d f2 3c a1 d3 7f 3e 18 e5 82 3d db bb e9 bb
       0.029562833 0.24983074 0.063913524 -0.00713299
0002b0 3a 3b a0 3d 34 5e a3 3d 77 6e 62 bb 1d 0e e4 3d
       0.078237966 0.07976952 -0.0034550705 0.111355044
0002c0 c2 ca 9e ba db 1d 9c 3d f5 68 95 3d 46 90 8c be
       -0.001211487 0.07622882 0.072954096 -0.27453822
0002d0 f1 3a a1 3d be 73 1d 3b 36 28 50 3c d3 22 54 3f
       0.0787257 0.0024025287 0.0127049 0.8286564
0002e0 f3 29 68 3d 3a b7 1e bd 8f 71 4b 3d 04 cf 6c 3b
       0.05668063 -0.038748957 0.049668845 0.0036134133
0002f0 25 0f 36 3e 20 1b b8 bd 25 d7 90 3d 52 ba 41 bc
       0.17779215 -0.08989549 0.070722856 -0.011824207
000300 3c 9e 0c bc f2 e9 8a bd 00 68 45 38 9a 8d b7 bc
       -0.008582648 -0.06782903 4.7065318e-05 -0.022406388
000310 c3 46 45 bd f4 cc 14 3e c4 ec 46 3e d7 c2 7f 3d
       -0.048163187 0.14531308 0.19426256 0.062441673
000320 3e 9d 3c bd 04 47 2d bd 92 ab 7f 3d b6 8f fe bc
       -0.046048395 -0.042304054 0.06241948 -0.031074386
000330 2b e1 b0 3c c4 da 9d bd 87 98 4d bc 45 1a 2c 3c
       0.021591743 -0.07707742 -0.012548572 0.01050431
000340 0e 17 0c ba 9d c1 05 3e 92 8c 82 bd 1e b1 fd 3c
       -0.00053440116 0.13062139 -0.06374468 0.030968245
000350 e5 cc ba bd 2e ab 96 3d 20 da 81 3d cc 4f 86 3c
       -0.09121112 0.07356869 0.06340432 0.016395472
000360 a0 0f 2a be db df 60 bd 59 09 02 be 1a 1b 3a 3d
       -0.16607523 -0.054900985 -0.12698878 0.045436002
000370 08 bb 47 bd fd bb 11 bd 16 fb 5a bc ea 72 0e be
       -0.04876235 -0.03557967 -0.013365528 -0.13911024
000380 52 d9 46 bd cf 4f b4 bd 3f b3 02 bc 6c 6d 47 3d
       -0.048547097 -0.08804285 -0.007977306 0.048688337
000390 29 a4 6c bc 4d 03 5a 3d c0 a7 11 3f 9d 30 d2 bc
       -0.014443436 0.053225804 0.5689659 -0.025657946
0003a0 55 7f 82 bd 4e 0b 04 be 1f 94 41 3d 1d 86 a8 3e
       -0.06371943 -0.12894937 0.0472604 0.3291482
0003b0 19 21 72 3e c7 e5 e9 bc fa bb 69 bd f7 ec 48 3c
       0.23645438 -0.02855195 -0.057064034 0.012263528
0003c0 a8 ed fb 3b 76 fd 87 3d 25 8d 69 3d 36 42 11 3e
       0.007688243 0.06640141 0.05701937 0.14185414
0003d0 cd e0 2b 3d a0 3f fa bc 51 a0 8a be 20 94 86 3d
       0.041962434 -0.030547917 -0.27075437 0.06571221
0003e0 97 e9 bc 3d 13 a4 91 3e b5 59 a8 3c 1e 50 df bb
       0.09224241 0.2844549 0.020550588 -0.0068149706
0003f0 35 a8 73 3c 1c ee c5 3d 4e 95 34 3e 74 c3 34 bd
       0.014871647 0.096645564 0.1763508 -0.04413171

4.bias f4 [6]
000000 88 c5 26 3d 11 c4 0a 3e e5 36 a1 3e f8 72 d2 3e
       0.040715724 0.13551356 0.31487194 0.4110334
000010 49 b7 2b 3f 39 aa 3e 3f
       0.67076546 0.7447849
