models/FF_with_station/FF_with_station_depth3_width48_batch106.pth (torch, 38776 bytes, 10 tensors)

0.weight f4 [48, 26]
000000 46 8f 64 c0 ab 1b 84 40 c1 95 e3 3e 82 25 f7 3e
       -3.5712447 4.1283774 0.4445019 0.48270804
000010 7d 35 4e 3e 45 0f 07 3e 71 1e 99 bd 89 b2 21 3f
       0.20137592 0.13189419 -0.07476509 0.6316305
000020 52 6f ea 3b 00 5c 9a bd ee 2b 67 3e a0 61 2c be
       0.0071543837 -0.07537079 0.22575352 -0.16834116
000030 48 22 b2 be cb aa e6 be 6e b7 92 3d 65 9d 27 3f
       -0.3479178 -0.4505218 0.07163893 0.6547454
000040 93 d8 aa 3e 35 4d 95 bf b3 98 d5 be 3f ac 47 3f
       0.33368358 -1.1664187 -0.41718063 0.779972
000050 fe 2b 18 3f e8 d2 1f be 5d 75 47 bf b3 b0 a9 bf
       0.59442127 -0.15607798 -0.7791346 -1.3257049
000060 79 e1 f3 bf 89 c7 c9 3e 70 65 44 41 44 36 8a c1
       -1.9053184 0.39410046 12.274765 -17.276497
000070 c1 fd 93 be 4f db 1c bc 5b ed 1f 3d 29 5a 02 bd
       -0.28904536 -0.009573772 0.03904472 -0.031824265
000080 08 fd 67 bd 0b cb 05 be 2e b8 d4 3e 50 b2 7a 3e
       -0.056637794 -0.13065736 0.41546768 0.24482083
000090 c9 b0 bc 3e e7 e2 0f 3f ec c4 1a 3e 35 d9 24 bf
       0.36853626 0.562056 0.15114182 -0.6439393
0000a0 d4 49 22 c0 3c 29 97 c0 d4 0d fd bf 43 a4 88 be
       -2.535756 -4.7237835 -1.9769845 -0.26687822
0000b0 08 6f 1f bf e3 b6 24 3f dd 5e 9f 3f 76 eb 92 3e
       -0.62278795 0.64341563 1.2450825 0.28695267
0000c0 40 27 63 bf 4b 6c 22 be fe b0 8f 3e 4e c3 af 3e
       -0.88731766 -0.15861623 0.28064722 0.34328693
0000d0 53 92 fb c0 15 e4 18 c1 ce ed 0a be 8e ac 26 3e
       -7.861612 -9.555684 -0.13567278 0.16276762
0000e0 dd 16 f1 bd 52 d8 cc bc ba bb bb 3e 3a c8 13 3f
       -0.11771939 -0.025005493 0.36666662 0.57727396
0000f0 76 c9 c9 3d a1 00 17 3e 4b 77 95 bd fc a9 e0 be
       0.09852879 0.14746334 -0.07298144 -0.43879688
000100 d7 dc 39 c0 f2 71 8a c0 8a 75 9d bf 90 bc 13 3d
       -2.904104 -4.3264093 -1.2301495 0.0360685
000110 0d 18 2e 3b 8a fd e1 3e 42 cb 70 3f 47 67 20 3f
       0.0026564628 0.44138747 0.94060147 0.6265759
000120 85 62 71 bf 9b 77 12 bf b4 49 9b bc a7 dd 2a 3e
       -0.94290954 -0.57213753 -0.018956043 0.16686116
000130 b7 0a 2b be bd 70 f4 3e a4 a2 a5 c0 f2 76 90 bf
       -0.16703306 0.47742262 -5.1761036 -1.1286299
000140 36 b9 2c 3e 66 1e 1a 3e 96 cd 8d bd ed 03 31 3f
       0.16867527 0.15050659 -0.06923978 0.69146615
000150 f2 a0 51 be 50 c2 a0 bd 5c de 06 3d 2c 11 1e 3d
       -0.20471552 -0.07849562 0.032926902 0.038590595
000160 a2 ee 2e bf 6d 38 43 bf b3 e6 af be 39 e4 72 bf
       -0.68332875 -0.76257974 -0.34355697 -0.9487949
000170 bd 22 26 bf 73 fd f3 3e 93 8c 82 3f d7 92 be bf
       -0.64896756 0.47654304 1.019915 -1.4888562
000180 52 9b 08 bf 6d 66 df bd 3b a2 71 3e 8f 41 89 be
       -0.53362 -0.10908208 0.23597042 -0.2680783
000190 48 25 77 3e 84 85 03 3e 10 21 40 be 21 e9 cf 3e
       0.24135315 0.12843901 -0.18762612 0.4060755
0001a0 1b 45 79 3e 70 b8 30 c1 e5 1b 81 3e 83 0b 66 bd
       0.24342768 -11.045029 0.25216594 -0.056163322
0001b0 9e 19 bc bd 8c f0 a3 bd 8b b7 2e bd cd bb a1 bd
       -0.091845736 -0.08004865 -0.04265551 -0.07897148
0001c0 da 65 2c be c3 8b 01 be d9 f3 37 3e dc 04 d3 3e
       -0.16835728 -0.12650971 0.17964114 0.41214645
0001d0 34 3c c6 3e 67 d4 a5 be 7e b6 21 bf b1 39 5e 3e
       0.38717806 -0.32388613 -0.63169086 0.21701695
0001e0 e2 64 66 3f fc 0f 4e 3e 6a 15 05 bf 80 fd be bf
       0.89997685 0.20123285 -0.519858 -1.4921112
0001f0 13 b9 c2 bf a7 d4 8b bf c0 cd 85 3e 54 fd 40 be
       -1.521273 -1.0924271 0.26133537 -0.18846637
000200 a6 2a 00 bf c4 c3 a7 3f 52 a9 2e c0 1f 61 42 c1
       -0.50065076 1.3106618 -2.7290845 -12.148711
000210 06 d0 10 bf 18 73 03 3f 60 38 7d 3f 91 69 15 bf
       -0.5656742 0.51347494 0.98914146 -0.58364207
000220 0d 81 04 c0 12 fa 1e bf 60 54 38 bb ce 0c 57 be
       -2.0703766 -0.62100327 -0.0028126463 -0.21000978
000230 58 f0 a2 bc 02 72 38 3e 61 fc 90 3e 2e e4 0a 3f
       -0.019889995 0.1801224 0.2831755 0.54254425
000240 d7 fd 8f 3e 8c ed b0 3d 09 5d f6 bd b0 da eb bd
       0.28123352 0.086390585 -0.12029464 -0.11516321
000250 f1 bd 33 bd a5 67 ea 3d 7e da 03 3c 46 55 aa 3c
       -0.043882314 0.1144555 0.008047698 0.020792615
000260 0a 6c 6d 3d 40 0b 56 3e c1 24 c8 bd fa 45 db 3d
       0.057964362 0.20902729 -0.09772635 0.10706706
000270 1a f0 48 3e 92 59 a6 bd c3 81 b8 3e 64 1c 4f 3f
       0.19622841 -0.08122553 0.360365 0.80902696
000280 21 37 54 3f dd 57 a8 3d dc b7 6e be a0 1a 1a 3d
       0.8289662 0.082198836 -0.23312324 0.037623048
000290 93 e8 a8 3c ac bd 9b bc c8 ab 83 3d 5f 68 3e 3d
       0.020618713 -0.019011341 0.06429249 0.046486255
0002a0 e6 ae 40 3d e7 87 a1 bb 69 fa 73 3c cf ff f2 bb
       0.047041796 -0.004929531 0.014891245 -0.0074157487
0002b0 b1 72 41 bd 8c b4 2c 3d 26 51 8d bd f9 9c 63 bc
       -0.04722852 0.04216437 -0.069002435 -0.013892406
0002c0 0b 2d 84 bd 36 48 01 3e 23 55 b8 3d 84 30 11 3e
       -0.06453904 0.12625203 0.090006135 0.14178663
0002d0 d9 fb 44 3c a7 45 90 3f 98 69 a1 c0 0f c3 f7 40
       0.012022936 1.1271256 -5.04414 7.742561
0002e0 3c 62 69 3f fd f1 8a 3e a8 a3 4c be 77 2b 99 3c
       0.9116552 0.27137747 -0.19984305 0.018697483
0002f0 dc 2c cd be 0e c9 92 bd 45 48 1d 3f 9e 74 fe 3e
       -0.40073287 -0.071672544 0.614384 0.49698347
000300 e3 ac 61 3e 14 b1 e3 3c ba 55 37 bf 3c e5 47 bf
       0.22038607 0.027794398 -0.71615183 -0.7808416
000310 85 e5 c1 be 65 a5 98 3e 64 21 2b 3f ad 26 5b 3f
       -0.37870422 0.29813686 0.66847825 0.8560589
000320 ae 82 cc be e9 42 84 bf 5d a3 22 bf 31 c1 80 3e
       -0.3994345 -1.0332919 -0.6353052 0.25147393
000330 a9 13 9b 3d ef 5e c5 3d 25 1c 02 3e 75 94 42 bf
       0.07572109 0.09637248 0.12706049 -0.7600778
000340 88 28 d2 bf 08 f3 e5 c0 6d 2c 20 c0 c9 a2 ba bf
       -1.6418619 -7.185917 -2.5027115 -1.4580928
000350 13 ea 8d 3c 9c 22 6c 3f fe ae 1c bf 86 61 ff 3e
       0.01732353 0.9224031 -0.61204517 0.49879092
000360 6f d5 22 3e 31 ad eb 3d 91 4d 3f 3d 81 1b 85 3c
       0.15901731 0.11507643 0.046704832 0.016248466
000370 ae fe 6f bd d5 e6 ba bd 28 08 f1 3d 30 d8 05 be
       -0.05859249 -0.09126059 0.11769134 -0.1307075
000380 f6 75 37 be 41 25 09 3e d6 ee a1 be 83 8c fd bc
       -0.17916092 0.13393117 -0.3162753 -0.03095079
000390 25 40 3b 3e fb 9e 29 3e 75 0f dd 3e 04 70 c7 3e
       0.18286188 0.16564552 0.43175855 0.3895265
0003a0 b3 40 27 3e 4a cb 82 3f db c2 7c 40 ac b0 33 c1
       0.16333275 1.0218289 3.949393 -11.230633
0003b0 9e 60 8d 3e 4c 2b 3e be 8e 7b 14 bf 23 43 d5 3e
       0.27612776 -0.18571204 -0.5800103 0.41652784
0003c0 3a b2 74 3f 98 42 60 be c4 e0 fa 3d 78 5e 72 3e
       0.9558445 -0.21900403 0.12249902 0.2366885
0003d0 fc 05 12 be f2 28 bc bd 21 22 18 be c6 7a de bd
       -0.14260095 -0.09187497 -0.14856769 -0.10863261
0003e0 2c e5 7a be 86 7b 4e bc b9 9a 4e be 90 06 05 3d
       -0.24501485 -0.0126026925 -0.2017621 0.03247696
0003f0 a9 b8 dd 3d c6 8d d2 bd 4b f4 30 3d 74 28 81 3d
       0.10826237 -0.102809474 0.043201726 0.06306544

0.bias f4 [48]
000000 ba 27 da 40 c8 b9 b9 c1 05 d2 0f c2 56 14 71 c1
       6.8173494 -23.215714 -35.955097 -15.067465
000010 fa 37 d9 c1 ef cc 29 c1 fe 0a fd 3f 0e 02 e0 40
       -27.152332 -10.612533 1.976898 7.000251
000020 77 29 4a 41 25 3a a1 c0 a4 b9 d1 c0 54 81 5b 40
       12.635123 -5.0383477 -6.553911 3.4297686
000030 32 80 84 40 59 bf a9 41 bf 14 f8 3f 83 66 a1 40
       4.140649 21.218431 1.9381331 5.0437636
000040 83 55 47 c1 16 4b f3 bf db f0 18 c0 f4 52 d3 bf
       -12.458377 -1.900729 -2.3897007 -1.650969
000050 0d 79 90 40 89 8f a7 c1 10 3a 4e c0 69 e4 9b 40
       4.5147767 -20.945086 -3.2222939 4.871632
000060 d7 dd 36 40 35 99 1b 41 72 03 99 41 fb f5 4a 41
       2.85729 9.724904 19.126682 12.685054
000070 b1 5a 3d 40 02 5a 74 41 87 31 d0 3f 5a 8c 45 bf
       2.9586604 15.271975 1.6265115 -0.77167284
000080 72 15 84 41 51 e0 4d 40 ba 99 b0 40 58 28 22 41
       16.510471 3.2168162 5.5187654 10.13485
000090 08 90 81 c1 70 9a 4d 40 08 8f 33 41 4a 03 c8 c0
       -16.195328 3.212551 11.22242 -6.2504015
0000a0 20 54 77 c1 c1 42 98 40 2b 5b d7 be db 31 89 c0
       -15.458038 4.7581487 -0.42061743 -4.287336
0000b0 4d ca bb 40 b2 dc 70 41 32 65 85 c1 9e 45 c3 c0
       5.868445 15.053881 -16.674412 -6.102248

2.weight f4 [48, 48]
000000 32 fc 54 bd 69 f6 9f 3d 35 74 1b be 9a ab 9e bd
       -0.051998325 0.07810671 -0.15181048 -0.07747574
000010 c6 4d ed bd 6c d6 ed bd 2a 17 be bd b9 a8 1a be
       -0.115871 -0.11613163 -0.09281762 -0.15103425
000020 61 c7 d8 bd 0e de eb bd a9 e1 a0 bd 5f b2 7a bd
       -0.105849035 -0.11516963 -0.07855541 -0.061205264
000030 55 5f bf 3c 91 16 8f bd a6 7b c4 3b 92 e5 1b be
       0.023360888 -0.06986726 0.0059961854 -0.15224293
000040 b9 09 ea bd e8 64 48 3c 9b 75 a0 3c 49 27 d3 3d
       -0.11427636 0.012231089 0.019587329 0.103102274
000050 8f e8 b8 bd 2d eb b6 3d db 2f 40 be 1c df 1e be
       -0.09028732 0.08931575 -0.18768255 -0.15514797
000060 d2 d2 62 bd 5c 89 f6 bc 69 b3 f3 bd e5 ed 85 bd
       -0.055376835 -0.030094795 -0.11899454 -0.065395154
000070 7e 5d 90 3d f5 b9 93 3d f9 74 16 bc 2e 55 5e 3c
       0.07049082 0.07213203 -0.009183162 0.013570113
000080 07 5e eb bc 11 a8 6b 3d 9c 7c a5 3c 3f 7c d6 bd
       -0.02873136 0.057533327 0.02020102 -0.10472917
000090 45 be 06 be a7 e0 ad 3d b0 c5 73 bd 8b 1c 0e be
       -0.1315852 0.08490115 -0.0595147 -0.13878076
0000a0 a4 e5 22 be 04 cc a8 3d b6 48 66 3c 6c fb 3b be
       -0.15907913 0.08242038 0.014055422 -0.18357629
0000b0 27 9a 8e 3d 6b b3 2a be 09 06 bb bd 2c 52 39 be
       0.06962996 -0.16670005 -0.091320105 -0.18097752
0000c0 2f 80 eb be f9 ff 36 bc 4c 99 3f be 15 43 f6 3e
       -0.45996234 -0.011169427 -0.18710822 0.48098055
0000d0 67 da 6b be cb 31 88 bf 6b b5 80 bc d7 fc 40 3e
       -0.23032533 -1.0640196 -0.015711507 0.18846451
0000e0 50 ac b0 be c4 03 e7 bd 2c 11 5a be 90 a2 9e bf
       -0.34506464 -0.11280015 -0.21295613 -1.239336
0000f0 a5 5d 08 bf d0 b1 3d 3e 9b f7 69 be ba f2 a6 be
       -0.5326789 0.18524861 -0.2284836 -0.3260706
000100 25 77 00 bf 89 0b be bc 39 8f 3a 3f 6d 91 3b 3f
       -0.501818 -0.02319886 0.7287479 0.7326878
000110 b3 ca 84 3e 38 64 9c bf d5 b8 aa 3f 30 9e ae bd
       0.25935897 -1.2218084 1.3337656 -0.085262656
000120 e1 1d b1 bf 64 7b ea be 6d 39 1e bf b8 20 1d bf
       -1.3837243 -0.45797265 -0.61806375 -0.6137805
000130 c1 3f 23 3d 70 95 f6 be 6e 75 fc bc 52 ba 71 bf
       0.039855722 -0.48160887 -0.030817714 -0.9442493
000140 33 99 70 3e 72 40 db 3d a9 d7 b8 bf b1 30 43 3f
       0.23495941 0.10705651 -1.4440814 0.7624617
000150 3e fe 35 bf 86 04 0b 3e 4c 28 e2 bf 32 3e f7 3e
       -0.7109107 0.13575944 -1.7668548 0.4828964
000160 fb 2a 0f bf 92 55 b2 3c 05 ce 49 3e f5 fa eb 3d
       -0.5592496 0.021769319 0.19707496 0.11522476
000170 83 9e cd bd e8 c8 88 3e e0 0b 3f bf 67 00 83 bf
       -0.10039999 0.2671578 -0.74627495 -1.0234498
000180 ee 1c 39 be b7 60 f6 bd e3 73 93 3e 8a 27 c1 3e
       -0.18077442 -0.12030166 0.28799352 0.37725478
000190 f3 52 15 bf 3f f1 cb be 59 1a a4 3e 06 f4 c5 3d
       -0.58329695 -0.39832494 0.32051352 0.096656844
0001a0 e8 78 ef be 16 f7 a6 3e 47 08 cd 3e ec ef 04 c0
       -0.46771932 0.32610387 0.40045378 -2.0771437
0001b0 d4 ec d1 be 9a 9f 10 bf 16 cf 8d bd 3f 1b 4b 3e
       -0.41000998 -0.5649353 -0.06924264 0.19834612
0001c0 83 b8 7e be 9d 42 71 be 7e 89 93 3d fe 6f b6 be
       -0.24875073 -0.23560567 0.07203959 -0.35632318
0001d0 85 27 07 be 4f 20 0d be 91 3e 9e be b4 a1 6c be
       -0.13198669 -0.13781856 -0.3090711 -0.2310856
0001e0 55 16 61 bd 2b 73 01 3e d8 27 83 be 85 24 cc 3e
       -0.054952938 0.1264159 -0.25616336 0.39871612
0001f0 60 d0 97 be 88 1e a8 3e 94 fa e8 bd ad 0e 13 bf
       -0.29651165 0.32835793 -0.11375919 -0.5744427
000200 3e 03 aa bd 1c 91 00 3f a9 6c 6f be 2b c5 4d be
       -0.083014 0.5022142 -0.23381294 -0.20094745
000210 3c 42 ee be f3 8d ed 3d 89 99 9a 3e ab b3 f8 3d
       -0.46534908 0.1159934 0.30195263 0.12143644
000220 87 83 cc 3e 34 32 64 3e 1d d1 95 bf cb 5f 9b 3e
       0.39944097 0.22284776 -1.1704441 0.30346522
000230 0a 62 e8 bd 79 fd 95 3c 64 33 99 be e5 70 27 bf
       -0.113468245 0.018309342 -0.2992202 -0.6540664
000240 5f e2 85 3c 2a eb 21 be 8c 09 a0 bd 2d 8a 03 3c
       0.016343294 -0.15812364 -0.07814321 0.008028549
000250 ed 84 12 be 29 11 11 be 27 bb 43 bd ca cb 08 be
       -0.1430852 -0.14166702 -0.047785904 -0.1335899
000260 8d ed 9a bd 11 ab 14 bd d2 22 07 be 84 ca 83 bd
       -0.075648405 -0.036295954 -0.13196877 -0.06435111
000270 9a fa 3f be 46 72 c1 3d 92 94 18 be 9c b0 96 bd
       -0.1874794 0.09445624 -0.14900425 -0.07357904
000280 ea 86 33 bd 37 a6 dd bb 78 e1 25 bd cd bc b9 3c
       -0.043829836 -0.006764199 -0.040498227 0.022673035
000290 ce 13 2e be 13 7b e4 bd 35 ef 2d be fa 6a ef bd
       -0.16999742 -0.11156287 -0.16985781 -0.11690326
0002a0 29 dc 33 3d ab 4f 80 3d 68 60 2d be 48 82 45 bd
       0.043911133 0.062651955 -0.16931307 -0.04821995
0002b0 ac c4 f4 3d b5 e7 dc 3b e4 3d 59 3d eb ce 55 bd
       0.11951575 0.006741489 0.05303754 -0.052199285
0002c0 61 91 27 be 25 d4 45 be 4c 33 87 3d 7c ac b3 bd
       -0.16364051 -0.19319208 0.06601581 -0.08773133
0002d0 f6 75 5c 3d 3b e4 dc bc b8 19 34 be 56 3e 9a 3d
       0.053823434 -0.026964298 -0.17587936 0.07531421
0002e0 ab 3c 84 3d 86 38 7c 3d 68 5d 17 be d7 ae ea bd
       0.06456884 0.061577342 -0.14781725 -0.11459129
0002f0 e5 65 b7 bd 61 24 80 bd 63 e1 dd 3d d2 e1 ba 3d
       -0.08954982 -0.06256939 0.10834005 0.09125103
000300 db 51 3b 3f 6e 03 c7 3f 8c 20 72 3f ae 81 46 3f
       0.73171777 1.5547922 0.9458091 0.77541625
000310 98 9f 96 bf d6 53 a9 3e be 78 a0 3c a3 89 a4 bf
       -1.1767454 0.33071774 0.019588824 -1.2854503
000320 44 4c 1b bd d5 c3 ff 3d b5 76 1b be a4 82 23 3f
       -0.03791453 0.12488524 -0.15182002 0.63871217
000330 f4 62 cb 3e 76 fa f7 3c 21 8f 3d 3e 88 36 e1 3e
       0.39723933 0.030270796 0.1851163 0.43986917
000340 3a df 09 bf cf cd 28 be 25 ff f2 3b b9 30 88 3e
       -0.5385624 -0.1648476 0.0074156695 0.26599672
000350 9a bc a2 bf 8c 2a 89 bf 08 12 15 bf 8e c3 68 bf
       -1.2713807 -1.0716109 -0.5823064 -0.9092339
000360 60 e2 24 bc 4f a4 ae bf f6 c5 3d 3f 53 39 62 3e
       -0.010063738 -1.3643893 0.7413019 0.2209218
000370 7e e4 09 3f 8e ee 71 bf b2 db 30 be bb cf f4 be
       0.53864276 -0.9450463 -0.17271307 -0.47814736
000380 23 53 50 be 57 76 cb be 30 64 43 be ae 36 4d bf
       -0.20344214 -0.39738724 -0.19081187 -0.8016156
000390 46 16 e4 3e ed 96 93 bf 33 2d 62 3e 5e ae 5e 3d
       0.44548243 -1.1530434 0.22087555 0.05436551
0003a0 26 7d 42 bf 00 08 33 3f 30 25 00 3e 31 a2 83 be
       -0.7597221 0.6993408 0.12514186 -0.2570968
0003b0 e4 e7 16 bf 49 d6 7b 3e 22 ae 0b 3f 55 82 32 bf
       -0.58947587 0.24593462 0.5456258 -0.6973012
0003c0 17 ab c9 3d cd 10 d2 3d 86 01 a1 3e 50 3d 1a be
       0.09847086 0.10257111 0.31446475 -0.15062451
0003d0 b4 e7 83 be a0 10 33 bf 02 7a d5 be d1 7c 76 3d
       -0.25762713 -0.6994724 -0.41694647 0.060177628
0003e0 f3 47 03 bf 5e d3 e5 3e 2a 2b df be bf 54 c3 3e
       -0.5128166 0.44887823 -0.4358762 0.38150594
0003f0 56 9d 9c 3e 98 c7 74 be 26 53 66 3e 05 5b 8e 3e
       0.30588788 -0.23904264 0.22492656 0.27803817

2.bias f4 [48]
000000 19 32 c6 bd 4f 46 59 40 d9 4e 8b c0 bc bc 1b 3d
       -0.09677524 3.3949163 -4.353375 0.038021788
000010 b9 eb b0 c1 87 74 b8 c0 89 af cc c0 0d a1 87 41
       -22.115099 -5.7642245 -6.3964276 16.953638
000020 6b 53 63 41 15 d2 04 c1 74 c6 a8 c0 6f aa 50 be
       14.207866 -8.30129 -5.274225 -0.20377515
000030 00 a1 03 c1 6c 79 8a be d6 96 29 41 34 31 7b c0
       -8.226807 -0.27045763 10.599325 -3.9248781
000040 a1 66 6e 41 3c fa 11 41 dd 26 75 c1 63 63 e3 40
       14.900056 9.123592 -15.321988 7.105882
000050 d8 8a 53 be 61 aa 52 c0 ba 25 ac c0 8c e9 01 c1
       -0.20658433 -3.291649 -5.3796053 -8.119518
000060 3f 9b f2 c0 3a b8 00 c1 95 4d 68 41 a6 19 a9 41
       -7.581451 -8.044977 14.518941 21.137524
000070 2c 25 df 40 f3 e9 f6 40 48 a6 6b c0 58 d6 2d c0
       6.9732876 7.7160583 -3.682024 -2.7162075
000080 fa a1 16 c1 da 3d 52 bf eb 1b 30 c1 36 a7 5c 41
       -9.414545 -0.8212563 -11.006816 13.790823
000090 b8 3b 46 41 12 9c 28 c1 c2 e6 97 c1 57 f7 e5 40
       12.38958 -10.538103 -18.987675 7.186443
0000a0 11 d7 69 c1 64 6e 59 c0 01 ff cb bf 71 3f 2e c0
       -14.615006 -3.3973627 -1.5937196 -2.7226222
0000b0 49 07 e9 c0 80 30 bb c0 8b aa c3 bf e0 40 19 bf
       -7.2821393 -5.8496704 -1.528642 -0.59864616

4.weight f4 [48, 48]
000000 e9 76 90 3d d7 5b de bb 1d e4 36 3e 32 2d d6 bc
       0.0705393 -0.0067858505 0.17860456 -0.026144598
000010 b7 d9 dc 3e 72 84 c7 bd 0b 78 2f 3e a1 d7 e8 3d
       0.43134853 -0.09742059 0.17135637 0.11369253
000020 7e 44 08 3d d1 79 f3 bd af f9 84 3e 8c a1 1b be
       0.033268444 -0.11888469 0.25971743 -0.15198344
000030 4e cc bf bd 17 30 86 be 97 c9 09 3e 1d 32 2a 3e
       -0.0936514 -0.26208565 0.13455807 0.16620679
000040 d5 12 d5 bd 41 0a 3d 3c 12 56 a9 3d 09 a4 18 3f
       -0.104039825 0.011538089 0.0826837 0.596253
000050 29 c0 1a bd 19 9a b6 3d b1 54 45 3c 66 7c 7c 3e
       -0.037780914 0.089161105 0.012044118 0.24656829
000060 8c 2e 37 3e e2 7d 1c bd b7 08 43 3c 1f 9e c7 bd
       0.1788885 -0.03820599 0.011903933 -0.09746956
000070 47 b0 ae 3e ee 4b ac bd 28 27 b8 bd 3e c5 ba bd
       0.34118864 -0.0841292 -0.089918435 -0.09119652
000080 e5 8a 9b 3e 00 bd fb bb 9c ba 00 3d dd 46 5c bd
       0.30379406 -0.0076824427 0.031427965 -0.053778518
000090 d3 37 c5 bc f2 e9 ad bd 0b 7e 1a 3e 29 6f b8 3e
       -0.02407447 -0.08491887 0.15087144 0.36022308
0000a0 d3 34 14 be a2 cf 2b bd 50 af cd bd c8 18 bc bd
       -0.14473276 -0.04194606 -0.10043204 -0.09184414
0000b0 32 5e b0 bd d7 a5 a8 3d 07 5d 22 3e d7 6d 8a bd
       -0.08611716 0.082347564 0.158558 -0.067592315
0000c0 62 dd 17 be dd fe eb be 7e 0d ac 3c ce 70 58 bd
       -0.14830545 -0.46092883 0.021002527 -0.052841954
0000d0 4b 82 9e 3e 94 f4 bc 3e 43 6e a5 3e 83 ef 4c 3e
       0.3095878 0.36905348 0.32310686 0.20013241
0000e0 21 5f 31 3e 13 32 90 3d d2 ae a4 be 24 65 29 3e
       0.17321445 0.07040801 -0.32164627 0.16542488
0000f0 7a 54 ad be 03 60 c2 3e 90 69 0b 3f 07 ae 0e bf
       -0.33853513 0.37963876 0.5445795 -0.55734295
000100 f0 57 aa be 96 19 7b bd e8 14 b9 3d ae 19 40 3e
       -0.33270216 -0.061303698 0.09037191 0.18759796
000110 bf 99 88 3c 07 c5 d6 be d0 3c 6e bd 7f 9b bf 3e
       0.016674874 -0.41947195 -0.058163464 0.37423322
000120 29 cf 0c 3f 14 f2 0c be 22 9d 46 3e b4 f8 63 3e
       0.550036 -0.1376422 0.19395879 0.22262841
000130 14 29 14 bf 4d 88 48 bc 33 78 a0 be 9e ed 72 3d
       -0.5787518 -0.012239528 -0.31341705 0.05930864
000140 80 46 c1 3d 7a d8 cd 3d 0e 0f 62 be a9 01 b0 bb
       0.09437275 0.10051055 -0.22076055 -0.0053712917
000150 00 5f 65 bf 4d a3 95 bd 97 5b 11 3e 3c 9d 00 3f
       -0.89598083 -0.07306538 0.14195095 0.5023992
000160 4d 58 1a 3e 1f 63 a0 3e 5f d1 92 be 55 7c e9 bd
       0.15072747 0.31325623 -0.28675362 -0.114006676
000170 3c dc 6d be 02 7c 8b be 39 3a 63 3e 32 09 d3 3e
       -0.23228544 -0.27243048 0.22190179 0.41217953
000180 0c 93 c0 bd b4 9a 15 bf c7 97 3e 3e 33 99 e2 3d
       -0.09403047 -0.58439183 0.18612586 0.11064377
000190 54 6d ad 3e db dd f0 bd 0f ec d3 3e da ca cb 3d
       0.33872473 -0.117610656 0.41391036 0.099508
0001a0 34 5a 35 be 6e 4f d1 be 71 58 57 be 95 e6 fb bd
       -0.17710191 -0.40880913 -0.21029831 -0.122998394
0001b0 ac 4b 2d bf 7f ff ab be a6 84 1c 3f 42 77 bb be
       -0.6769359 -0.33593366 0.61139905 -0.36614424
0001c0 51 11 5e be 83 b1 af 3e 63 b0 bf 3d bf f0 69 3e
       -0.21686293 0.34315118 0.09359815 0.22845744
0001d0 72 2b b2 bd 06 8a 82 be 05 a1 42 be 09 cc 46 3e
       -0.08699693 -0.2549593 -0.19006737 0.1941377
0001e0 c3 f1 3d be ac 58 f2 bd a3 85 fb be 3d 07 95 3e
       -0.18549256 -0.11833319 -0.49125394 0.29107085
0001f0 82 0a 17 3e db 1a 83 be f2 a3 a4 bd 3b 35 fd bc
       0.14750102 -0.25606427 -0.080390826 -0.030909171
000200 55 74 e4 3d 07 a8 a6 be 0c 2f 6d c0 83 8c 55 3e
       0.11155001 -0.3255007 -3.7059965 0.20854382
000210 6a 25 29 3e 44 1e ad be 68 f7 29 3e ee b3 18 be
       0.16518179 -0.33812153 0.16598284 -0.14912388
000220 d3 5c 5b be e3 e7 01 3e e7 7b c4 3e 18 4e de bf
       -0.21422128 0.12686114 0.3837578 -1.7367582
000230 05 95 76 bf 0e a1 fc 3e 22 f9 29 3f 2a a7 13 be
       -0.96321136 0.49341625 0.6639577 -0.14419237
000240 66 ea a1 3b ae d8 82 be c1 34 1f be 86 9e eb 3c
       0.0049412725 -0.25555938 -0.15547468 0.028762113
000250 0c e4 2c bf a4 bd 4f bf 98 2b 2f bd 19 16 8f 3e
       -0.6753547 -0.81148744 -0.042766184 0.27946547
000260 78 86 33 3d 47 01 ff 3e 0e 45 a8 bd 47 16 d0 3d
       0.04382941 0.49805662 -0.08216296 0.10160499
000270 9f 28 09 bf 1e 6a b1 3e 08 bd b5 3c 29 95 c5 3e
       -0.5357761 0.34651273 0.022184864 0.38590363
000280 7c 3d e2 be 79 9b 8a 3e ed eb 67 3e b2 d5 95 bc
       -0.44187534 0.2707174 0.22648592 -0.018290374
000290 09 d6 b5 3c 0d 76 df 3e f8 07 0e be 8d 27 a8 3d
       0.022196786 0.43644753 -0.13870227 0.08210669
0002a0 fc cf 89 3d 49 d1 5b bf 6d 76 18 3e 3d 0c a6 3e
       0.06729123 -0.8586622 0.14888926 0.32431212
0002b0 c9 51 d8 be ec 45 78 bd 32 fd dd bd 7d 6d 5d bd
       -0.42249897 -0.060613558 -0.10839309 -0.054059494
0002c0 98 14 34 be e4 8f e9 bc 2a 57 e4 3d e2 41 c8 bd
       -0.17585981 -0.028510995 0.11149438 -0.09778191
0002d0 29 a3 46 3d 28 bb 6b bd d2 c7 60 3e b0 b8 68 3f
       0.048495445 -0.057551533 0.21951225 0.9090681
0002e0 a5 0f 20 be 43 17 69 3e b4 b2 0f 3e 6f 75 b4 bf
       -0.15630968 0.2276278 0.14033014 -1.4098338
0002f0 69 73 09 bd 32 3c 6b bf 40 4e 9d 3f ab 22 a8 3d
       -0.03355733 -0.91888726 1.2289505 0.082097374
000300 4e be 1a be e0 71 01 3e 94 02 e7 3e de 1e c9 bd
       -0.15111658 0.12641096 0.45119154 -0.098203406
000310 3d 6a d5 3e b6 67 80 3e c4 b4 10 c0 04 09 9f bd
       0.41682616 0.25079125 -2.261033 -0.077653915
000320 a3 4b 57 be b6 50 b6 3e 55 86 49 bf 19 5b 0e 3e
       -0.21024947 0.35608453 -0.787206 0.13901938
000330 a3 6c ac bd 13 d1 37 3e 4a 5f 1e bf 85 bc a1 3e
       -0.08419158 0.17950849 -0.6186415 0.3158914
000340 c6 39 51 be 57 22 7d 3f 91 0f 17 bf 7a 48 80 be
       -0.20432195 0.98880523 -0.5900813 -0.25055295
000350 82 22 4f 3d 75 0a 8e bf 45 21 5c 3e 0b 9c 80 3e
       0.05057002 -1.1096941 0.21497066 0.2511905
000360 c2 e2 52 3e d4 5d 9a 3d 62 4b bc be 33 70 b5 be
       0.20594314 0.075374275 -0.36776263 -0.35437164
000370 39 ca c3 3e 73 3c ca 3e f6 f6 2b 3e ea 27 d3 be
       0.3824022 0.39499244 0.16793427 -0.4124139
000380 70 9a c7 bd f7 74 b7 be 13 9e 9e 3d 03 0f cc 3d
       -0.097462535 -0.35831425 0.07744994 0.09963801
000390 9b 5c b4 3e 12 2e d7 be 87 38 49 3c 7c d0 bc 3e
       0.35226902 -0.42027336 0.012281544 0.3687781
0003a0 3d 39 f9 bd 0f 75 16 bc c8 26 0b bd 49 a4 1b 3f
       -0.121691205 -0.009183182 -0.03397253 0.60797554
0003b0 1e bf 10 3f ea 4d de bf fb 52 ab 3e f1 dd cf 3e
       0.5654162 -1.7367527 0.33461747 0.40599015
0003c0 6d 42 1a be 64 a2 c9 3e 00 01 03 3f b6 e8 c7 3d
       -0.15064402 0.39381707 0.511734 0.09761183
0003d0 48 c8 28 be 2d 3d 86 3e ae 85 db 3d 6e da f8 3d
       -0.16482651 0.26218548 0.10718857 0.12151037
0003e0 b2 48 2c be c6 0c 0e 3f 11 b5 29 3e 87 c0 54 3d
       -0.16824606 0.5548824 0.16572978 0.05194142
0003f0 2a df 46 3e c2 13 af 3b 50 ff d0 be 79 e6 20 bf
       0.19421068 0.0053429315 -0.40819788 -0.62851673

4.bias f4 [48]
000000 02 e0 6a 40 ec 27 1a 41 7d a7 cf c0 eb a4 17 41
       3.6699224 9.634747 -6.4891953 9.477763
000010 43 72 e7 40 57 69 db c1 03 76 8e 40 fe ca c4 c0
       7.232698 -27.426435 4.4519057 -6.1497793
000020 31 ba 55 c0 ea 5d 06 c0 db ea 82 c1 56 f6 0b 41
       -3.3394892 -2.099482 -16.364676 8.747641
000030 d7 38 e7 40 7e 15 5b 41 5a c7 c9 40 ec e9 59 c1
       7.2256885 13.692747 6.305585 -13.61961
000040 15 a3 e8 3f e3 09 68 c1 cd 5d ef 41 38 cb 0e c2
       1.8174769 -14.502414 29.920801 -35.698456
000050 22 5c 10 c1 58 cc f7 40 d6 58 5d 41 3e 9d 91 bf
       -9.022493 7.7436943 13.834188 -1.1376112
000060 96 da 7d 40 6b 61 28 41 cd a9 1b 41 1b 8b f7 bf
       3.9664664 10.523784 9.728955 -1.9339327
000070 2b fa ec 40 71 27 bf 40 5b ba 41 41 af cb b4 3f
       7.405538 5.9735646 12.107997 1.4124659
000080 f3 5a 98 c1 46 66 30 41 29 ee 9e 40 47 de 6d 40
       -19.044409 11.024969 4.9665723 3.7166917
000090 36 da c2 bf b8 5a a4 c0 1f 77 59 bf a8 5d 5b bf
       -1.5222843 -5.136074 -0.8494739 -0.85689783
0000a0 cb e0 56 40 f0 97 b8 3f e3 74 6d 3f 60 3d 83 40
       3.3574703 1.4421368 0.9275648 4.101242
0000b0 8e 2f 27 41 e7 83 f4 40 a0 ae e6 c0 2c 0f 93 c0
       10.44911 7.6411014 -7.2088165 -4.595602

6.weight f4 [48, 48]
000000 5d 7a a8 bc c7 2d d1 bd a9 c9 15 bf 24 69 f8 3d
       -0.02056616 -0.102138095 -0.58510834 0.12129429
000010 72 d4 29 bf 2f f2 33 3d d0 55 4c 3c b3 3d 93 be
       -0.6633979 0.043932136 0.012471631 -0.2875801
000020 37 01 92 be 5a f2 f9 be 62 24 8f be 05 76 bf bf
       -0.28516552 -0.48817712 -0.27957445 -1.4957892
000030 a8 48 5f be 1e 2b 18 c0 9d 81 72 be 3c d1 3a 3e
       -0.2180506 -2.3776317 -0.23682256 0.18243879
000040 04 1f d1 3e d7 fc 09 be 69 9c 2a bf db e1 84 be
       0.40843976 -0.13475357 -0.6664491 -0.25953564
000050 e8 9d 01 bd ee 01 cc 3d 00 b4 85 3d b7 2d d2 3d
       -0.03164473 0.099613056 0.06528473 0.10262626
000060 03 96 37 c0 08 e9 32 3d 00 17 c1 3d 98 ee 9e 3e
       -2.868531 0.043679267 0.09428215 0.31041408
000070 92 70 44 3b 74 c4 bf bc a3 64 13 3d b4 e1 5f 3d
       0.0029974324 -0.023409106 0.035984647 0.054658607
000080 f6 97 17 3f b7 36 0e 3e 34 e0 dd bd 4e 05 b0 be
       0.5921625 0.1388806 -0.10833779 -0.34379047
000090 9e 20 ea bf 0a ed 75 bf 65 4c 79 bd 9d 19 35 be
       -1.8291204 -0.9606482 -0.06086387 -0.17685552
0000a0 b3 b3 10 c0 a4 98 98 be 62 3e 00 bf d8 3c ec bf
       -2.260968 -0.29803956 -0.5009519 -1.8456068
0000b0 89 d9 6d be c6 27 e2 bd 27 59 dc 3e 28 ba 5d 3d
       -0.23227514 -0.110427424 0.43036768 0.05413261
0000c0 2f 95 46 3b 69 4d 07 be 42 c2 1b be b8 cf 26 3d
       0.0030301323 -0.13213123 -0.15210822 0.04072544
0000d0 3b c3 b5 be 77 48 ae 3d a0 31 1f be 14 59 5a be
       -0.35500512 0.08509915 -0.15546274 -0.21323043
0000e0 d5 4b 0e bd 90 77 06 bd 83 2c 7e bf cc c3 3d bf
       -0.034740288 -0.032828867 -0.9928667 -0.7412689
0000f0 98 4d 2b 3d 63 e6 a9 bd d4 0a 05 3e ea b7 8e bd
       0.041822046 -0.08295896 0.12992412 -0.069686726
000100 27 23 1b bd 28 50 4d bd d3 f0 22 bc c6 6f 49 bd
       -0.03787532 -0.05012527 -0.009945112 -0.04917886
000110 c7 01 f5 bc 16 c0 90 bd e0 62 9a be c7 42 45 bd
       -0.029908074 -0.070678875 -0.3015356 -0.048159387
000120 4b 72 18 bc 4e 27 81 be e0 b9 60 be f8 36 53 bc
       -0.009304593 -0.252253 -0.21945906 -0.012891524
000130 2b ba e3 3e 33 45 cc bc 26 45 97 be 9f ba 1c bd
       0.44477972 -0.02493534 -0.29544944 -0.038263913
000140 cf 9f 3e 3d 54 03 0b 3e 80 8a 55 3c 3b 51 a9 bd
       0.046539124 0.13575488 0.013033509 -0.082674466
000150 65 24 a3 bd 24 b5 e3 bd ef 5d 0d 3e 77 6d be 3d
       -0.07965926 -0.11118534 0.13805364 0.092982225
000160 48 1c 7d bd 15 10 46 3d b5 5e 51 bd d8 89 cc 3d
       -0.06179455 0.04835518 -0.05111571 0.09987229
000170 0d 67 50 bd e2 10 a4 3d 23 13 b3 bc 6c 44 81 3d
       -0.050879527 0.08011033 -0.021859711 0.063118786
000180 41 6c 18 be f4 c5 ed 3d d1 fc 2c bf 64 a3 41 bd
       -0.14885046 0.11610022 -0.6757327 -0.047274962
000190 9d e2 60 bd e0 cf a9 3d ba 0b 34 3e e9 aa 82 be
       -0.054903615 0.08291602 0.17582598 -0.2552102
0001a0 91 9a 28 be 87 90 8d be 14 7a da be c8 12 6f bf
       -0.16465212 -0.27649328 -0.42671263 -0.9338803
0001b0 30 95 65 bc 3f c4 bf bf 45 2f aa bd de 9f c3 3d
       -0.01401262 -1.4981765 -0.08309797 0.095519766
0001c0 fe 34 25 3e c6 9a b8 3e 31 c3 ad be 25 a0 e4 bd
       0.16133496 0.36055583 -0.33937982 -0.11163358
0001d0 80 53 07 bf 4a 27 db 3d 8f 65 f9 3c ab 27 66 be
       -0.52861786 0.10700853 0.030443935 -0.2247607
0001e0 58 dc 0a c0 f4 46 4a be 3a 87 74 3e 18 f1 65 bd
       -2.1696987 -0.19753629 0.2387971 -0.056138128
0001f0 38 8a 23 be 43 38 8e bd c1 65 27 bf b0 35 b6 3d
       -0.15970695 -0.06944325 -0.6538964 0.08896959
000200 84 0c a9 3e 3d e2 02 3d 3c 30 59 be ca b4 b3 3c
       0.3301736 0.03195404 -0.21209806 0.021936793
000210 af d5 a1 bf a6 a2 aa bf d6 e7 8e bd 79 53 9b bd
       -1.2643336 -1.3330886 -0.06977813 -0.075842805
000220 52 8d 03 be c3 c2 5b bd 12 08 7c bf 5c 1f 93 bf
       -0.12846878 -0.053652536 -0.98449814 -1.1493945
000230 fd cf a6 be 78 fe 98 3c 18 fb a4 3e 24 98 5a bd
       -0.32580557 0.018676028 0.3222282 -0.05336775
000240 72 ec f0 be 53 ef f3 be c9 26 bd 3c ee c7 a7 3e
       -0.47055393 -0.47643527 0.023089783 0.32769722
000250 9a 5b b5 be 88 da ef be f0 46 0f 3f f2 63 d4 3e
       -0.3542145 -0.46846414 0.5596762 0.41482502
000260 32 e3 12 3e d4 ab 86 bf 28 e0 73 bf 8a cd 1b 3f
       0.1434448 -1.0521188 -0.9526391 0.608605
000270 78 3d b3 3e ab 8f de be b9 a9 ad 3e 8d e9 32 bf
       0.35007834 -0.43468985 0.3391855 -0.6988762
000280 53 2e c6 be e0 12 80 bf 18 32 44 3d 8e d6 21 3e
       -0.38707218 -1.000576 0.047899336 0.15804502
000290 ce 10 8b 3e 1d d6 c0 3e 49 2d bd be 39 e6 c9 be
       0.27161258 0.37663355 -0.36948612 -0.39433458
0002a0 2b 78 47 bf d8 88 37 bf b9 cf b0 3e ca 34 1c be
       -0.77917737 -0.7169318 0.3453348 -0.15254512
0002b0 0c 51 99 3e 41 32 9d be 2d b0 d3 bd a5 21 ec 3e
       0.29944646 -0.30702403 -0.10336337 0.4611942
0002c0 8d c3 3c bf 3b 05 84 bf f9 34 0a bf aa 2a 48 be
       -0.73735887 -1.0314096 -0.5398708 -0.19547525
0002d0 b5 ba 2a be 0c d3 94 bf 05 5a 16 be 5f 7f 12 bd
       -0.16672786 -1.1626906 -0.14682777 -0.035766
0002e0 4c b4 81 be 86 17 97 bf e8 39 39 3e 3e c1 90 be
       -0.25332868 -1.1804054 0.18088496 -0.28272432
0002f0 ec 04 bd 3e af e9 44 be 5e 89 f7 3c cd dd 04 3e
       0.36917818 -0.19229768 0.030216869 0.12975235
000300 34 7a f8 bd 7e 67 60 be f0 8f fc bd a0 90 29 be
       -0.121326834 -0.21914479 -0.123321414 -0.16559076
000310 2d c3 00 c0 6e bb c9 be 7a 90 f8 bf d4 e1 11 35
       -2.0119126 -0.3940081 -1.9419091 5.434533e-07
000320 b7 d6 38 3e 21 86 84 3e f4 81 df bf 52 86 ee bd
       0.18050657 0.25883582 -1.7461534 -0.11646713
000330 02 45 6e 3e 55 90 14 be b1 28 1f c0 28 e7 9b 3d
       0.23268512 -0.14508183 -2.4868586 0.07612449
000340 7f 43 4f bf 6a 71 6f bf 44 6e 32 c0 a0 ae 9a bd
       -0.80962366 -0.9353243 -2.78798 -0.07552838
000350 b8 68 a3 3e 47 33 cc bd 17 12 90 3e f7 56 11 3f
       0.31915832 -0.09970718 0.281388 0.5677332
000360 9f 0d fa be dc 39 74 be aa 1c d7 be 0c 38 0f 3e
       -0.48838517 -0.23850197 -0.42014056 0.13986224
000370 6a 1f 12 be 6b 81 67 3e e7 3a cf bf e4 22 81 be
       -0.14269796 0.22607963 -1.618985 -0.25221932
000380 45 98 f2 3e 3c 23 94 bd ba 31 95 3e ed 22 74 3c
       0.47381797 -0.07233283 0.291395 0.014900905
000390 6d 35 c2 bf 55 1d a8 bf 75 58 81 3e ff 24 71 3e
       -1.5172554 -1.3133951 0.252628 0.23549269
0003a0 92 55 5f bd 4c 13 6a bf 9e bc 61 3f 1e 29 51 c0
       -0.054524966 -0.91435695 0.8817843 -3.2681346
0003b0 36 0a f9 bd 6a 67 06 be 06 d6 1f bf b7 2b 3e 3e
       -0.12160151 -0.13125387 -0.6243595 0.18571363
0003c0 80 43 85 3e 40 a1 81 3d ed 5f 4c 3e ca d8 b1 bc
       0.2602806 0.06329584 0.19958468 -0.021709818
0003d0 cd ca 02 bd c5 6a b5 3c af 6a bb bd 63 4a a1 bd
       -0.031931687 0.022145638 -0.09151208 -0.07875516
0003e0 29 b3 81 3c 32 2e a7 3a ea d1 10 3d 2f 11 fb 3d
       0.0158325 0.0012754856 0.03535644 0.12259137
0003f0 4f 43 22 bd 7b ca c1 bc f9 4a cc 3d 9c 49 a2 3d
       -0.03961497 -0.02365612 0.099752374 0.07924196

6.bias f4 [48]
000000 63 94 b7 c1 51 f0 d9 40 57 d7 5c c1 1f 23 45 40
       -22.947454 6.8105855 -13.802573 3.0802686
000010 9a fe 88 c1 5a f7 10 c0 5f 4a 7a c0 a1 cb 72 40
       -17.124317 -2.2650971 -3.9107893 3.7936785
000020 8a 75 1c 41 fa 9f 9a c1 8f 37 86 c0 f4 c1 b9 3f
       9.778696 -19.328114 -4.194282 1.4512315
000030 59 d4 d1 3f 31 b1 b5 40 9a 79 47 40 36 a0 0f 41
       1.6392928 5.67788 3.116797 8.976614
000040 d5 e3 22 41 a8 ba b2 be 83 b0 bf c1 cf c9 b5 c1
       10.180623 -0.34908032 -23.961187 -22.72354
000050 f6 f4 a6 c0 97 6f b2 41 1a c5 9c c0 7b e0 96 c1
       -5.2174025 22.304487 -4.8990602 -18.85961
000060 56 62 fe 40 55 27 8a 3f 7a 3e ad c0 da 92 bc c1
       7.949504 1.0793253 -5.4138765 -23.571705
000070 ce 3f c6 c0 61 d3 90 40 9d 91 3c c0 ac 27 17 c0
       -6.1952887 4.525803 -2.9463875 -2.3617964
000080 3a 1e a6 c1 04 14 1d c0 93 78 a2 c1 bc 1b 1a 41
       -20.76476 -2.4543467 -20.308874 9.631771
000090 55 d8 2b 41 be 51 a0 41 da 60 23 c1 60 8d 18 c1
       10.740315 20.039913 -10.211145 -9.534515
0000a0 df a4 3f c1 37 61 01 c0 4c 2c e2 3e 05 d6 83 40
       -11.977752 -2.0215585 0.4417442 4.1198754
0000b0 1c 40 ca 40 97 4d 91 40 23 cc 26 c1 7c 49 9d bd
       6.320326 4.5407214 -10.424838 -0.07680032

8.weight f4 [6, 48]
000000 03 b9 16 bd fc eb 80 bc 8d 54 26 3d 42 5e 09 3d
       -0.036797535 -0.015737526 0.040607978 0.033537157
000010 ff be f4 bc f3 69 85 3e 5b e6 79 bd 32 64 3c 3c
       -0.02987623 0.26057395 -0.0610107 0.011498498
000020 2b 3a 05 3c ac 8b e2 bd 38 a0 a4 3d 9b 2a 04 bc
       0.008131544 -0.110617965 0.08038372 -0.008066799
000030 8a fd 91 3c 22 15 fb ba 78 aa d2 3b 2e d7 8d 3c
       0.017821092 -0.0019156078 0.006429013 0.01731452
000040 3a 36 5e 3b be ac b7 bc 2c 52 02 bc 0e eb 7a bb
       0.0033906833 -0.022421237 -0.007954162 -0.0038287076
000050 09 f0 82 3c 07 38 e4 3c af 38 8f bd f0 ec a7 3c
       0.015983598 0.027858747 -0.069932334 0.020498723
000060 9a d7 9f ba 72 db a4 3c 39 e6 58 3e b9 fb 1e bc
       -0.0012194992 0.02012417 0.21181573 -0.00970357
000070 fe d1 ce bc 81 ea 22 bc 82 86 0d 3c b8 6b 15 3e
       -0.025246616 -0.009943605 0.008638026 0.14591873
000080 16 14 81 3d 3d 31 07 bc a2 8a 9e 3c 3a 49 39 bc
       0.06302659 -0.008251485 0.019353215 -0.0113089625
000090 69 71 ad 3c 3e e5 c8 3c c6 7c ae bc 1d 1a 77 bb
       0.021172242 0.024523374 -0.021299731 -0.0037704774
0000a0 ab c3 dd 3a 74 08 6d bb 6c 4c 1d 3e 1b 0c 86 bc
       0.0016919276 -0.0036168369 0.15361184 -0.016363194
0000b0 fd 23 f4 3b 08 15 1b bc b4 c7 27 3c d2 02 f4 3c
       0.007450579 -0.009465463 0.010240484 0.029786501
0000c0 31 80 b6 bd 81 6c a6 3c 90 ff 3b 3d ec cb 9e 3d
       -0.08911169 0.02031541 0.04589802 0.07753739
0000d0 60 03 b5 bd 84 6c 2b 3e a1 ce 8e bd 0b 35 42 3d
       -0.08838534 0.16740614 -0.06973005 0.047413867
0000e0 5e 44 c2 3b 4a a2 ea bd 4c 1c 3c 3e 87 28 9c 3d
       0.00592856 -0.114567354 0.1837017 0.076249175
0000f0 6a bc d1 3c 4e 34 a1 bc f9 df 03 3e b6 03 b9 3d
       0.025602538 -0.019678261 0.12878408 0.09033911
000100 07 e2 97 bc 0e e7 ce 3c 3e 8c 3f bc 81 d2 31 bc
       -0.018540395 0.02525666 -0.011691151 -0.010853411
000110 02 14 a7 3b d5 46 3f 3d 5a 6b 02 3e 97 61 07 3c
       0.0050988207 0.04669841 0.12736264 0.008263013
000120 e0 af 79 3a 9c 7c e9 3b e5 99 bc 3c 2f 51 50 bd
       0.00095248036 0.0071254503 0.023022601 -0.050858673
000130 90 55 f6 bc 36 0a 2b bd 6d e4 ac 3b 7e 16 5e bb
       -0.030070096 -0.041757785 0.005276254 -0.0033887918
000140 d9 07 2a bd ac e9 98 ba 02 93 b2 3d 81 4c 2e bc
       -0.04151139 -0.0011666319 0.08719446 -0.010638357
000150 95 fa a5 3c a3 72 3b 3d 32 91 59 bd 28 34 84 b9
       0.020261088 0.045763623 -0.053116985 -0.0002521586
000160 5c 5c 20 3c 6d 19 bd bb 5f a9 b6 3d 30 30 d4 bc
       0.009787645 -0.0057708533 0.08919024 -0.025901884
000170 a9 e8 71 3d 54 f8 21 3c cc ba bb 3c d5 3d 91 bd
       0.059059773 0.009885866 0.02291622 -0.07091872
000180 eb e9 e8 bd b9 0d 8d bb 4a 3b 2f bd a2 8d e3 3d
       -0.11372741 -0.0043046144 -0.04278115 0.11110999
000190 d2 23 8a bd 18 35 a5 3d 8c ff 31 bd 63 b4 23 bc
       -0.067451134 0.080667675 -0.0434566 -0.009991738
0001a0 34 ed 95 3d a4 65 02 bd 80 dd e7 3c 77 be 33 3e
       0.073206335 -0.031835213 0.028303862 0.17553125
0001b0 70 56 c7 3c e1 28 32 3e c3 c7 33 3e 50 85 a9 3e
       0.024333209 0.17398407 0.17556672 0.33109522
0001c0 ce 02 85 bd b2 61 b2 bc 5d 3f 8d bc b5 b1 77 bd
       -0.064946756 -0.0217751 -0.017242128 -0.06047221
0001d0 1f 5e 91 3b 43 77 83 3d 7b af cc bc 04 d0 f2 3c
       0.004436269 0.06419232 -0.02498602 0.029640205
0001e0 ce 77 9b 3a 33 15 50 3c 05 21 98 bc 52 4f 9f bd
       0.0011861266 0.012700367 -0.018570432 -0.07778801
0001f0 ed 8a 09 bd 6d 23 d1 bb 8f a9 86 3c 87 44 1b bd
       -0.033579756 -0.006382397 0.016438274 -0.03790715
000200 7e 0f 64 3d bc 36 c3 3d 55 a3 1d 3d 27 03 b7 3c
       0.055678837 0.09531924 0.038485844 0.02234037
000210 b2 d6 f9 3c 3f 98 2d 3d 23 c8 48 bd 8e ed 84 bc
       0.030497883 0.04238152 -0.04901899 -0.016226556
000220 54 85 d9 3d 60 6f 32 bb 00 41 28 3d 4b b9 7c bd
       0.106211334 -0.002722703 0.041077614 -0.061700147
000230 a6 15 67 3e 31 4a e2 bc cb 30 20 3d fc 16 d3 bd
       0.22566852 -0.027623268 0.039109033 -0.10307118
000240 73 d7 7e bd 43 15 0d bd a3 c6 7e bd 2a 53 8d 3d
       -0.062217187 -0.034444105 -0.062201153 0.06900628
000250 63 71 61 bc 9b 58 0b 3d 98 03 3e bd 2a b9 85 bd
       -0.013759944 0.034020048 -0.046390146 -0.06529458
000260 03 83 3b 3e 98 ed 29 bc cf 2f 29 bc 9b e5 52 3c
       0.18311696 -0.010371588 -0.01032634 0.012872125
000270 d8 6e 21 3d b6 33 a8 3d 93 55 c2 3d a6 cc 9b 3e
       0.03941235 0.08212988 0.09488978 0.30429572
000280 bc 33 dc bd fa be f2 bd 6c 35 a0 bd f2 38 36 be
       -0.10752055 -0.11852832 -0.078226894 -0.1779516
000290 a5 f0 0b 3d 26 e4 8d 3d 4c 15 37 bd 3c f6 de 3d
       0.034165043 0.069282815 -0.044698045 0.10886809
0002a0 cb 7b 64 3d 47 d3 8f 3c f8 9b 09 bc 72 1a 33 bd
       0.05578212 0.0175568 -0.008399002 -0.043726392
0002b0 80 40 9a 3d 05 be 29 bc a3 f9 87 3d 51 11 72 bc
       0.07531834 -0.010360246 0.06639411 -0.014774636
0002c0 3b 55 a5 ba 73 c6 94 3d fe 8b 37 3c d8 7b 1c 3e
       -0.0012613902 0.07264414 0.01120281 0.15281618
0002d0 40 b3 06 3d ff 34 7a 3d 48 91 b1 bd 6b 8c 60 bb
       0.03288579 0.061085697 -0.08670288 -0.0034263383
0002e0 59 3d 4d bd 92 ea 1b 3e 07 44 d5 3c b3 3c 0d bd
       -0.050107334 0.152262 0.026033415 -0.034481715
0002f0 0a d8 0f 3f d0 ff 0e 3e 9b 3e b0 3d a8 a4 11 3d
       0.56189024 0.13964772 0.08605691 0.03555742
000300 c3 7c 6b bc 72 1c 02 3e a0 c5 17 bd 64 4c c6 3d
       -0.014373007 0.12706164 -0.037053704 0.09682539
000310 e7 47 b1 bb 6c bc e5 3c 21 2b 7e bd 0f 59 9b ba
       -0.0054101828 0.028043948 -0.06205285 -0.0011852103
000320 06 6f 63 3e 98 e7 30 bb b6 15 c8 bb 1a 39 b3 3b
       0.22210321 -0.002699351 -0.006106104 0.0054694535
000330 31 a9 17 3d 23 04 6d bd 67 01 0b bb d8 b5 a8 3d
       0.037026588 -0.057865273 -0.0021210553 0.08237809
000340 73 85 a8 bb b7 80 53 bd 17 6e 35 be 5b d3 29 be
       -0.0051428615 -0.051636424 -0.17717777 -0.16584532
000350 40 50 67 3d 86 02 89 3d 25 94 9d bc 31 ad 97 3d
       0.056473017 0.066899344 -0.01923568 0.074060805
000360 d7 a5 59 3d 8f a9 af bc f8 55 0e bc c8 d2 d8 bb
       0.053136673 -0.021443157 -0.008687489 -0.006616924
000370 ee e7 68 bd d6 ef c9 3a cd 89 bf bc e0 a2 43 bc
       -0.05686181 0.001540656 -0.023381138 -0.011940688
000380 5e 52 81 bc 19 ea ff 3c aa 54 02 3b 81 f8 08 3f
       -0.015786346 0.031239556 0.001988689 0.53504187
000390 25 b3 37 3d 66 6c 37 3d 5f 02 ea bd d6 bc 77 3d
       0.04484858 0.04478111 -0.114262335 0.060482822
0003a0 49 96 8d 3c ce 2b fe 3a ab 1f 15 3c 12 ad 2c 3e
       0.017283576 0.0019391717 0.0091017885 0.16862896
0003b0 6f e8 1b 3f dd 09 92 3d 3e 5b 11 3e ee 31 92 3d
       0.6090154 0.071307875 0.14194962 0.071384296
0003c0 a3 87 b6 ba 7e b7 06 bd b7 6f 5e bc 1f 68 ba 3d
       -0.0013925921 -0.032889836 -0.01357644 0.09101891
0003d0 cb 6a f7 ba 47 6c 9a 3c 6b 13 8b bd 94 30 35 3e
       -0.0018876431 0.018850459 -0.06790813 0.17694312
0003e0 c4 16 1b 3e 9e 57 f4 3b a2 77 5a bc cb 36 61 3c
       0.15145403 0.007456734 -0.013334187 0.013745974
0003f0 e9 16 8e 3d f7 9b ea bb e8 df b2 bc c0 4f 48 3d
       0.069379635 -0.0071597057 -0.021835282 0.04890418

8.bias f4 [6]
000000 b4 95 95 39 e5 bd 25 3b c9 21 2d bb 15 95 ff 3b
       0.00028531032 0.0025290188 -0.0026417843 0.0077997544
000010 3c ed a0 b9 bc 0d d2 3a
       -0.00030694332 0.0016025822
