models/FF_no_station/FF_no_station_depth3_width24_batch106.pth (torch, 14236 bytes, 10 tensors)

0.weight f4 [24, 24]
000000 4a bb ad bd 17 1a 27 be ee e5 33 bd 2b 27 12 3e
       -0.08482988 -0.16318546 -0.04392045 0.14272754
000010 1e 34 75 bd a8 f3 7c bd 9d dd 5f 3e 77 70 8e 3e
       -0.059864156 -0.061755806 0.21861883 0.2782018
000020 28 27 9d 3e 5b 3f b1 3b 1b db 0e bd 53 ca ae bf
       0.30693936 0.005409164 -0.034876924 -1.3655494
000030 6e d0 f7 bf b6 5d 90 c0 e5 b4 20 c0 4d 69 95 bf
       -1.9360483 -4.5114393 -2.511041 -1.167276
000040 02 26 01 bf c2 b7 53 3f 24 0a cd 3f 14 46 ca 3e
       -0.5044862 0.8270227 1.601872 0.3950659
000050 50 19 9d bf 3d 8e cd be cb 65 c8 3e 06 00 af 3e
       -1.227335 -0.40147582 0.39140162 0.34179705
000060 3b 8d b9 bf 9e 45 86 bf 3d 5e b5 bd ac 2b f7 bd
       -1.4496225 -1.0489995 -0.08855865 -0.120688766
000070 8f d0 a8 3e 78 8b 26 3f 3a cb ae 3e 56 b4 ab 3c
       0.32971618 0.6505656 0.34139425 0.020960014
000080 16 b0 49 3e 16 2b 88 3e 16 df 43 bd 49 49 91 be
       0.19696078 0.26595372 -0.047820173 -0.28376225
000090 7a b1 ee bc 43 b5 b5 bc 8c 2a aa 3d 75 00 18 3d
       -0.029137362 -0.022181159 0.083088964 0.03710981
0000a0 17 44 34 bf d5 76 01 bf ef 7b d4 3e 0e 73 95 3f
       -0.70416397 -0.5057195 0.41500804 1.1675737
0000b0 a7 04 48 3f ba 62 2d 3f 74 d4 30 be 44 38 c8 bf
       0.781321 0.6772877 -0.17268544 -1.5642171
0000c0 e9 5e 08 3f 87 11 81 be 12 36 88 be 34 f1 16 3f
       0.5326982 -0.25208685 -0.26603752 0.58961797
0000d0 52 16 5e 3e c7 60 99 3e f9 f8 8b 3e 75 f9 aa 3e
       0.21688202 0.29956648 0.2733839 0.33393446
0000e0 7e 7c f4 3e e4 76 99 be 82 64 86 bf f2 da df bf
       0.4775123 -0.2997352 -1.0499423 -1.7488692
0000f0 28 15 79 bf 23 b1 eb 3d 82 b0 10 be 2d e1 bb be
       -0.97297907 0.115083955 -0.14129832 -0.36695233
000100 14 2c 48 be 02 21 f8 bd 51 de fa 3e e8 6d 4f 3e
       -0.19548064 -0.12115671 0.4899774 0.2025677
000110 2e 3b 3a be 65 67 26 3e a8 8e c3 3e 34 a4 89 bf
       -0.18186638 0.1625038 0.38194776 -1.0753236
000120 f7 a1 8b 3f fd d5 7e bd d1 4a c4 3d 74 9f ab 3d
       1.0908803 -0.062215794 0.095845826 0.08380023
000130 cf e2 a5 be cc 7b e9 3d 4c e4 d4 3e ae 62 af 3e
       -0.32399604 0.114005655 0.41580427 0.34254974
000140 07 93 99 3d 9f e2 95 3c c5 a2 72 3e 3b 32 84 3c
       0.07498746 0.018296538 0.23694904 0.016137233
000150 69 49 a2 be c0 36 bf be 24 cf a2 3e 34 5f db 3e
       -0.31696633 -0.37346458 0.3179866 0.42846072
000160 f5 42 02 be b6 a5 eb 3d b3 39 90 3e e0 f4 4a 3f
       -0.12720855 0.11506216 0.2816902 0.792799
000170 31 60 33 3f ad 03 ec 3e 77 46 24 bf 22 0b 11 c1
       0.7006865 0.46096554 -0.6417002 -9.065218
000180 1f 13 5c 3f 5c ef c3 3e 3e 74 9a be f4 70 3a 3d
       0.85966676 0.38268554 -0.3016681 0.045517877
000190 18 8c a3 3d 24 fe 42 be f2 bf 75 bd 0d ef 23 3d
       0.07985705 -0.1904226 -0.059997506 0.0400229
0001a0 f8 68 59 be 29 c5 1d bd 10 de 5b 3e 5d bf cf bb
       -0.21231449 -0.038518105 0.21471429 -0.006339951
0001b0 e1 d2 a2 bd bd 3b 84 be 37 90 fc 39 6a 39 45 3f
       -0.07950378 -0.25826827 0.00048172634 0.7704073
0001c0 de 6a c9 3e 29 fc ff 3e 8b 5f 43 bd f7 c0 9c bd
       0.39339346 0.4999707 -0.04769854 -0.076539926
0001d0 be 50 54 bd 05 aa 57 be 29 04 78 be 75 7c 2d 3f
       -0.051834814 -0.21060951 -0.24220337 0.6776803
0001e0 d8 60 12 bf 51 9e 04 3f 72 a0 02 3c 80 4e 43 be
       -0.5717902 0.5180407 0.007972823 -0.19072914
0001f0 bc 3e 9e 3e cc 18 ea be 62 60 a6 3d 92 82 04 3f
       0.30907238 -0.45722044 0.08123852 0.51761734
000200 af ee c3 3e bc 0b 50 3d 26 d2 97 3c 63 a7 59 bd
       0.3826804 0.05079244 0.018532824 -0.053138148
000210 83 31 5b be 7b 68 2e bd 74 30 d6 3d ed e8 24 ba
       -0.21405606 -0.04258011 0.104584605 -0.0006290812
000220 77 40 fb bd 42 a0 09 be 99 9e 66 bb 73 33 bb 3e
       -0.12268155 -0.1344004 -0.0035189746 0.3656269
000230 dc 2e 1c 3e b2 9a 98 3d 89 72 15 bf e1 4d 86 3f
       0.1525225 0.07451381 -0.5837789 1.0492517
000240 07 54 a9 3f dd d6 4d 3f ba 95 6a 3e 14 74 d9 be
       1.3228768 0.8040598 0.22908679 -0.42471373
000250 d3 27 8d 3e 1e de 9a bd 83 3d 07 3d 30 20 d2 bb
       0.27569446 -0.07561897 0.033017647 -0.0064125285
000260 d2 6d 34 3d 51 e5 28 bb f6 8a a7 3c cf f6 0e 3e
       0.044050045 -0.002577145 0.020452004 0.13961338
000270 b7 0d 6d bd 9f 68 0d 3d 49 12 ff bd 2c 12 90 bd
       -0.057874408 0.034523603 -0.124546595 -0.07034716
000280 eb 1e c2 3d 74 c1 6a be 4b f3 96 3d 88 99 2f 3e
       0.094785534 -0.22925359 0.07370623 0.17148411
000290 f4 82 a7 bd 0b 5d 1e be 67 6d 34 be ee 1d 01 bf
       -0.08179274 -0.1546518 -0.17619859 -0.50436294
0002a0 84 37 a9 bf f3 69 0b 3f 10 0e cf 3e f2 5a 26 be
       -1.3220067 0.5445854 0.40440416 -0.1624563
0002b0 70 f7 89 3b fe a6 02 3e ae 77 37 3e 31 c4 5b 3d
       0.004210405 0.12759015 0.17916748 0.0536539
0002c0 2b 00 7f bd 94 8c 26 be 4b 29 c9 bc 54 67 93 3d
       -0.06225602 -0.16264564 -0.024555823 0.07197443
0002d0 4f 6b 11 be 91 2e 89 bd a7 e3 dd bc 1d 81 80 3e
       -0.14201091 -0.06698335 -0.027086092 0.25098506
0002e0 86 8f 94 3e ec 24 9c 3e 1a 5a 58 3f 7a 1d 9b 3e
       0.2901575 0.3049692 0.84512484 0.30295926
0002f0 73 89 16 c0 18 b9 08 c0 2a 87 03 3e a4 00 ac 3f
       -2.3521392 -2.1362972 0.1284453 1.3437696
000300 33 3a 24 bd 56 a4 65 3d c1 82 35 be 9b 0a bb 3e
       -0.040094566 0.056064926 -0.1772566 0.3653153
000310 b2 5a be 3c d7 83 47 bf 99 23 50 bf 93 59 e0 be
       0.023236606 -0.77935547 -0.8130432 -0.4381834
000320 fa 9b ef bd 44 5c 8c 3e 1f 88 c7 3e 51 52 b2 3e
       -0.11699672 0.27414143 0.3897104 0.34828427
000330 0d 55 6e 3e d5 88 9b bd b7 33 2a be 76 24 bd 3c
       0.23274632 -0.07594458 -0.1662129 0.023088675
000340 f1 27 d2 bd e9 e6 bf be a0 1b 10 3f 7f a7 64 3f
       -0.102615245 -0.37480858 0.5629215 0.8931808
000350 35 ad 21 3f 40 a0 0f 3f 0b c0 29 bd 70 a3 06 bf
       0.6315492 0.561039 -0.041442912 -0.52593136
000360 24 05 6d be da ca 96 3c b4 2a f9 be 30 3e 8d 3e
       -0.23146492 0.018407274 -0.48665392 0.27586508
000370 ce f6 18 3e 89 f8 ae 3d e6 66 21 be 86 d3 39 3d
       0.14937899 0.08543498 -0.15761909 0.04536774
000380 ee 06 3c 3e 57 95 48 3d 83 e2 95 3b ed 97 8b bd
       0.18362018 0.048970547 0.0045741214 -0.06816087
000390 c7 35 24 bf f2 15 81 bf 91 7b 2d c0 a3 63 76 c0
       -0.6414456 -1.0084822 -2.710667 -3.8498313
0003a0 ad 91 15 c0 c9 49 a6 bf a4 f2 59 be 4e a1 a3 3f
       -2.3370163 -1.2991267 -0.21283966 1.2783601
0003b0 7c 19 a9 3f b5 31 1e be bc 61 5c bf 7f e7 dd 3e
       1.3210902 -0.15448649 -0.8608663 0.4334068
0003c0 7f 12 4c bf fa 04 65 3e 37 30 c3 3d 5a fd 00 3d
       -0.7971572 0.2236518 0.095306806 0.031491615
0003d0 e3 37 30 be 9b 7f b5 3c 66 51 37 3e bb bd b0 bd
       -0.17208819 0.022155574 0.17902145 -0.08629938
0003e0 1d df 83 be b3 36 0a bd 1e 8b 05 3f 9b d0 a5 3e
       -0.2575616 -0.03374357 0.521654 0.32385716
0003f0 f9 a7 7c be 0b b2 16 bf 3b d6 fc 3e 54 39 75 3f
       -0.24673451 -0.5886542 0.49382195 0.957906

0.bias f4 [24]
000000 a8 8d ae c1 cb ba af 40 49 a0 17 42 c2 34 41 c0
       -21.819168 5.491552 37.90653 -3.018845
000010 a2 53 45 41 9a 1c 05 40 69 62 0d 41 30 56 89 41
       12.332918 2.0798707 8.836526 17.167084
000020 00 d1 d3 40 e1 f6 b4 c1 be c9 a7 c0 37 ef d1 40
       6.6192627 -22.620546 -5.2433767 6.560451
000030 e3 e8 e7 40 ed 92 5f c1 4a c1 a9 c1 d3 61 86 c1
       7.2471786 -13.973371 -21.21938 -16.797766
000040 df bd 87 40 b8 64 c6 3f 68 72 47 c1 09 4e 4c c1
       4.2419276 1.5499487 -12.465431 -12.769052
000050 93 d2 03 41 7f 4f c0 bf db 56 91 c0 69 7b 64 c1
       8.23891 -1.502426 -4.5418525 -14.280129

2.weight f4 [24, 24]
000000 9f 55 51 3f c0 36 fa 3d ed 00 9c be 1e a0 17 bf
       0.8177127 0.12217474 -0.30469456 -0.59228694
000010 54 4f dd be a4 d3 9d be 71 55 b6 3d 98 df 9b 3f
       -0.43224585 -0.3082553 0.089030154 1.217761
000020 6e db 17 bf 2a b5 ba be b6 ed 5d 3f 1f 59 f1 be
       -0.593192 -0.36466342 0.86690843 -0.47138306
000030 4c 55 2d 3e 06 b8 a6 bd 1b e8 31 bf 3c ed 31 bf
       0.1692707 -0.081405684 -0.6949479 -0.69502616
000040 f4 45 b4 bf 39 44 aa be 66 36 bb bf 7b 83 87 3e
       -1.4083848 -0.33255175 -1.4625976 0.264675
000050 20 b9 5b bf 19 b8 08 bd ad d4 0b 3f 4c b6 3f bf
       -0.85829353 -0.033378694 0.5462139 -0.7488754
000060 43 2d a1 3e 9d b1 17 3f 10 60 72 bf 60 a3 41 be
       0.31479844 0.5925539 -0.9467783 -0.18909979
000070 ea be db 3d 08 46 7f 3d 62 7d 22 3f 49 21 74 be
       0.10729773 0.062322646 0.6347257 -0.23840822
000080 9e 21 03 bf 3c 42 74 3d 4f e0 27 3f ac 23 52 be
       -0.5122317 0.05963348 0.6557664 -0.2052142
000090 d6 77 6f 3e 50 37 16 bf b4 cb 8b be 74 dd 64 be
       0.23385558 -0.5867815 -0.2730385 -0.22350103
0000a0 0f 97 48 3e b8 18 1f 3e c4 86 00 bf a4 4c d1 bd
       0.19588874 0.15536773 -0.50205636 -0.10219696
0000b0 54 ab 40 bf 99 1b 2f 3c 83 4f 9d bd f6 ed ba be
       -0.75261426 0.010687732 -0.07681181 -0.36509675
0000c0 8c 55 f6 3c fd cb 05 be 67 62 f6 3a eb 54 41 3d
       0.030070089 -0.13066097 0.0018797637 0.047200125
0000d0 f8 70 c8 3d c7 f6 38 3e cb 8f b6 3e 76 46 c4 bd
       0.09787172 0.18062888 0.3565658 -0.09583752
0000e0 ec f6 e4 bd 7a 47 6e bd 8d ed b7 3c 34 e2 62 3d
       -0.11179909 -0.058173634 0.02245214 0.055391505
0000f0 c4 8b a0 bd 33 32 44 bd 50 1f 10 bc ee f2 13 3f
       -0.07839158 -0.047899436 -0.008796528 0.57792556
000100 96 f1 38 3e bf ff 51 be e7 00 8a bd 7a 22 90 be
       0.18060908 -0.20507716 -0.06738453 -0.28151304
000110 25 7c 49 be 13 bb eb 3e 61 c7 39 3e 38 8d af 3d
       -0.19676264 0.46041164 0.18142463 0.08571857
000120 eb cb 85 3f 4f 15 b0 bf 4a ad 9b bf 83 af aa 3e
       1.0452856 -1.3756503 -1.2162259 0.3333703
000130 bc 37 d7 bb 49 3e 99 3d c4 5a b7 3e 30 62 07 bf
       -0.0065679234 0.07482583 0.35811436 -0.528842
000140 ac 23 38 bf da 84 05 40 80 e9 c3 be 5d 24 06 bf
       -0.7192943 2.0862336 -0.38264084 -0.52399236
000150 6c 45 03 3f 7b 96 91 be 76 87 56 3d 27 96 8f bd
       0.51277804 -0.2843512 0.05237528 -0.07011061
000160 1d f3 b5 bd c9 ba a7 3d e7 5b 3e 3e 1f 8c a1 3e
       -0.08884261 0.08189923 0.18589745 0.31552216
000170 7a 90 46 bf 24 0f 64 be 6b 1e 0f bc 35 df 54 be
       -0.77564204 -0.222714 -0.00873528 -0.20788272
000180 1b 26 1c be b9 6e c4 be b3 25 93 3d d0 34 04 3e
       -0.15248911 -0.38365725 0.07184925 0.12910771
000190 42 8b 3d be be 75 a6 3e 37 35 ed 3e 5f cc 8c 3e
       -0.18510154 0.32511705 0.46329662 0.27499673
0001a0 c6 a8 92 bd af af 7d be cc bb 0c be 36 6b 59 3e
       -0.07161097 -0.24774049 -0.13743514 0.21232304
0001b0 12 1b 6d be 51 09 dc 3d c3 a4 44 3e 2b 38 6f 3f
       -0.23154858 0.107439645 0.19203477 0.9344508
0001c0 d8 e9 a1 bd cd 36 b5 3e e1 c6 d5 be ea a2 a9 bd
       -0.0790593 0.35393372 -0.41753295 -0.082830265
0001d0 b7 3f 13 be f0 13 9f bd d3 da d4 be 97 4a 22 be
       -0.14379774 -0.07767475 -0.415732 -0.15848766
0001e0 5f f5 1a be 17 b2 05 3f a0 66 60 3f 8b 54 b7 bf
       -0.15132664 0.5222487 0.87656593 -1.4322675
0001f0 18 a5 bb 3e 47 e5 3a 3e 4c ed ef 3e 8b 93 14 be
       0.36649394 0.18251525 0.4686073 -0.14509408
000200 ec 45 bd be fd b6 e7 be 67 55 63 3f 55 75 f8 be
       -0.3696741 -0.45256796 0.8880219 -0.48527017
000210 c5 c9 cf 3e 8a 39 3f 3e b0 b0 4d 3f 5d 69 81 bd
       0.40583625 0.18674293 0.8034773 -0.063189246
000220 0b d7 52 bf f6 60 3a be 77 90 d7 be d4 25 ac be
       -0.8235938 -0.1820105 -0.42102405 -0.3362261
000230 9e 37 fc be bf 85 2c 3d 9c 3f ca 3b 8f 03 98 be
       -0.49261183 0.042119738 0.0061721336 -0.29690215
000240 f6 21 62 3e 9c 97 a6 be 14 b1 51 be eb 86 1b c1
       0.22083268 -0.32537544 -0.20477706 -9.720439
000250 6c 0c 6e 3e f2 f9 be 3d ac 19 cb be 2c 99 3b bf
       0.23246926 0.09325017 -0.39668024 -0.73280597
000260 16 04 94 bf 19 eb c9 be 93 ef 11 bf 88 b0 a1 bf
       -1.1563747 -0.39437178 -0.57006186 -1.2631998
000270 c3 4f 04 c0 95 35 ab 3e 47 08 a4 3f f7 22 cf 3e
       -2.0673683 0.33439317 1.2815026 0.40456364
000280 85 fa 57 be 0e 4f f5 be 4a f1 84 bf 3f 85 94 3e
       -0.2109166 -0.47911876 -1.0386136 0.2900791
000290 23 5f 95 3e de d0 02 bf 42 3c bb 3e 07 93 b5 be
       0.29174146 -0.51099956 0.3656941 -0.35463735
0002a0 45 c2 84 3e 2f e7 76 bd ee 2d 60 be eb cb 2a bd
       0.25929466 -0.060279068 -0.21892521 -0.041698378
0002b0 8e 69 c7 3c 57 07 9d 3d 29 4e 5e 3e ef 31 e9 bc
       0.024342325 0.076674156 0.21709503 -0.028466193
0002c0 b8 73 d2 bd 6a 9c 94 3d 53 39 ae 3c 65 df 85 bd
       -0.10275978 0.07256396 0.021267569 -0.0653675
0002d0 00 8d 26 3d 19 73 50 bd 24 9d 2c 3c 69 84 0f 3f
       0.04066181 -0.050891016 0.010535512 0.56061417
0002e0 22 70 52 bd c8 38 68 3f b2 34 eb bd c9 79 6a be
       -0.05137647 0.9071164 -0.1148466 -0.2289802
0002f0 5a df 59 3d d4 58 d2 be a6 89 c1 be 72 f8 01 3e
       0.05319152 -0.41083395 -0.3780033 0.1269243
000300 aa ef ac 3f bf 98 ee be b0 18 c2 bf 6a 7a 3e bc
       1.351064 -0.4660091 -1.5163784 -0.0116258655
000310 64 56 c1 be 34 80 6a 3e 65 79 0d 3d 94 a9 c0 be
       -0.37761223 0.22900468 0.0345396 -0.37629378
000320 67 56 9d be 60 02 ea 3e cd ad a1 3e ae 07 47 c0
       -0.30729982 0.45704937 0.31577912 -3.1098437
000330 14 ee 1e be f7 be 9e be ff 6f 9e 3d ae e7 98 bd
       -0.15520507 -0.3100507 0.07736205 -0.074660644
000340 7f 39 19 bf 78 5c 3f bc be 80 8d bf 2f 9e 0d 3f
       -0.5985336 -0.011679761 -1.1054914 0.55319494
000350 fb 5a 1e 3f 7f fb a3 be d6 1e 68 3d 00 bc 0d 3f
       0.61857575 -0.32027814 0.056670032 0.5536499
000360 60 96 9e 3f a5 52 13 bf f5 6f 74 bd db 78 3f bf
       1.2389641 -0.5754798 -0.059677083 -0.74793786
000370 28 89 8a 3e fa 44 36 bf 58 22 c0 3e f7 aa ac 3e
       0.27057767 -0.71199 0.37526202 0.33724186
000380 b0 78 96 be 7d c9 80 3f 38 f9 6e bd f8 17 dc 3e
       -0.29388952 1.0061489 -0.058343142 0.42987037
000390 93 7e 1a 3e 0e 87 2a bf 67 1d 02 3e c4 04 86 3e
       0.15087347 -0.6661233 0.12706529 0.2617551
0003a0 ac 5c 38 bf 37 b4 c9 3b 7c 9b 4e be c5 ed 8a 3e
       -0.72016406 0.0061555165 -0.201765 0.2713453
0003b0 70 80 82 be 81 69 e9 bc 5c 0f ca 3e cc 93 53 bf
       -0.25488615 -0.028492691 0.39464843 -0.82647395
0003c0 b7 ad 8e 3e 84 56 71 bf 73 85 88 bf 09 7e 65 bf
       0.2786691 -0.9427264 -1.0665725 -0.8964544
0003d0 e0 22 91 be 33 96 55 3f d6 eb 86 bf a1 47 c3 bd
       -0.2834692 0.8343231 -1.0540721 -0.095351465
0003e0 6e 94 14 bf 9f bd 90 bf f4 c7 a8 bd d2 14 ea bd
       -0.58038986 -1.1307868 -0.08241263 -0.114297524
0003f0 46 e2 ac be f8 1f f0 be 17 48 3f 3f 84 9a 30 be
       -0.33766383 -0.4689939 0.74719375 -0.17246443

2.bias f4 [24]
000000 f9 f0 0b 41 a3 c6 93 41 99 f2 d4 be 1a a5 09 c1
       8.746331 18.47199 -0.41591337 -8.602808
000010 2b 7e 8e 40 ce c4 1e 41 ff b2 25 c1 6f 30 1f 40
       4.4529014 9.923048 -10.3562 2.4873312
000020 b2 56 84 40 38 ab 7d c0 15 67 1a 3c cb 4f 48 c0
       4.135583 -3.9635754 0.009423991 -3.1298702
000030 d6 33 11 c0 48 39 2a 40 e1 19 35 40 b1 91 aa 40
       -2.2687888 2.6597462 2.8297045 5.3302846
000040 14 af 21 c1 4e 94 53 41 22 ae 9f 40 10 6a 29 c1
       -10.105244 13.223707 4.9900064 -10.588394
000050 76 e5 87 40 64 72 f6 c0 9d 57 14 c0 6d e0 f5 41
       4.2467604 -7.7014637 -2.3178475 30.734583

4.weight f4 [24, 24]
000000 82 03 24 be dd 2f a0 3e 11 27 3d 3b 88 dd 99 3e
       -0.16016963 0.31286517 0.0028862397 0.30051827
000010 a0 a1 aa 3c b5 65 c7 bf 8b 1d 67 c0 d0 c0 cb bb
       0.020829022 -1.5577914 -3.6111782 -0.0062180534
000020 7d 4a 3b 3f e2 ee 9b bf a6 78 17 3f 48 47 7d bc
       0.73160535 -1.2182276 0.5916847 -0.015458889
000030 3a 87 bb be 5b de 96 3e 00 24 31 be d1 0b 05 3f
       -0.36626607 0.2946652 -0.17298889 0.51971155
000040 ea 70 e6 be 7e d2 84 3e 89 26 a0 bf c2 3f 98 be
       -0.45008022 0.25941843 -1.251176 -0.29736143
000050 52 4e 0f 3f e3 0f 7d bc f5 31 18 3e 8b c4 3d be
       0.5597888 -0.015445682 0.14862807 -0.18532006
000060 19 0c 8d 3e 41 16 55 bf 9b d8 ad 3d 4b 40 b1 3f
       0.27548292 -0.8323708 0.0848858 1.3847746
000070 e1 95 10 3e 99 32 5d 3c f9 f9 1d c0 32 89 16 bf
       0.14119674 0.013500833 -2.4683821 -0.58803093
000080 aa 71 7b 3f 5e 51 e5 be b9 09 cc bc 9e 4d bd 3e
       0.9822031 -0.4478864 -0.02490698 0.3697328
000090 09 3b 2e 3f ab 15 1f be b0 6e 4a bf cb aa c4 bd
       0.6805883 -0.1553561 -0.79075146 -0.09602889
0000a0 ee b7 05 3f c8 70 c4 bc 06 6b 6a 3f 34 52 09 3f
       0.5223378 -0.02397956 0.91569555 0.53641057
0000b0 0f 1c fa bf 5b ae bb bf 44 fe 9c bc ed cb f3 be
       -1.9539813 -1.4662584 -0.019164212 -0.4761652
0000c0 13 62 80 3e d7 82 aa 3d f2 2d b6 3a 22 b2 a7 3e
       0.25074825 0.08325737 0.0013899191 0.32753092
0000d0 d8 ba af bd 61 33 13 3d d1 f8 d6 3d e1 a9 20 be
       -0.085805595 0.03593767 0.10496677 -0.15689804
0000e0 09 a9 b0 3c b3 c4 e6 3d 89 33 13 3f 55 2d 01 3f
       0.021564977 0.11267986 0.5750051 0.50459796
0000f0 8c b4 2e 3e 50 99 21 be b0 38 4a bd 39 af ad bd
       0.1706106 -0.1578114 -0.049370468 -0.08480687
000100 4c e4 57 3d b6 ea 69 be c8 0e db be 69 82 14 bf
       0.052707955 -0.22843441 -0.42784715 -0.5801149
000110 c6 de b3 3d ba a4 33 bd 24 84 ad 3d d5 54 bd be
       0.08782725 -0.043858267 0.084724694 -0.36978784
000120 8a 92 e2 3e dc f0 4f bf c7 ed 65 bd 3d 7c dc bd
       0.44252425 -0.812269 -0.056134965 -0.10765884
000130 c0 f2 3f 3e b8 b1 11 c0 3e f4 97 bf 0f 3d cc 3e
       0.18744946 -2.276472 -1.1871412 0.39890334
000140 b8 39 27 bd 46 f3 28 bf c7 87 71 3f c8 46 79 be
       -0.04082653 -0.65996206 0.94347805 -0.24343407
000150 07 cc 41 bf a1 de 62 bf af 33 bb be 4c ad 03 be
       -0.75701946 -0.88620955 -0.3656287 -0.12859076
000160 fb b0 03 bf 76 34 26 bd 18 e9 6b 3c 53 8e ba 3d
       -0.51441926 -0.040577374 0.014398836 0.091091774
000170 9e 1c fa be 8c a4 c9 bc a6 20 19 3f 08 64 d6 be
       -0.48849958 -0.024614595 0.5981544 -0.41873193
000180 3f 99 ba 3f 50 fb 04 bf a1 fa 99 3c 49 f8 72 3e
       1.4578017 -0.5194597 0.018796267 0.23727526
000190 47 c0 ba bd b8 e6 0e bd 07 ee 45 3e 7b 63 19 be
       -0.09118705 -0.034888 0.19329081 -0.14979355
0001a0 62 7d 35 be 60 32 97 be 24 7b c4 3e 43 c7 de bc
       -0.17723611 -0.2953062 0.383752 -0.027194625
0001b0 c5 59 76 be fd 7e 43 3e 91 86 7b 3d 5b be 86 3e
       -0.24057682 0.19091411 0.06140763 0.26317105
0001c0 e6 8c 9f bc c2 8f be be 58 b5 5c be b3 60 9e be
       -0.019476365 -0.37219054 -0.21553552 -0.3093315
0001d0 d5 16 38 be 7b 52 e0 be ac b2 8d 3e 34 57 8b c0
       -0.1797746 -0.43812928 0.27675378 -4.354395
0001e0 21 8a 51 3f 77 3e d1 3e e8 07 f4 3c 62 7e 3a 3f
       0.81851393 0.4086797 0.029788926 0.72849095
0001f0 7d 17 19 3f 37 78 f8 bd 96 d8 f1 be c2 b7 eb bd
       0.59801465 -0.12132304 -0.47235554 -0.115096584
000200 71 52 87 3e 09 6e cd bb 11 1e 48 3f 32 59 7c 3e
       0.26430085 -0.0062692207 0.7817088 0.246434
000210 a8 9c 5c 3d 2c 6d 79 3e 7c e4 4c bd 1c e7 37 3d
       0.053860337 0.24358052 -0.050022587 0.044898137
000220 29 76 0e be f9 df 26 bf 97 52 7b be ac 09 7b 3d
       -0.13912262 -0.65185505 -0.24543224 0.06128852
000230 6d cd a7 bf 3c 3e c7 be db e0 a3 be a3 df 06 3f
       -1.3109566 -0.3891467 -0.3200749 0.5268499
000240 39 ce be be 71 fd b8 3d b5 7c 62 be 1a 37 18 3e
       -0.3726671 0.09032715 -0.22117884 0.1486477
000250 15 b9 5d bc 24 6c fd bc a3 80 87 3e bf cf 0b bf
       -0.0135328965 -0.030935355 0.2646533 -0.5461387
000260 d6 09 cc 3d 85 85 51 3b 4c da 6c 3c cc a3 f9 3d
       0.099628136 0.0031970453 0.014456343 0.12189445
000270 d5 bb f7 bd 58 61 05 3e fd 10 42 3d 27 7a a7 be
       -0.12096373 0.13025415 0.047379483 -0.32710382
000280 59 eb 4c 3d 0b 9c 43 3e 1c 39 ac be eb 89 f0 3e
       0.050029133 0.19102494 -0.3363732 0.46980223
000290 88 9c b8 bd 9d 03 7e bd 89 cd 03 3f c0 ad 99 3f
       -0.09014231 -0.062015165 0.51485497 1.2006149
0002a0 e7 d5 72 be 7c 96 af 3e 41 60 0c bf 3f b2 0d 3d
       -0.2371441 0.34294498 -0.5483437 0.034593817
0002b0 d2 cc 9c be 8c 05 93 bd 63 25 02 3e a6 45 a0 3e
       -0.30625015 -0.07178792 0.12709574 0.31303138
0002c0 eb 9d 55 3c ef 2b 33 3d 24 84 a3 be c9 e3 85 bd
       0.013038139 0.04374307 -0.31936753 -0.06537587
0002d0 12 f5 db bd 20 39 74 3d df 24 ea 39 4c 69 c3 3d
       -0.10740103 0.05962479 0.0004465943 0.09541568
0002e0 4e c5 8f 3c fc 4b 1d be 80 44 25 bc 78 fd 17 3e
       0.017550137 -0.15361017 -0.010087132 0.14842784
0002f0 05 b1 21 bd 76 b3 ba bd ae fa c4 3e ab d2 f0 bd
       -0.03947546 -0.09116261 0.38472503 -0.11758932
000300 31 3f 2f 3f 60 ff 52 3d 54 01 b6 3e bd a2 83 be
       0.684558 0.051513076 0.35547888 -0.25710097
000310 c5 7e ad 3d 3c 2a 81 3c f3 0c 99 3d 44 49 94 be
       0.08471445 0.01576721 0.07473173 -0.28962147
000320 e6 55 f4 bd 87 9f ef 3d 18 12 d5 3d b4 17 29 3e
       -0.11930446 0.11700349 0.10403842 0.16512948
000330 f2 72 65 3e f7 4e 8e 3e 69 06 93 3e ef 68 37 be
       0.2240713 0.2779462 0.28715828 -0.17911123
000340 7a 1a ef 3d e6 f1 14 be 13 a1 2b 3e 30 e2 bb 3d
       0.11674972 -0.14545402 0.16760664 0.09174001
000350 0a 45 0e bf d5 be a2 bd 96 25 b6 be 9c 31 73 3d
       -0.55574095 -0.079465546 -0.3557555 0.059373483
000360 49 f4 30 be 10 bc d5 bd e3 35 e8 3d bf f9 d4 3d
       -0.17280687 -0.10436261 0.11338403 0.10399198
000370 1b a0 8b bc a7 19 d5 3d 32 1b a9 3e ae e1 56 3c
       -0.017044118 0.104052834 0.3302856 0.01311533
000380 96 b8 20 bd 6e 57 98 3d 79 5d 89 3e e5 0a 16 bd
       -0.039238535 0.07438551 0.26829126 -0.036631484
000390 67 c8 7d 3d e2 8c d7 bd 0d 6c 2d 3f 81 ef 48 3e
       0.061958697 -0.10524918 0.67743 0.19622613
0003a0 58 5b cb bc 48 06 50 3d d0 96 c9 3c c5 5a d6 bb
       -0.02482383 0.05078724 0.024608046 -0.0065415823
0003b0 c7 5f d8 bc c7 5b 9f bd 31 bc f4 bc 58 be c0 3e
       -0.026412858 -0.07781177 -0.029874893 0.3764522
0003c0 01 ad c9 be 90 52 fd be f5 85 0f 3e e9 c7 26 be
       -0.39389804 -0.49477053 0.14015944 -0.16287197
0003d0 86 df 01 3e e0 74 8e be 86 7f c2 3d 51 fd ca be
       0.12682924 -0.27823544 0.094969794 -0.3964639
0003e0 3a e2 a4 be 2d 84 98 3d 13 3e 02 3f 57 da 1a 3e
       -0.32203847 0.074470855 0.5087597 0.15122353
0003f0 7b b6 8e 3a 21 fa 68 3e 6a 09 3d be 24 93 1c 3e
       0.0010888124 0.22751667 -0.18460622 0.15290505

4.bias f4 [24]
000000 33 62 57 40 7e 87 88 bd e7 11 95 40 55 5e 8f c1
       3.3653686 -0.06666468 4.6584353 -17.92106
000010 fd f6 20 c1 ae b8 39 c0 6e 9c 83 c1 6a d0 35 40
       -10.0603 -2.901897 -16.451382 2.8408456
000020 75 77 98 3f db d4 af 3f 88 ad f2 40 7d e4 8a 3c
       1.1911455 1.3736833 7.583683 0.016954655
000030 ab 58 d4 c0 d2 0a c2 40 4c 0a c1 3d 3e e2 dd bf
       -6.6358237 6.063821 0.09425792 -1.7334669
000040 6d ea 60 c0 e2 23 ad c0 4d 06 13 3f e4 a4 78 c0
       -3.5143082 -5.41063 0.5743149 -3.8850641
000050 0f c9 84 41 fb 84 e2 40 19 7b 9c 3d 28 ca 25 41
       16.598173 7.078733 0.076406665 10.361855

6.weight f4 [24, 24]
000000 04 4b c1 bd 4b 4a 61 bd e0 1a a7 3e cc eb 02 be
       -0.09438136 -0.055002492 0.32637691 -0.12785262
000010 ac 86 0f bd 16 fe 02 3e ca 0b 52 3e ef 9f f0 bc
       -0.035040542 0.12792239 0.2051231 -0.029373137
000020 0c 7a dd bd 05 5c 0c 3e 03 5c bd 3d 84 da 3c be
       -0.10814294 0.13706978 0.092460655 -0.18442732
000030 a2 4b e2 3d d2 43 65 be 75 86 a8 be 34 5b 2e bd
       0.11049582 -0.22389153 -0.32915083 -0.042567447
000040 15 9b 37 bc 85 9e 25 be 22 86 d9 3e 8d b4 33 be
       -0.011206408 -0.16173752 0.42485148 -0.17549343
000050 97 58 cd 3d ee 89 8d 3e 04 09 b6 bd 63 6f ad be
       0.10026663 0.27644295 -0.08888438 -0.33874044
000060 f9 db 87 3b 05 2b 9f 3e 69 a5 03 3e 84 6d 00 bf
       0.004146096 0.3108751 0.12856068 -0.5016711
000070 57 cd 9a 3e 7c 18 09 3d 4c 12 38 3e 1f d2 25 3d
       0.30234787 0.033470616 0.1797573 0.04048359
000080 34 b9 2a 3e 83 3a c3 bd f6 8c 68 3e 9e 4f 29 3c
       0.16672212 -0.095326446 0.22710022 0.010333924
000090 8b 52 06 bf 21 a7 0b c0 04 e1 c7 3d 97 a2 1c 3d
       -0.524697 -2.1820757 0.09759715 0.038240995
0000a0 9e ae b0 bf 37 6a 62 be 49 4c 0f c0 c9 df a0 3d
       -1.3803289 -0.2211083 -2.239031 0.07855184
0000b0 7d 21 0f 3e e5 1b 8c 3f 3c 2c 8a be 9a 52 25 bf
       0.13977619 1.0946013 -0.26986873 -0.64579165
0000c0 bf 1a 55 bd f5 1b 01 bd 89 22 e2 3c be 22 e8 3c
       -0.05202746 -0.031520803 0.027604358 0.028336879
0000d0 f4 7d b2 3c 04 ae 09 3d 63 d6 e6 3d d3 f2 fe 3d
       0.021788575 0.03361322 0.1127136 0.12448659
0000e0 15 88 15 bd de 41 3a 3f 41 6b 97 3d a5 82 b0 3c
       -0.03650673 0.72756755 0.07393504 0.021546671
0000f0 eb aa 0b 3d bf 95 95 bd c2 40 ab 3c 97 c3 56 3d
       0.034098547 -0.073039524 0.020904902 0.052432623
000100 18 09 10 3d 13 c3 99 bd 29 0e 2e 3e 30 d1 75 bd
       0.035164922 -0.075079106 0.16997589 -0.06001395
000110 a8 80 16 be 07 b8 ad 3c 3d af 35 3e 95 ee 3e be
       -0.14697516 0.021205915 0.1774263 -0.186457
000120 f5 c4 62 3f a7 21 17 c0 93 75 15 be 1d 87 4c bf
       0.8858178 -2.361429 -0.14595632 -0.79893667
000130 47 1e 9a bf cf e1 8b 3e 49 a8 c9 bf a5 a7 a4 3e
       -1.204049 0.27320716 -1.5754482 0.32159153
000140 f1 9f 14 c0 1b a2 b9 bd e2 73 8a 3d fd a1 8d 3e
       -2.322262 -0.09064122 0.06760384 0.2766265
000150 79 87 ea bf 4d f5 5d 3d 1e ef 2a 3f 0b 48 07 3e
       -1.8322593 0.054189015 0.66771114 0.13211076
000160 a2 9e 24 3f 7e 51 22 c0 e3 39 ee be c5 0a 2b be
       0.64304554 -2.536224 -0.4652854 -0.16703327
000170 79 48 c7 bf 6b 23 61 3d 3d c4 db be f8 01 84 3f
       -1.5568992 0.054965418 -0.42923155 1.0313101
000180 53 fa e0 bf 88 48 07 c0 7e 7c f7 b8 75 8e da bf
       -1.7576393 -2.113802 -0.00011801066 -1.7074724
000190 ea 73 c6 3e 83 7f 2f 3f 1d 5b 8c be 71 3b f2 be
       0.3876031 0.6855394 -0.27413264 -0.47310975
0001a0 30 cc 86 bd 0b c2 bf 3c 5f 96 9e bf 06 fb 12 3f
       -0.065819144 0.023407957 -1.238964 0.5741428
0001b0 07 4b c3 3d b8 b4 ce bf bf ac ab 3e 9c 6c 02 be
       0.09535795 -1.6148901 0.33530232 -0.12736744
0001c0 54 fb 1a bf ee 5b 2f be 44 12 9d be 69 1e d8 be
       -0.60539746 -0.17124912 -0.30677998 -0.422107
0001d0 3b cf 3d 3e bf 38 e5 bd 7e a0 47 3d a7 87 45 3e
       0.18536083 -0.11192464 0.04873704 0.19290029
0001e0 bf 57 17 be 37 2e b5 3c 9c dd 08 3e 8c 10 8e 3b
       -0.14779566 0.022116764 0.13365787 0.0043354686
0001f0 a5 7f 08 be bc a5 d8 3b 47 57 a4 be f6 57 28 3c
       -0.13329943 0.006611554 -0.32097837 0.010274878
000200 31 f1 99 3d 99 04 8f 3d 77 fa 1e bd 4c 15 86 bd
       0.07516707 0.06983299 -0.03881308 -0.06547031
000210 c2 b7 1d bd 5a 56 a8 be 45 fe 54 3e be 57 08 3c
       -0.038505323 -0.3287838 0.20800121 0.008321701
000220 a4 48 01 3f 3b a9 8d bd c8 42 00 3e 37 a1 e5 bd
       0.50501466 -0.06917044 0.12525475 -0.1121239
000230 41 53 16 3e d6 d5 0d 3e d3 8a e9 3d 4f e0 8b be
       0.14680196 0.13851103 0.11403432 -0.2731957
000240 66 16 83 3c 69 9e dd 3d da cb 2e 3e ad 52 6f 3c
       0.016001891 0.1082123 0.1706995 0.014607114
000250 12 1f 78 bd 58 8b 9e 3d 46 69 33 3e d2 f7 de 3d
       -0.060576506 0.077414215 0.17520627 0.10887112
000260 5e fb b2 bd e0 ff 62 bd 2d 1f 95 bd 59 be 3d 3d
       -0.08739351 -0.055419803 -0.07281337 0.046324108
000270 12 6d df bd 69 2c 3a be e2 10 63 3e 32 fb 82 3e
       -0.109094754 -0.18181004 0.22174409 0.25582272
000280 b6 fe 96 3c 26 88 01 be 95 75 21 3e be d7 bc 3e
       0.018432003 -0.12649593 0.1576751 0.36883348
000290 12 5c fe bd 2d e9 74 3e 5a ef 0d 3f 5b 27 4f be
       -0.12419905 0.23917075 0.55443347 -0.20229857
0002a0 af de 61 3d ad bd 63 3e 04 4d 14 3e 8f bd 3f be
       0.05514401 0.22240324 0.14482504 -0.18724655
0002b0 e0 15 3a bd f4 d7 a4 3c 53 4f 9d bc a8 de e1 bd
       -0.045431018 0.020122506 -0.019202864 -0.110287964
0002c0 fe 3e 0d 3e d4 a8 1a 3e 3e e5 a1 bd 97 42 cb 3d
       0.13793561 0.15103465 -0.079050526 0.099248104
0002d0 85 fc 7d bd fc d9 88 bd 98 ac 59 3d e8 fe f3 3d
       -0.0620084 -0.06682202 0.053143114 0.11913854
0002e0 cc 2c 74 3d 1a e5 12 bc 5d 6b a9 bd f2 26 fe 3e
       0.059613034 -0.008965755 -0.08272431 0.49639088
0002f0 36 92 e5 bd a5 f4 b2 3d 7c 0f 4b bd 16 84 79 3d
       -0.11209528 0.087380685 -0.049575314 0.060916983
000300 37 9d 9b bc 77 28 ea 3e 39 38 14 3e 44 df 99 bd
       -0.018995864 0.45733997 0.14474572 -0.07513288
000310 6a 90 4f 3e 94 11 4c be 24 79 d3 bd 5a 43 df 3e
       0.20269933 -0.1992858 -0.1032584 0.43606073
000320 99 08 02 3f 91 d6 6b 3d 7b 1c 8a 3d 41 46 1f 3e
       0.5079437 0.057577673 0.067437135 0.15554143
000330 c7 8e 21 bf 5d 5d 70 3e fb 33 87 3e c6 f3 c9 be
       -0.63108486 0.23473115 0.26406845 -0.39443797
000340 fd 6d a8 3e 05 f8 86 3d 65 06 81 bf f2 ae 9a bd
       0.32896414 0.06590275 -1.0080076 -0.075528994
000350 0a 05 8a bf 68 52 94 be 4e f6 d7 be eb 81 e5 bd
       -1.0782788 -0.2896912 -0.42180103 -0.112064205
000360 1f b7 5a be 10 31 21 3c 3d 19 a6 3d de f0 e9 bc
       -0.21358918 0.009838358 0.081102826 -0.028557237
000370 35 7d f9 bd 79 83 94 3e 57 13 81 be da 2b 2e 3e
       -0.121820845 0.29006556 -0.25210068 0.17008916
000380 94 c5 c9 3d 2a 57 4c 3e 2f 2e 5f 3c 87 a6 32 be
       0.09852138 0.19955125 0.013621851 -0.17446338
000390 8e a2 10 bd ea af bd bd de 84 7b 3e b4 96 2b 3d
       -0.035311274 -0.092620686 0.24562404 0.04189177
0003a0 61 b8 81 be 41 1b 08 be 88 53 4e bd e8 f1 11 be
       -0.25335982 -0.13291647 -0.05037263 -0.14252436
0003b0 c7 a8 23 3e b0 08 35 bf 2a f9 9d bc d5 7d ad be
       0.15982352 -0.7071638 -0.01928385 -0.33885065
0003c0 ae 77 83 3d ae 0e fb bc e6 26 9a be 72 dd ef be
       0.064193115 -0.030646648 -0.30107802 -0.46848637
0003d0 47 bc 5d be c9 b2 8f 3e 8e 2b c8 be f9 6f c6 bd
       -0.21653853 0.2806609 -0.3909573 -0.09689326
0003e0 c1 e9 1a be 0e 1a cc bd 86 4c 7a be 01 dd 88 be
       -0.15128233 -0.09965907 -0.24443254 -0.26731113
0003f0 fc 40 bd be 83 73 c5 bd c8 c9 bf 3d 9a e6 64 3e
       -0.36963642 -0.09641173 0.093646586 0.22353593

6.bias f4 [24]
000000 0a e8 eb be 92 b8 95 40 63 a9 81 3e e2 8a 43 41
       -0.4607547 4.6787806 0.25324544 12.221407
000010 ce 98 8d c1 1f 5a 12 c0 33 94 a6 40 f6 3d bd 3f
       -17.699612 -2.2867506 5.2055907 1.4784534
000020 bd 86 fd 40 2c b5 1e c0 c4 78 14 40 40 0b f0 3e
       7.9226975 -2.4798079 2.319871 0.46883583
000030 73 6a 80 c1 66 11 38 41 0f 87 bc 40 ee 3d 9d bf
       -16.051977 11.504248 5.8914866 -1.2284524
000040 bb d8 6f c0 03 6c 8b c0 e7 1a b2 c1 ec 76 10 be
       -3.7476032 -4.356935 -22.263136 -0.14107865
000050 6d 9d a0 40 2a 11 7a 3f 71 e1 80 c1 7c fa 68 c1
       5.019217 0.9768244 -16.110079 -14.561153

8.weight f4 [6, 24]
000000 74 66 14 3e 92 34 c5 ba 5e d2 c7 3e 3c 56 b2 3c
       0.14492208 -0.0015045574 0.39027685 0.021769635
000010 72 67 9e 3e c1 00 31 3d 2b 7b ba bd 7d ab d6 3d
       0.30938298 0.04321361 -0.09105524 0.104819275
000020 c5 fc 00 bc d4 ce cf 3d c5 4c 42 bb b3 2b 10 bd
       -0.007872765 0.10146871 -0.002964781 -0.035197925
000030 c8 97 83 ba 4c 6c dc 3c a4 58 4f bd 5d 71 2a bc
       -0.0010039741 0.026907109 -0.050621644 -0.0104030045
000040 9e 72 29 bc e2 47 83 3c 3c bf 9d bd a3 f8 c5 bc
       -0.010342268 0.016025487 -0.07702491 -0.02416641
000050 c1 5d 46 3d 52 0b 58 bb b3 9a 90 bb 69 fb a6 3c
       0.048429254 -0.0032965732 -0.004412973 0.020383554
000060 cf d0 81 3d e8 ff c1 bc 05 0c 5a 3e 3f 4e 93 3c
       0.06338655 -0.023681596 0.21293648 0.017981647
000070 70 0b 62 3e d5 de 17 3e a6 74 2b 3d 1d bc 2f 3c
       0.22074676 0.14831097 0.04185929 0.010726002
000080 3a 71 29 bb 3f 3f 01 be 01 3c b2 bc bb 2a c5 bd
       -0.0025854842 -0.12621783 -0.021757128 -0.09627291
000090 8d b6 4c 3b 4d 11 b2 3d 3a 38 39 3e 11 40 44 bd
       0.0031236738 0.08694706 0.18087855 -0.04791266
0000a0 bf 90 3b bc 1d 34 0e bd 66 8a 53 be be 8f a5 bd
       -0.011448084 -0.034717668 -0.20658264 -0.08084057
0000b0 15 cf 45 3e 53 4e 60 3b 39 65 d5 bc ec b9 99 3d
       0.19317277 0.0034226372 -0.026049243 0.07506165
0000c0 72 dd 73 3d 64 ae 54 bd f5 b7 02 3e 2d 83 b2 3d
       0.05953736 -0.051924124 0.12765487 0.08716426
0000d0 ad 8b 74 3d 37 86 cb bd 55 36 74 3e e6 6a b1 bd
       0.059703518 -0.09937709 0.23848851 -0.086629674
0000e0 7a 7b 0d 3c 7f 00 ad bc 0e ca 8f bd bf 02 e5 bc
       0.008635396 -0.0211184 -0.07020961 -0.027955411
0000f0 c1 1f 45 bc 42 fa 1c 3e 19 52 65 3e 01 81 d5 bd
       -0.0120314965 0.15329841 0.22394599 -0.10424996
000100 9d 85 84 bd 1c 64 d1 bd 54 1b 79 be 91 6e 3a 3e
       -0.06470797 -0.102241725 -0.24326831 0.1820624
000110 65 ee a5 bc 11 5c 08 bd e7 a3 c8 bd 9e 12 be 3d
       -0.020255277 -0.033290926 -0.09796887 0.09280895
000120 29 dc 38 bd 25 0e 5b bc 94 c3 d6 3d 85 96 de 3e
       -0.045131836 -0.013370072 0.10486522 0.43474212
000130 e6 84 2f 3d 6a ed 5e bc 75 6b a2 3e 23 cc f9 bd
       0.04285135 -0.013606409 0.31722608 -0.12197139
000140 8b 4c f1 bc f7 91 fe bc d8 d8 30 be f0 00 40 3e
       -0.029455444 -0.03107546 -0.1727022 0.18750358
000150 52 78 cd bd e4 5b 3f 3e e2 ca 21 bd 13 a0 b1 bd
       -0.10032715 0.18687397 -0.039500125 -0.0867311
000160 b0 ba 19 3e 62 53 e8 3d 1c 27 e8 bd 19 fb 3b bd
       0.15012622 0.11344029 -0.113355845 -0.045893762
000170 5b 1c 31 bd 42 d8 27 bd ea e1 85 be 9f 28 dd 3d
       -0.043239933 -0.040977724 -0.2614892 0.107987635
000180 75 a4 49 3b c1 4b c6 bc 1c d1 31 bc f5 63 a9 3f
       0.003076819 -0.024206044 -0.010853078 1.323363
000190 74 ee 19 3d d7 2a 17 3c 2d 26 7e 3e ef 5d 2b 3e
       0.037580922 0.009226522 0.2481925 0.16735052
0001a0 39 e8 28 be 1e 27 b6 3c 19 7e 68 3e c8 bc 84 bb
       -0.16494836 0.02223545 0.22704352 -0.004050825
0001b0 15 12 9b be cc 89 44 3e 32 82 0a bd bf 59 98 bd
       -0.30287233 0.1919319 -0.03381557 -0.07438993
0001c0 e4 bf 01 3e 4f 9f 42 3e 5a 44 1a bd 4d a8 8c bd
       0.12670857 0.19006084 -0.03766284 -0.06868038
0001d0 cd 65 8d bd d8 9f a5 bd 8d 2c 7e be 8f b7 2a 3e
       -0.069041826 -0.080871284 -0.24821682 0.16671585
0001e0 64 f3 37 bd 40 ff 90 3e 8f fc 4f bd 4e 4f 0d 40
       -0.04490985 0.2831974 -0.050777968 2.2079654
0001f0 d7 ac 9d 3c f0 db 90 3c 38 28 48 3e 0d cb 8b 3e
       0.019247456 0.017683 0.19546592 0.27303353
000200 7f 82 e7 bd 01 a2 74 3d fc f5 69 3b 65 f3 2b bc
       -0.11304187 0.05972481 0.0035699597 -0.0104950415
000210 b1 c0 03 bf 65 8a e4 3d 21 c1 6f bd 0b 20 ab bc
       -0.514659 0.11159209 -0.05853379 -0.020889303
000220 ca ee d4 bc 68 fd cb bb 2a 3d 3a bc 3e 44 41 bd
       -0.02599277 -0.0062252767 -0.011367122 -0.04718422
000230 18 a6 ec 3b 9e 0c 84 3e 64 61 d4 bd 34 c2 d5 3d
       0.0072219484 0.25790876 -0.10370138 0.10437432

8.bias f4 [6]
000000 fd bd 6f bc 84 a3 ef bb fd 28 63 3c d3 04 76 3c
       -0.014632699 -0.0073131938 0.013864753 0.015015799
000010 78 bf a9 bc c6 b0 98 bc
       -0.020721182 -0.01863898
