models/FF_no_station/FF_no_station_depth1_width48_batch106.pth (torch, 18356 bytes, 6 tensors)

0.weight f4 [48, 24]
000000 38 fc 58 3f ea 24 9d be 9d 99 86 bd e9 00 0d 3f
       0.84759855 -0.30692226 -0.06572268 0.55079514
000010 a7 a7 35 3e ae 18 8d be 91 20 50 bb ee 45 5d 3e
       0.17739736 -0.27557892 -0.0031757692 0.21608707
000020 06 7b 90 3e 09 bb 65 3d d8 26 94 be 87 54 eb bd
       0.2821886 0.056086574 -0.28935885 -0.11490732
000030 89 a9 ac be 7c 1d 08 be 56 59 c5 3b 49 c9 40 bd
       -0.33723095 -0.13292497 0.0060226126 -0.04706696
000040 59 a5 04 3c d3 62 f3 bd f6 3c 96 bd 2e 60 79 3e
       0.008096063 -0.118840836 -0.07335846 0.24353096
000050 3f 85 7e 3d 52 8a 16 3f 7c 20 0b 3f eb 5d 01 c0
       0.062138792 0.5880481 0.5434644 -2.0213573
000060 d8 f7 4b 3f ab 80 27 bf dd 12 a8 3f 24 1e 68 be
       0.79675055 -0.65430707 1.3130757 -0.22667748
000070 b6 f3 e1 be db 84 b4 3e d3 4c 94 3e 4c 9d 3b 3e
       -0.4413125 0.3525761 0.28964862 0.18321723
000080 d9 07 45 be 27 0c 68 be a8 e1 8e bc 43 b7 28 3d
       -0.19241275 -0.22660886 -0.017441586 0.041190397
000090 3d e1 39 bd f2 1b a1 be 4b 3b bc 3e dd ee 8b 3e
       -0.04538082 -0.31466633 0.36763987 0.27330676
0000a0 ac f7 ee be d3 47 8d be f6 d1 a0 be c9 bf 01 3d
       -0.46673334 -0.2759386 -0.31410187 0.03167704
0000b0 fc c6 a6 3d 1e 13 f8 bd da a7 76 3e b0 b0 8d bf
       0.08143422 -0.12113021 0.24087468 -1.1069546
0000c0 46 48 75 3e 04 56 12 be 06 6d 07 bf cb b5 cb be
       0.23953351 -0.14290625 -0.5290073 -0.39787135
0000d0 5a f7 45 be ae c8 39 3f be 33 ec 3e b7 eb 14 3e
       -0.19332638 0.7257184 0.46133226 0.14543043
0000e0 88 81 53 bd 58 94 2a be 14 8f 5b bf c2 2d 06 c0
       -0.051637203 -0.16658151 -0.85765195 -2.0965428
0000f0 54 98 af bf 8a 6d 99 bd 49 fe ca bc b0 8d 26 3f
       -1.3718362 -0.07491596 -0.024779456 0.6505995
000100 90 60 70 3f b9 78 2c bf c0 81 bf be 96 86 ea 3e
       0.9389734 -0.6737171 -0.3740368 0.45805806
000110 a2 e6 45 3e 55 1c 97 be df 9a cd bd 57 6d a7 3e
       0.1932626 -0.29513803 -0.10039305 0.32700607
000120 ad 7e da be 75 e9 75 3f bc 46 7e bf 6d 99 47 3f
       -0.4267477 0.9605935 -0.9932668 0.77968484
000130 0d b0 06 be 93 6f 1b 3e b5 ad bd bd 33 f7 83 be
       -0.13153096 0.15179281 -0.092616476 -0.25774536
000140 78 e6 9e 3d 4b e3 0b 3d d3 da 47 3d 85 2b 09 3e
       0.07758802 0.03415231 0.04879267 0.13395508
000150 d4 a3 8c 3d 34 b4 ac bd 11 67 c1 be af a2 42 be
       0.06867185 -0.084328085 -0.37773946 -0.19007371
000160 9a 41 10 3e d0 7f 36 bc 93 30 d1 bc 6a 03 aa bd
       0.14087525 -0.011138871 -0.025535857 -0.083014324
000170 fa b0 a8 3e 75 62 60 bd 4a 98 f5 be c1 13 0d 3f
       0.32947522 -0.054781396 -0.4796775 0.5510827
000180 09 96 e9 3e a4 b0 0e bf d5 98 3c bf 33 69 54 3e
       0.4562228 -0.5573828 -0.73670703 0.20743255
000190 b9 f0 09 3f 2c 84 8d be 7f 78 47 3d a3 0d e3 bd
       0.5388294 -0.27639902 0.0486989 -0.110865854
0001a0 73 96 7e 3c 0b 40 c3 3e 84 48 6c bd 39 70 a2 be
       0.0155388 0.38134798 -0.057686344 -0.31726244
0001b0 16 3b 2b bc 36 97 c3 3e 8f ca c5 3e 80 d5 c5 be
       -0.010451099 0.38201302 0.38631102 -0.3863945
0001c0 cf fd a9 be 5c ee 60 bc 30 26 10 3f 2b 4a d3 3e
       -0.33201453 -0.013728704 0.5630827 0.41267523
0001d0 7e 52 86 be 2d 65 8c be c1 76 31 bf a0 e2 19 3f
       -0.26234812 -0.2742094 -0.6932183 0.6011143
0001e0 57 99 b0 bf 57 cc 1b bd 3c de cf bd 30 46 4e bd
       -1.3796796 -0.03803667 -0.1014981 -0.050359905
0001f0 98 af ad 3e aa 29 ca 3e ab ee 62 be 20 26 9c bd
       0.3392303 0.39484912 -0.22161357 -0.07624459
000200 02 17 34 3e d5 a9 49 3e a2 28 04 3d 10 19 02 be
       0.17586902 0.19693692 0.032265313 -0.12704873
000210 d4 b2 a5 be 8f ee 8c 3e 87 94 c0 3e 9a 99 ae 3d
       -0.32362998 0.27525756 0.37613317 0.08525391
000220 b3 11 80 be 18 d8 9a bf 73 75 21 c0 ce 51 c6 bf
       -0.25013503 -1.2097197 -2.5227935 -1.5493715
000230 ba b5 18 3e 78 8c 86 3f a3 7d 11 3f 5a c1 bd 3e
       0.14913073 1.0511618 0.5683233 0.37061578
000240 22 e7 01 c0 8f 43 49 bd f7 bb 0f 3f 4d ce b0 3e
       -2.0297322 -0.049136695 0.56146187 0.34532395
000250 1a d1 a6 3e ad 68 09 3f f5 3e b7 3e dd 16 a2 be
       0.32581407 0.5367535 0.3579022 -0.31658068
000260 07 df 75 3e 8f 7e 92 3e a7 2b 75 bf 85 62 e2 bf
       0.2401086 0.28612182 -0.95769733 -1.7686316
000270 49 c3 e8 be e6 20 19 3f d6 50 f4 3e fa ac 6a bd
       -0.4546149 0.59815824 0.47717923 -0.05729387
000280 9a 13 60 bf 2d dd 13 be fe ad f8 3e a7 df de 3d
       -0.8752991 -0.1443984 0.48570246 0.10882502
000290 a5 a2 3b 3e 31 ca 92 3e 7b f8 25 bf 5f ac c2 be
       0.18323763 0.28669885 -0.64832276 -0.38022134
0002a0 c0 d9 26 3f 33 4f cb 3e 68 77 49 be 6b b0 fd 3e
       0.6517601 0.39708862 -0.19674456 0.4954866
0002b0 47 f3 84 3e 71 96 4a be 95 ba 55 be 7c 4c ab 3d
       0.25966856 -0.19783951 -0.20871957 0.083641976
0002c0 0b c4 37 3e 1e 45 95 3d 63 f3 ba bb 86 73 80 be
       0.17945878 0.07288574 -0.0057052835 -0.25088137
0002d0 0e 24 43 3d 3c d9 2c 3e 92 2e a5 3d ff f9 f5 3d
       0.047641806 0.16879743 0.08065523 0.120105736
0002e0 49 cd 82 bd 8d 53 ec bd 76 63 b8 3c 4d 1a 01 3f
       -0.06386811 -0.115393735 0.022508364 0.50430757
0002f0 3e 57 b2 be cd 42 01 c0 97 a8 30 c0 8e 84 58 3f
       -0.34832186 -2.0197022 -2.76029 0.8457726
000300 a6 1f d4 bf 96 01 03 bf 7d 49 df 3e 9a e8 20 3f
       -1.6572158 -0.51174295 0.43610755 0.6285492
000310 ab 01 e5 be 00 ce 3d bf 71 ad 8d 3e f1 a7 8e 3e
       -0.44727835 -0.74142456 0.27671388 0.27862504
000320 1c 22 51 bd 8b f8 53 3e 1d dc 82 bd a1 a0 06 3c
       -0.05105792 0.2070028 -0.063896395 0.008217008
000330 12 56 92 3e 31 b1 2b 3e 32 45 5a 3e 13 a5 17 be
       0.2858129 0.16766812 0.21315458 -0.14809065
000340 dc f7 85 be 1e d3 69 be 34 2d 3a be 0e 0c ba 3e
       -0.26165664 -0.22834441 -0.18181306 0.36337322
000350 59 e8 ef 3e 83 31 bc 3e 4c a5 72 be 58 09 a8 3b
       0.46856955 0.36756524 -0.23695868 0.005128067
000360 cc 2a df be a4 1a 6c 3e f0 45 4a be 1d 2a 53 3f
       -0.4358734 0.23057038 -0.19753242 0.82486135
000370 41 ff b3 3e 2d 8e 1d bf 62 06 2b bf d6 01 72 bf
       0.3515568 -0.6154507 -0.66806614 -0.9453405
000380 23 1c 39 bf ab 7e ce 3e c0 cd 60 3e fa f0 7b 3e
       -0.7230856 0.40331015 0.21953487 0.24603644
000390 45 44 f7 3e 31 99 9a bd b2 9e 7b be f2 20 a7 3e
       0.48294273 -0.0754875 -0.24572256 0.32642323
0003a0 33 39 ed 3e b4 6d 51 be 55 fd d9 3e eb 67 2b 3e
       0.46332702 -0.20452005 0.4257609 0.1673886
0003b0 71 54 83 bf a1 65 89 bf 96 23 74 be da af 6f 3f
       -1.0260144 -1.073414 -0.238417 0.93627703
0003c0 51 26 d0 be 57 98 3a 3f 88 cb 5b bd 8c 6b 3c bf
       -0.40654233 0.728887 -0.0536609 -0.73601604
0003d0 29 27 a9 3f 16 6f 97 be 02 57 63 bd af cb 31 3d
       1.3215076 -0.2957694 -0.0555029 0.04340714
0003e0 55 f5 df bc a8 c9 c1 3c 83 94 a3 bb 1e b1 cc 3c
       -0.027338663 0.023655728 -0.004992069 0.0249868
0003f0 b6 2f c6 bc 36 17 d9 3c 44 62 20 3b 13 26 32 bd
       -0.024192672 0.026500326 0.0024472633 -0.04349334

0.bias f4 [48]
000000 1f 42 49 41 d2 f2 8d c1 1e cc b4 bf 60 53 50 c1
       12.578643 -17.743565 -1.4124792 -13.020355
000010 92 36 12 41 7d f4 b0 c1 65 2c a2 bd 6e 89 b2 41
       9.138323 -22.119379 -0.07918624 22.317104
000020 58 af b8 3f 9b 3f 55 c0 4b ab 36 3f 64 6b 49 c1
       1.4428511 -3.3320072 0.7135512 -12.588718
000030 2e 97 05 c2 af 38 8b c1 51 f3 3e 41 0e b4 44 c1
       -33.397636 -17.402678 11.934403 -12.293959
000040 39 ac 8a 41 2d e2 da bf 27 49 fe 40 51 3e 5f 40
       17.334093 -1.7100273 7.9464297 3.4881785
000050 e0 12 4a bf ae 82 06 c2 97 10 cd c0 38 a0 c7 c1
       -0.7893505 -33.627617 -6.408275 -24.953232
000060 92 89 cd 40 b0 39 8b c1 36 8b 7a 41 77 9c a1 bf
       6.4230433 -17.403168 15.658987 -1.2625874
000070 ba 35 06 41 8c 2e ab c0 93 f1 da 40 9f ac 2e 42
       8.388117 -5.349432 6.841989 43.668575
000080 8e cf 51 c1 b5 90 fa 40 00 11 1b 41 e2 b2 cf 3e
       -13.113173 7.8301644 9.69165 0.40566164
000090 47 58 7d 41 4c fc 3b c1 f0 df 97 40 5d 09 14 c0
       15.834052 -11.749096 4.746086 -2.3130715
0000a0 b6 3a 21 c1 39 04 9e c0 38 90 4c c0 39 2c a7 c1
       -10.076834 -4.9380155 -3.1963024 -20.896593
0000b0 5d f5 75 c0 fa 90 e3 40 91 a8 b9 c0 a6 05 09 c2
       -3.8431008 7.1114473 -5.801827 -34.255516

2.weight f4 [48, 48]
000000 9b 94 43 3c 73 56 b1 be ef f9 02 be 65 76 0d 3e
       0.011937286 -0.34636268 -0.12790655 0.13814695
000010 ba 15 18 be dd 12 28 3e ad 7e 13 3f 3f 36 8c 3f
       -0.14852038 0.16413446 0.57615167 1.0954055
000020 ea b3 5a bf ae 2e ab 3e 2c 7e 04 bf ae 59 5d 3d
       -0.8543078 0.3343405 -0.51755023 0.054040603
000030 ba 2d 15 3f 99 03 0d be 72 29 0d bf 30 48 03 bf
       0.582729 -0.13770904 -0.55141366 -0.51282024
000040 a1 6b 3b c0 05 95 59 be 48 42 32 c0 1f e7 ff 3e
       -2.9284441 -0.21248253 -2.7852955 0.4998102
000050 dd 99 6e 3e 14 d6 a1 bd 9a 31 1b bf 64 a1 34 3e
       0.23300882 -0.0790216 -0.6062256 0.1763969
000060 1a 59 49 be f1 af 9c bf 78 bf 22 bf 11 c1 94 be
       -0.19662896 -1.2241193 -0.6357341 -0.29053548
000070 a6 ae d4 be 6c 37 c3 bf 9b da 12 bf 22 5d d7 be
       -0.41539496 -1.5251288 -0.57364815 -0.42063242
000080 ae 1d 1f bf 13 4f 27 be f7 d2 6c 3f 72 91 e5 bd
       -0.6215466 -0.16338758 0.92509407 -0.11209382
000090 1e 80 ef 3e 74 04 93 be 08 99 30 3f ab 72 24 3f
       0.46777433 -0.28714335 0.6898351 0.6423747
0000a0 23 a5 1a bf 54 5a 6c be b6 d4 f5 3d 26 d6 37 3f
       -0.6040823 -0.23081332 0.12003462 0.7181114
0000b0 0f e1 b0 bd 1b 62 93 3e 6b 6b ce be f7 9b 98 bd
       -0.086366765 0.28785786 -0.40316328 -0.07451623
0000c0 fa ac 62 bf f1 48 a3 be c7 5e 33 3f f7 82 87 bd
       -0.8854519 -0.31891587 0.70066494 -0.066167764
0000d0 09 df 8c bf 9b 83 5f be 61 88 6e bf 3a df 06 3f
       -1.1005565 -0.21827547 -0.9317685 0.52684367
0000e0 ff 2f db be d3 1b 07 be 51 d5 da be f6 40 00 3e
       -0.42810056 -0.13194208 -0.42740873 0.1252478
0000f0 c9 c0 8a bf 0a f3 cf be ac 50 04 bf 2c 4c 95 3d
       -1.0840083 -0.40615112 -0.51685596 0.07289919
000100 e0 62 74 bf 08 f7 83 c0 9d 5a ca c0 21 09 c0 be
       -0.9546337 -4.123905 -6.323561 -0.37506965
000110 b9 f7 55 3c 68 84 05 bf 04 8b 0d 3f 7c c8 98 3f
       0.01305955 -0.5215516 0.55290246 1.1936183
000120 4c f8 a0 3e 53 84 57 c0 c7 de 7f 3e 39 4f 8e be
       0.31439435 -3.3674514 0.24987327 -0.27794817
000130 aa 41 8a be 5a 7c 20 3f ce aa d2 be 1b f9 9d bd
       -0.27003223 0.62689745 -0.4114594 -0.07713529
000140 2b 05 89 bf 9b 00 a1 bd 52 6c 80 bf 62 7a 00 3e
       -1.0704702 -0.078614436 -1.0033057 0.12546685
000150 af 03 69 3f b3 b1 81 3e 8c f2 3c 3f 8a 98 d3 be
       0.91021246 0.25330886 0.738076 -0.41327316
000160 97 fc 88 3c fc bf 11 3f 29 cb d7 3e b5 b0 8e 3f
       0.016722007 0.5693357 0.42147186 1.1147677
000170 7b 30 73 3c b0 05 d1 bd 27 6a 3a bf 1b 84 06 c0
       0.014843102 -0.10206163 -0.72818226 -2.101813
000180 c2 75 4e be 1e 2f 33 3d 4e 6c d5 be 70 c8 8e be
       -0.20162109 0.043746106 -0.41684192 -0.27887297
000190 2b cf 0d bf 33 12 a6 3f c2 36 26 bf 8d fa b8 be
       -0.5539424 1.2974304 -0.64927304 -0.36128655
0001a0 14 ea 0d 3e f7 da 55 bf 82 72 96 3d 49 88 c3 3e
       0.13858825 -0.8353724 0.073460594 0.38189915
0001b0 97 57 54 3f 94 77 32 3f 26 68 5f 3e 24 65 b8 be
       0.8294615 0.6971371 0.21817073 -0.36014664
0001c0 47 f3 90 be 90 d3 09 bf 4c 4d dc 3d d8 88 05 bf
       -0.28310606 -0.53838444 0.10756931 -0.5216193
0001d0 29 68 cc bd fd b1 88 3c 6c 35 ec 3d 7f df 8c bf
       -0.099808045 0.016686434 0.11533627 -1.1005706
0001e0 9a 32 33 bf 30 04 57 3e 4e 01 5f 3e c7 95 7d 3e
       -0.69999087 0.20997691 0.21777841 0.24764167
0001f0 96 66 41 c0 a9 28 08 c0 da e0 29 3e b3 1d 9c be
       -3.0218863 -2.1274817 0.1658968 -0.3049141
000200 53 61 90 bf 07 12 58 bf 58 d0 0b c0 8a 87 22 c0
       -1.1279701 -0.8440251 -2.1845913 -2.5395226
000210 8f 4b 2c bf 85 d3 10 3d 80 d6 d8 3e 23 04 ea bf
       -0.67302793 0.03535797 0.4235115 -1.8282512
000220 cf d3 37 be 4a 50 e2 bd 12 f7 b8 3e e8 f9 0b c0
       -0.17951892 -0.1105047 0.36126 -2.187128
000230 28 fc fe 3e 79 b9 89 3e 12 ad 8a bf 95 b4 82 bf
       0.49801755 0.26899317 -1.0834067 -1.0211359
000240 a5 0b e2 bd 1a 11 47 bd d2 50 3e 3e 0a 81 26 bd
       -0.11037377 -0.048600294 0.18585518 -0.040650405
000250 21 48 85 3b 18 6a b3 bd d8 9a 47 3f 7b a0 3d be
       0.0040674363 -0.0876047 0.7797065 -0.1851825
000260 dd b5 6e be 82 88 9c be b5 86 23 3f 19 3e b1 bb
       -0.23311563 -0.30572897 0.6387742 -0.005409014
000270 c4 30 f4 3e 08 9c 36 3f 0d ef aa bd 53 19 21 bc
       0.47693455 0.71331835 -0.083463766 -0.009832698
000280 27 5c c8 bf eb c9 0a be 53 31 16 bf 5b 46 f1 3e
       -1.5653123 -0.13553588 -0.5866901 0.4712399
000290 ec 2e 8a 3d 5f 9b fe be ef c1 2c be fe 9a 8a 3f
       0.06747231 -0.49727914 -0.16870855 1.082855
0002a0 0e 07 1e be a3 8e 6b 3e cc 38 54 3e f2 a0 9b be
       -0.15432379 0.2300363 0.20724791 -0.3039623
0002b0 61 c9 08 bf 92 eb 59 3e a7 d9 8c bd 30 c7 2b bf
       -0.5343228 0.21281269 -0.068774514 -0.6710081
0002c0 bc ee 37 be 00 9e a1 3e 2e c3 e0 3e 41 03 75 bf
       -0.17962164 0.31565857 0.4389891 -0.9570809
0002d0 a6 d6 7c 3f 09 de aa be 9b d8 5a 3e 90 c9 0c 3e
       0.9876503 -0.33372524 0.21371691 0.13748765
0002e0 c6 42 12 3d 33 52 16 3f 19 34 61 bd 97 4e 8e 3f
       0.03570821 0.58719176 -0.054981325 1.1117734
0002f0 03 8c 22 bf f2 69 06 be a2 de 81 bd b6 2d 19 3e
       -0.6349489 -0.13126352 -0.06341292 0.14958844
000300 da 59 e7 bd 58 94 bc bd b9 ac c8 bc d0 c1 6d 3e
       -0.11296435 -0.09207982 -0.024496423 0.23218465
000310 28 ff e7 3d 45 eb 0f be 58 25 cf 3d e1 24 05 be
       0.11327964 -0.14054592 0.10114545 -0.1300235
000320 f6 5c 04 bd b7 18 0b bd cc 4c 4f bf 04 bc de 3a
       -0.032315217 -0.033959117 -0.8097656 0.0016993289
000330 7d 5d 0f 3d 15 b5 b9 3d 8b 67 13 bd 9c 6b 75 bd
       0.035001267 0.09067742 -0.03598742 -0.059917077
000340 8c ff b0 be 01 3c 82 bc 6f c4 b3 bd 0d bf a2 be
       -0.34569967 -0.015897753 -0.08777701 -0.31786385
000350 78 1b ad 3e b2 0b 8e be d7 b0 77 bd c0 e8 9f 3e
       0.3381002 -0.27743298 -0.060471382 0.31232262
000360 e4 2f e5 3e 26 fa f0 bd 92 5a 40 bd 4f c8 30 be
       0.447631 -0.11766462 -0.046961375 -0.17263912
000370 4f 3b 84 bd 99 cd 6d 3d aa 77 1f be e0 a1 36 be
       -0.06456625 0.0580574 -0.15572992 -0.17835188
000380 83 65 58 3d 0e 58 c8 3e 5f 38 81 3c b5 7b 2f 3d
       0.052831184 0.3912968 0.01577395 0.042842586
000390 68 10 90 3e 61 10 85 3b 44 bb 91 3d 4e 86 0e 3e
       0.28137517 0.0040607904 0.07115796 0.1391842
0003a0 60 ef f8 3d f8 3a bf 3e 33 49 40 be 71 e6 b5 3d
       0.12155032 0.37349677 -0.18777923 0.08881844
0003b0 5e e6 f9 3e 74 e3 0c be b3 85 01 3e a8 fa d5 3c
       0.4880857 -0.13758641 0.12648658 0.026120499
0003c0 e5 af 90 bf f5 4a 57 bf c1 36 a6 bf 52 17 4b 3e
       -1.1303679 -0.8409875 -1.298546 0.19833115
0003d0 36 7a d9 bd 13 6c 17 bf 1b 2a f1 bf f1 64 31 3f
       -0.10619013 -0.59149283 -1.8840975 0.6929465
0003e0 66 e9 92 3d 05 26 49 3d 2e 88 33 3c c7 e0 e7 be
       0.071734235 0.049108524 0.010957761 -0.4528868
0003f0 80 c0 08 3e f3 8d a5 3e b3 df 68 be 38 7f 6e bf
       0.13354683 0.3233486 -0.22741584 -0.9316287

2.bias f4 [48]
000000 a1 ed d1 c0 4e ab 02 bc bc ac 66 c1 24 36 5a c0
       -6.5602574 -0.0079754125 -14.4171715 -3.4095545
000010 1a 15 0b 3f 77 fc 5e 41 de 2c 91 c1 51 37 9d bf
       0.54329073 13.936637 -18.146908 -1.2282506
000020 35 70 e2 3f 04 9b 17 40 c4 ec a7 40 81 c7 85 bd
       1.7690493 2.3688364 5.247652 -0.06532193
000030 0e 5d b2 c0 1d 6f c6 c0 69 a2 69 c0 01 69 03 c0
       -5.573859 -6.2010636 -3.6505377 -2.053284
000040 84 c9 36 3e 6b f1 d1 bf 59 bf 58 3f 3a 5e 96 3f
       0.1785031 -1.64018 0.84666973 1.1747506
000050 f4 68 1e c2 69 61 2c c1 71 f0 09 40 cd 6e e5 40
       -39.602493 -10.773782 2.1553004 7.1697755
000060 2a 1d 66 c1 f3 6c 75 40 bc 88 8d c0 dd dd 3c c1
       -14.38212 3.8347747 -4.422941 -11.804166
000070 59 2b 4f 40 2a ae e3 3f 82 e7 10 40 33 48 70 3f
       3.2370207 1.7787526 2.26413 0.9386017
000080 59 b1 c1 40 be be cb c1 ad 06 dd c1 58 14 d1 bd
       6.052899 -25.468136 -27.62826 -0.102089584
000090 6e 31 9f 40 1c b4 dc be d0 a4 1b 3f 61 a8 98 c0
       4.974784 -0.43106163 0.6079836 -4.770554
0000a0 c6 cb d0 bf 14 7f 3f be 06 dd 7f c1 20 9f e5 40
       -1.6312187 -0.1870082 -15.991461 7.1756744
0000b0 a5 0c 92 3f 00 1a c9 40 f5 b2 ad c1 24 26 5f c1
       1.1410109 6.284424 -21.712381 -13.946812

4.weight f4 [6, 48]
000000 44 62 48 3c cc 46 83 be 89 fb 8f bd 98 80 b6 bc
       0.01223046 -0.2563995 -0.070303984 -0.022278115
000010 b6 86 15 3d 20 e5 aa 3a c8 5a 40 3e 6e 9e 80 3e
       0.036505423 0.0013038255 0.1878463 0.25120872
000020 f7 7b 18 bd b8 f4 90 3e 2f 44 f3 bb 4c ed 3c 3d
       -0.037227597 0.28311706 -0.0074238996 0.04612474
000030 bb e5 03 bc d4 fc b8 3c b0 54 f6 3d 71 05 90 bc
       -0.0080503775 0.022581495 0.120278716 -0.01758072
000040 89 fa 0b bc f7 97 80 bb 1a e2 53 3c 5d 5b 36 3e
       -0.008543619 -0.0039243656 0.012932325 0.1780829
000050 dd 95 b3 3c 64 91 9b 3c 82 6b af bc 46 8a be 3c
       0.021922046 0.018990226 -0.021413568 0.023259293
000060 e3 a8 82 3c 60 f0 d9 ba 42 3e 97 bd 11 c1 be 3c
       0.015949672 -0.0016627423 -0.073849216 0.02328542
000070 c6 7c c2 3d 53 10 67 3e 88 58 7b bc ce b4 58 3e
       0.09496455 0.22564821 -0.015340932 0.21162722
000080 ac 16 7f bc b2 6d ff bc 4e 10 7f 3d 8a 78 73 bd
       -0.01556937 -0.031180236 0.06227141 -0.059441127
000090 53 5b 0e be 39 49 31 3c bd 8b bb 3c c1 8d 43 3c
       -0.13902025 0.01082068 0.02289378 0.011935652
0000a0 12 cb e9 bd 14 3f 4a 3d b2 62 0c bd 34 5e 3e bd
       -0.11415686 0.049376562 -0.03427381 -0.046476558
0000b0 c3 40 7a bc 18 7e 29 bd b6 57 33 3b 54 33 37 3c
       -0.015274229 -0.041380018 0.0027365512 0.011181671
0000c0 30 69 64 bc 07 1d 91 be 57 db 19 be e4 0a 8f bc
       -0.013941094 -0.2834246 -0.15025078 -0.017461248
0000d0 85 40 a3 bd ba c8 c2 3c 76 02 d2 3d 15 8e 06 3e
       -0.079712905 0.023777355 0.10254376 0.13140137
0000e0 c2 b3 a2 bc c2 04 8a 3d 0e b7 ae bc aa 19 6a 3d
       -0.019861106 0.06739189 -0.021327522 0.05715338
0000f0 9f d7 d8 bc 61 ca de 3d 6c 95 af 3e 0c ce 0f bd
       -0.026470004 0.108784445 0.34293687 -0.03510861
000100 f4 4c 40 b8 cf 71 6f 3b 9e d3 8a bd c2 5b 0f 3f
       -4.5848035e-05 0.003653634 -0.06778644 0.55999386
000110 47 f8 f8 3b 28 b6 7e 3b ce 48 80 bd 0d 48 ea 3c
       0.0075979563 0.0038865898 -0.062638864 0.02859881
000120 75 41 58 bd f4 ea 8c 3b 89 8d 8f bd cf f9 ca 3d
       -0.0527968 0.0043004695 -0.070094176 0.099109285
000130 66 87 ee 3d 22 67 44 3e 21 ea db 3c e5 d5 07 3e
       0.11646919 0.19179967 0.02684504 0.13265188
000140 15 0b ef bd e1 76 92 3d d6 d3 13 3e 8b ed 75 3c
       -0.116720356 0.071515806 0.14436278 0.015010248
000150 ea 8e 0a be 83 80 4d 3d ca 02 1c 3e ad 29 b5 3c
       -0.1353108 0.050171386 0.15235439 0.0221146
000160 57 e4 c7 bd 3b 93 bd bb a9 a6 8a bd 17 2a 0c bd
       -0.09760349 -0.0057853735 -0.06770069 -0.034219828
000170 7a 32 00 3e 26 ce 3e bc 88 b9 12 3b 46 e7 54 3d
       0.12519255 -0.011645829 0.0022388417 0.051978372
000180 9f 19 44 bd 6a a7 15 be 0c 74 49 be 85 d1 bd bd
       -0.047875997 -0.14614645 -0.19673175 -0.09268478
000190 1b 9b 01 bd 6d 73 fd 3d 64 a2 97 3c 49 bb 8e 3d
       -0.03164206 0.12375531 0.018510051 0.069693156
0001a0 51 ef 29 bb 02 d8 94 3b 9a 04 b1 bc 28 6c b4 3d
       -0.0025929997 0.0045423517 -0.02160864 0.08809692
0001b0 f8 c9 dd 3b d8 a1 ab 3c fb 01 21 3e ed c2 83 bd
       0.0067684613 0.020951197 0.15723412 -0.064336635
0001c0 3f ad 21 3c a5 23 cb 3c 48 0b 32 be 54 10 f4 3e
       0.009867965 0.02479727 -0.17387116 0.47668707
0001d0 73 9c 27 3e 04 97 0b bd e7 f1 d1 bd e4 13 86 39
       0.16368274 -0.034079567 -0.10251217 0.0002557329
0001e0 25 a8 25 bd 8f 10 ab 3d 54 a9 aa bd 90 1c 68 3e
       -0.04044356 0.08352768 -0.08333078 0.22667146
0001f0 2d c4 0d 3e 3e 2b 6b 3d bb 7e e2 bd 6c 10 88 3d
       0.13844366 0.057414286 -0.11059328 0.06643757
000200 5b c0 99 3d 83 37 19 3e 38 92 93 3e c3 72 ac bd
       0.07507392 0.14962582 0.28822494 -0.084203266
000210 9b d0 a7 bd ba 4e 56 3d a4 03 31 3f 55 b6 38 3d
       -0.08194085 0.052321173 0.6914618 0.04509576
000220 55 43 91 bd d1 9b 15 be c6 f7 d6 bd aa b1 30 3c
       -0.07092921 -0.1461022 -0.10496478 0.010784546
000230 d7 f3 5c 3e df 98 1f 3d 9a 71 d7 bc f0 79 92 3e
       0.21577393 0.03896415 -0.026299287 0.28608656
000240 b5 f4 b0 bd 6a a1 99 bd 53 4d 0a be a5 a9 f9 bd
       -0.08640424 -0.075014904 -0.1350606 -0.1219056
000250 b8 e1 93 3d 53 23 03 3f ab de 6f bb f2 2d 07 3d
       0.07220787 0.51225775 -0.0036601226 0.0330028
000260 e6 56 af 3c 28 06 3b bb df 64 90 bd 36 fe 2c be
       0.021403741 -0.0028537605 -0.0705049 -0.16893849
000270 2c 88 80 3c 37 ad f7 3c 46 1b 50 3d f3 f2 90 bd
       0.015689932 0.030233962 0.05080726 -0.07077589
000280 07 75 07 bc ca b5 2e 3e f1 c9 50 be a8 c2 2c 3e
       -0.008267648 0.17061535 -0.20389535 0.1687113
000290 5e 1c 75 3e ea 74 82 bd 19 a1 3b be db 62 8d bc
       0.23936602 -0.06369956 -0.18323173 -0.017259052
0002a0 c9 24 c2 bc a2 d4 09 3e 44 b4 40 bd 9f ed cd 3e
       -0.023699181 0.13460019 -0.047046915 0.40220353
0002b0 56 dc e7 3d de 81 f6 3c b7 9d 32 3d 5c d7 8e 3c
       0.113213226 0.030091222 0.04360744 0.017436676
0002c0 f5 59 83 3d aa e1 d4 3c 1e e1 0e 3f ad 72 96 bd
       0.06413642 0.025986511 0.5581225 -0.073460914
0002d0 f6 2e 4d bd 71 61 67 3d e9 39 4e 3f 18 21 01 3e
       -0.050093614 0.05648941 0.80557114 0.1261028
0002e0 12 a4 39 bd b9 86 26 bd b2 8f 01 be c8 a1 06 3d
       -0.045322485 -0.040655825 -0.12652472 0.03286913
0002f0 b8 dd 36 3e 8c 0c 0f 3e d3 44 2d be e5 98 98 bb
       0.17858016 0.1396963 -0.16920786 -0.0046568983
000300 7d d8 db bd 8a 16 49 bd b0 eb 0c bd 20 dc 9a bd
       -0.10734651 -0.04909376 -0.034404457 -0.07561517
000310 bd 01 f7 bb 93 8d bd 3f c0 fc ee bb 73 bb 39 ba
       -0.007538049 1.480883 -0.0072933137 -0.0007085122
000320 10 aa 33 3d a1 23 60 bc 12 20 18 be d8 de 42 3d
       0.043863356 -0.01368037 -0.14855984 0.0475758
000330 51 d0 11 3d c6 3b 3f 3d d3 e1 9f 3c fa 4e 2e 3e
       0.035599057 0.046687864 0.019516861 0.17022315
000340 f5 5d b9 3c b3 d5 9b bc 79 07 5c be fe 91 96 3d
       0.02262781 -0.019022798 -0.21487226 0.073520645
000350 fc 44 cb 3d e7 7e 64 bd 0c 08 80 be c1 90 62 bd
       0.09925267 -0.055785086 -0.2500614 -0.05531383
000360 64 b2 63 3d 40 95 13 3e bd 89 28 bc e1 0a 0d 3e
       0.05559005 0.14412403 -0.010286746 0.13773681
000370 dc c7 70 3d 7f ec fb 3c 99 e8 3e bb 59 82 83 3d
       0.05878435 0.030752419 -0.0029130338 0.06421346
000380 ea 5b 13 3d 56 34 91 3c 76 68 6b 3f 40 6c 8d bd
       0.035976328 0.017725151 0.9195627 -0.06905413
000390 20 00 b5 bc eb 1d c1 3d 6d aa c7 3e d2 86 4a 3e
       -0.022094786 0.094295345 0.38997212 0.19777992
0003a0 65 0a 3c bd 59 92 ad 3c f4 1b 74 bd 06 9c 4d 3d
       -0.04590835 0.021187948 -0.05959697 0.050197624
0003b0 7d fa 26 3c ad 8b 88 3e a7 53 02 bf 41 c0 5a bc
       0.010191557 0.26669064 -0.50908893 -0.013351501
0003c0 54 c0 38 bd 82 8f 24 bc 35 c5 a6 3b 36 bd f3 bc
       -0.045105293 -0.010043981 0.005089427 -0.029753309
0003d0 a5 49 a1 bb 94 ae f1 3f 29 04 d1 bb 44 2f 61 bd
       -0.004922109 1.8881402 -0.0063786698 -0.054976717
0003e0 ff 5e a0 3e fb 5d cd bc 04 9b 53 be 0a 3d 0f 3d
       0.31322476 -0.025069227 -0.20664603 0.03497032
0003f0 51 24 21 3e f8 5d 6c 3d 8a bb 39 3c 71 1a 4a 3e
       0.1573651 0.057706803 0.011336217 0.19736649

4.bias f4 [6]
000000 a9 dd eb bd c2 d4 5e bd e9 43 0f 3e 78 f3 ac 3e
       -0.11516888 -0.05440212 0.1399075 0.33779502
000010 1e fe 94 3e 15 56 b0 3e
       0.29100126 0.34440675
