models/FF_no_station/FF_no_station_depth3_width96_batch106.pth (torch, 127836 bytes, 10 tensors)

0.weight f4 [96, 24]
0.46959338 0.97255427 0.03659716 -0.13609435 0.46991637 0.04755575 -0.34388208 0.17876382
0.21330956 -0.24254093 -0.38165376 0.010217278 0.10581054 0.09238128 0.25993037 0.49594405
-0.34159967 -1.4319292 0.08397824 0.32715306 0.05500522 0.069121234 0.17884272 -1.7132422
0.07742342 -0.56855696 -0.3187106 0.061954968 0.3937945 -0.045509808 -0.55239034 -0.48364025
0.87317896 0.9505785 -0.2638141 -0.16665709 -0.7498838 -0.84992963 -0.31045726 0.026375143
-0.00087983866 0.1368879 -0.12977003 0.03419397 -0.19631109 -0.6544899 0.28192815 0.1937917
-0.5000048 -0.2012767 0.3387297 0.4318184 0.002883894 -0.8396742 -0.28783834 0.36672735
0.24478482 -0.20295048 -0.09933027 0.23283426 -0.2556737 0.11500703 0.43703482 -0.42840844
-0.2738186 0.21376505 1.1419281 1.1778682 0.3724114 -0.65627 -1.1620481 -0.78723884
0.21383153 0.038941745 0.3063971 0.073075145 -0.28816003 -0.011763539 0.37877414 0.4392388
0.44427207 0.2156947 0.07241147 -0.029144777 -0.2620969 0.12018061 0.034896098 -0.5630929
-0.19487427 -0.13716176 0.16040416 0.025099503 0.49936202 0.034905516 -2.167907 -9.324966
0.46116385 0.30824786 -0.031593673 -0.03501819 0.20732999 0.3340569 0.44243988 0.3617723
0.117861666 -0.19812357 -0.5481815 -0.028029881 0.64608616 0.46727315 -0.36440662 -0.56026167
-0.273923 0.5090257 -0.62224907 -2.9437895 -3.1399868 -2.3449888 -2.0040011 0.9260418
0.5205938 0.11404623 0.43153796 0.17310716 -0.29330233 -1.5427046 -1.4421875 -1.9396614
-0.53917646 0.48373526 0.19205706 0.042521887 -0.019105796 0.18424514 -0.237273 -0.48077878
-0.49101162 -0.39948016 0.22228524 -0.047292598 -0.20461394 -0.227085 0.072171114 -0.20006092
0.21836627 0.07505 0.17403421 0.33120477 0.39863032 0.39359406 0.22043234 -0.33763617
-0.6795477 -1.625293 -1.7503629 -1.6991521 -0.8555228 -0.9082888 0.07472179 0.23818427
0.02497012 0.07184841 -0.24625486 0.25049922 0.34590223 0.47997937 0.19282973 -1.0929401
0.50058585 0.19992952 -1.3966687 -1.6264777 1.3237228 0.6139043 -0.20610222 0.18259771
0.17190869 -0.11349467 -0.45288193 -0.033085268 0.18848296 0.19313268 -0.24676636 -0.42130604
0.12273614 0.26610422 0.23248063 -0.038102478 0.0020057573 0.1646484 -0.10253278 0.24789117
-1.3886867 -1.4451314 0.12568223 1.0745903 0.39898166 0.3096102 -0.122958735 -0.23696896
-0.08642973 0.19298318 0.06338123 0.34085408 -0.15995878 -0.36412457 -0.007541294 0.2689697
-0.30017734 -0.54567087 0.0027707696 0.30466035 0.42559764 0.39163023 -0.45202592 -0.88343936
-0.4969876 0.6391256 -0.09935714 0.012964153 0.56541365 0.15693568 -0.2572297 -0.67144066
-0.18268886 0.31045717 0.22732681 -0.27358046 -0.2011917 0.45212153 0.077473074 -0.53440547
0.16033183 -0.2432091 0.8627661 0.6687811 -1.0505229 -1.3496135 -0.9687445 1.6198615
-0.1642099 0.059154242 0.6581323 0.41961893 -0.47244173 -0.57636523 -0.3237563 -0.20517051
-0.22456257 0.07615098 0.2745336 0.3484178 0.11569611 -0.15797985 0.5519727 0.44873708
00000000: 8b6e f03e 51f9 783f e7e6 153d 515c 0bbe
00000010: e198 f03e d1c9 423d 5011 b0be dd0d 373e
00000020: d26d 5a3e a65c 78be 1f68 c3be 5f66 273c
00000030: 32b3 d83d 6632 bd3d 9815 853e 61ec fd3e
00000040: 27e6 aebe 7549 b7bf c9fc ab3d 9b80 a73e
00000050: 274d 613d 6f8f 8d3d 8c22 373e 854b dbbf
00000060: 2c90 9e3d f38c 11bf 092e a3be 7ec4 7d3d
00000070: 6f9f c93e 7e68 3abd 7469 0dbf b29f f7be
00000080: a888 5f3f 1d59 733f a412 87be 28a8 2abe
00000090: 62f8 3fbf fd94 59bf 41f4 9ebe af10 d83c
000000a0: f9a4 66ba 572c 0c3e 6fe2 04be fa0e 0c3d
000000b0: c605 49be a68c 27bf e358 903e 5571 463e
000000c0: 5100 00bf 7b1b 4ebe fb6d ad3e 4d17 dd3e
000000d0: b6ff 3c3b e3f4 56bf 8c5f 93be b0c3 bb3e
000000e0: dfa8 7a3e 40d2 4fbe ab6d cbbd 1b6c 6e3e
000000f0: aae7 82be ce88 eb3d 07c3 df3e 5a58 dbbe
00000100: f431 8cbe 3ae5 5a3e b32a 923f 63c4 963f
00000110: b5ac be3e 5001 28bf febd 94bf 7c88 49bf
00000120: a7f6 5a3e 6181 1f3d 15e0 9c3e 6ca8 953d
00000130: b689 93be dcbb 40bc afee c13e e8e3 e03e
00000140: a177 e33e 12df 5c3e 774c 943d 07c1 eebc
00000150: 9131 86be 4021 f63d 36ef 0e3d db26 10bf
00000160: 1f8d 47be 2274 0cbe fd40 243e 799d cd3c
00000170: 61ac ff3e 16f9 0e3d fdbe 0ac0 1033 15c1
00000180: ab1d ec3e aad2 9d3e 5e68 01bd 3c6f 0fbd
00000190: 504e 543e 8209 ab3e 7b87 e23e 383a b93e
000001a0: 7561 f13d e8e0 4abe 9f55 0cbf ec9e e5bc
000001b0: e765 253f 6d3e ef3e 8193 babe 4f6d 0fbf
000001c0: a33f 8cbe 824f 023f b74b 1fbf 0c67 3cc0
000001d0: 8bf5 48c0 4c14 16c0 8e41 00c0 1311 6d3f
000001e0: a345 053f 1291 e93d 8bf2 dc3e 0143 313e
000001f0: b92b 96be 5877 c5bf 9a99 b8bf d346 f8bf
00000200: 7807 0abf 26ac f73e 9baa 443e 6e2b 2e3d
00000210: c283 9cbc c2aa 3c3e b1f7 72be a328 f6be
00000220: e065 fbbe aa88 ccbe be9e 633e e2b5 41bd
00000230: 5186 51be f888 68be 73ce 933d c5dc 4cbe
00000240: 689b 5f3e d0b3 993d 0636 323e ac93 a93e
00000250: 4619 cc3e 2985 c93e 04b9 613e a6de acbe
00000260: d7f6 2dbf 9a09 d0bf e40b e0bf d17d d9bf
00000270: 8b03 5bbf 9d85 68bf bd07 993d 94e6 733e
00000280: 238e cc3c 4225 933d 3c2a 7cbe 6f41 803e
00000290: 191a b13e dbbf f53e 2875 453e 76e5 8bbf
000002a0: 6526 003f 53ba 4c3e 0ac6 b2bf 6c30 d0bf
000002b0: c06f a93f d528 1d3f 760c 53be e5fa 3a3e
000002c0: d508 303e e56f e8bd 24e0 e7be 6b84 07bd
000002d0: ad01 413e 93c4 453e 52b0 7cbe 6db5 d7be
000002e0: 165d fb3d d03e 883e 670f 6e3e 5811 1cbd
000002f0: 0673 033b 9799 283e b5fc d1bd 2fd7 7d3e
00000300: 7cc0 b1bf 11fa b8bf d8b2 003e 2d8c 893f
00000310: 5347 cc3e 3a85 9e3e cad1 fbbd fea7 72be
00000320: 1202 b1bd 629d 453e 05ce 813d 6d84 ae3e
00000330: 3ccc 23be 896e babe f61c f7bb 66b6 893e
00000340: d8b0 99be 16b1 0bbf cd95 353b 71fc 9b3e
00000350: efe7 d93e c283 c83e f16f e7be 1529 62bf
00000360: 2975 febe bc9d 233f c27b cbbd 9967 543c
00000370: f3be 103f bfb3 203e 9cb3 83be 89e3 2bbf
00000380: ca12 3bbe 3ef4 9e3e 5cc8 683e bd12 8cbe
00000390: 3205 4ebe 797c e73e 34aa 9e3d ccce 08bf
000003a0: 072e 243e ce0b 79be 3dde 5c3f 3d35 2b3f
000003b0: 8977 86bf 23c0 acbf a4ff 77bf 9f57 cf3f
000003c0: a426 28be b84b 723d 5c7b 283f 4bd8 d63e
000003d0: e2e3 f1be ac8c 13bf 63c3 a5be 3818 52be
000003e0: bbf3 65be 0cf5 9b3d ab8f 8c3e d163 b23e
000003f0: 15f2 ec3d 78c5 21be 154e 0d3f dec0 e53e

0.bias f4 [96]
-6.042929 -14.632619 6.6295943 6.2037663 6.4359636 3.9583652 24.259642 5.2020917
1.6743443 -4.3861227 -2.1775749 5.9169207 -9.4879055 -5.307309 -5.8065577 -1.1425095
4.308887 7.643047 5.491903 -0.70013106 -13.585634 -4.6743407 -1.1666013 -10.206983
-6.6399994 -3.8841674 7.612387 11.254754 8.863176 3.870532 4.364516 6.967289
13.409297 -10.780078 8.684678 -19.658428 -15.879828 0.5903029 -8.64561 -14.091302
12.000165 -1.2597383 -15.130247 5.9226336 12.795146 6.588904 4.1340113 4.4428144
6.4263563 -1.4097595 3.4101458 28.726603 -4.0880823 -3.5226235 10.623761 -12.516002
2.4578621 -3.1648076 22.734674 -2.558047 -21.52783 7.566701 -0.14231624 0.6583137
2.511944 8.090055 -1.7275562 10.0257435 -9.14767 -2.71624 -17.76242 10.848054
-1.0435051 -4.3894534 -19.289474 -7.7720685 5.7883 -1.3329436 -5.387152 -4.355906
-1.0427885 13.814391 -5.2914267 -14.747551 12.271484 -4.394156 -42.081688 7.5169516
13.636013 -16.18946 3.198761 -6.8510976 -1.2871325 7.423314 -11.06331 -4.8374567
00000000: ad5f c1c0 351f 6ac1 a325 d440 4185 c640
00000010: 6af3 cd40 db55 7d40 bf13 c241 8977 a640
00000020: ea50 d63f 1e5b 8cc0 635d 0bc0 6a57 bd40
00000030: 76ce 17c1 7ad5 a9c0 52cf b9c0 c03d 92bf
00000040: 67e2 8940 d793 f440 abbd af40 ca3b 33bf
00000050: c25e 59c1 3394 95c0 3153 95bf cd4f 23c1
00000060: e07a d4c0 3396 78c0 ad98 f340 7913 3441
00000070: 92cf 0d41 ccb6 7740 1daa 8b40 08f4 de40
00000080: 7b8c 5641 337b 2cc1 71f4 0a41 7644 9dc1
00000090: c713 7ec1 171e 173f 6b54 0ac1 f975 61c1
000000a0: ad00 4041 1b3f a1bf 7e15 72c1 3786 bd40
000000b0: ebb8 4c41 4dd8 d240 d249 8440 892b 8e40
000000c0: b6a4 cd40 0073 b4bf d43f 5a40 15d0 e541
000000d0: 92d1 82c0 aa72 61c0 edfa 2941 8b41 48c1
000000e0: 9d4d 1d40 358c 4ac0 9de0 b541 0bb7 23c0
000000f0: ff38 acc1 6a22 f240 59bb 11be 3f87 283f
00000100: b1c3 2040 de70 0141 9020 ddbf 7269 2041
00000110: db5c 12c1 e0d6 2dc0 7019 8ec1 a191 2d41
00000120: 9391 85bf 6776 8cc0 d850 9ac1 c9b4 f8c0
00000130: c139 b940 e59d aabf 8d63 acc0 9563 8bc0
00000140: 187a 85bf bf07 5d41 5e53 a9c0 f8f5 6bc1
00000150: 0058 4441 ed9c 8cc0 a653 28c2 de8a f040
00000160: 1c2d 5a41 0484 81c1 80b8 4c40 313c dbc0
00000170: c2c0 a4bf ca8b ed40 5103 31c1 72cc 9ac0

2.weight f4 [96, 96]
0.42192188 0.37124142 -0.49580774 -1.312107 0.68183225 -0.23229319 -0.5908965 -0.16219042
-0.17784177 1.1120921 -0.3012729 -1.2408746 0.3430738 -0.61505157 -0.730017 -0.99077636
0.013411436 -0.10578472 0.32614285 0.14560987 -1.7269995 0.18873884 -0.6927783 0.3335826
-0.16512321 0.19597606 -0.6216333 0.5404189 0.21578485 -0.5549052 -0.9710652 -0.0018997546
0.119547024 0.21071894 0.46856594 0.5932918 0.36959514 -0.43915734 -0.026820695 0.05221996
0.76949215 -1.0568793 0.3769875 0.27827856 -0.18235019 0.2395111 0.024562102 -0.52577496
-0.6284215 0.40885884 -0.9007392 -0.46627265 0.696542 0.52519774 0.16762011 0.87042975
0.10798719 -0.78655785 -0.21121141 -0.53184605 -0.48866573 0.24312626 0.5470808 0.007405001
-0.17830923 0.78513443 -0.79461914 -0.6090439 -0.041394077 -0.43459642 0.5558023 -0.35555908
-0.11485573 0.21400207 -1.0120182 0.15222318 -0.037640616 -0.8927286 -0.6608922 0.2582806
-0.6980892 -0.7472989 0.12502274 -0.42223403 -0.23823225 -0.6072642 0.51653445 -0.5191469
0.40780553 0.4298688 -0.5183297 0.08825248 0.19599795 0.16118719 -0.83550674 0.5829039
-0.15807752 -0.04822424 -0.1841356 0.060756378 0.038730197 -0.097314924 0.063614815 0.019748557
-0.079374716 -0.1044017 -0.1038093 -0.028698537 -0.0681874 -0.12935665 -0.13039432 -0.19377922
0.002279035 -0.057546873 0.010181251 0.11547261 0.028101653 -0.010853095 -0.03668784 -0.052338067
-0.012075867 -0.022363225 -0.19152647 0.019139908 -0.0027800968 0.040109877 0.0049714027 -0.10324037
-0.10408198 -0.019137895 0.013920205 -0.1318503 0.03564977 -0.020129716 0.0044008135 -0.056822088
-0.09744859 -0.18213065 -0.028630571 -0.037968777 -0.14997081 -0.007017112 -0.07142277 -0.049042895
0.0017548946 -0.11114715 -0.222437 -0.052166577 -0.19674478 -0.06625361 -0.1538442 -0.10575496
0.0076240147 0.021236986 -0.010931011 -0.009568016 0.0743342 -0.1999649 -0.1561005 -0.02271788
-0.18655664 -0.1990963 -0.13704386 -0.01870836 -0.08019997 -0.03918668 0.07663037 -0.12831916
-0.065065525 -0.0668092 -0.06892899 -0.09705397 -0.16584505 -0.08902627 -0.09621054 -0.08851558
0.03214555 -0.062151093 -0.1466025 -0.05607948 -0.11567061 0.032422263 0.02272367 -0.1304685
0.06689307 -0.005134213 -0.100823514 -0.09435657 -0.013395191 -0.13773836 -0.056534205 -0.09004074
0.34942195 0.7711315 -0.1528049 -0.63813126 0.33096218 0.018882629 -3.0989926 0.2861399
-0.020089623 0.037805274 -0.8847329 -0.4163726 0.22834353 0.57948303 -0.38276896 -0.18805975
-1.0178802 -0.84500253 -0.5040639 0.03775578 0.3567044 0.15825522 1.255546 -0.8426488
0.5288771 -0.32923073 -0.45001498 -0.2039921 -0.0165199 -0.2822699 -1.3295089 -0.71267945
-0.112022035 -0.618607 -0.7474404 -0.9998675 -0.6152084 0.24946572 -0.24129808 -0.7447177
-0.66827375 -0.48606342 -0.15900505 -0.45621425 0.22964895 -0.52629465 0.7301338 0.8470288
-0.7041275 -0.26510608 0.32957053 0.52355736 -1.9121299 0.7562608 0.26095057 -0.58205473
-0.4623852 -1.1630905 -0.41277063 -0.7337403 0.053746674 -0.48828936 -1.420308 -0.8295866
00000000: 2506 d83e 5b13 be3e 83da fdbe 1ff3 a7bf
00000010: 8f8c 2e3f 44de 6dbe fe44 17bf 3f15 26be
00000020: 271c 36be 0959 8e3f 7140 9abe fbd4 9ebf
00000030: 5ea7 af3e 0574 1dbf 65e2 3abf 85a3 7dbf
00000040: a4bb 5b3c a9a5 d8bd 32fc a63e c11a 153e
00000050: 520e ddbf c144 413e eb59 31bf 57cb aa3e
00000060: 0f16 29be f3ad 483e 5c23 1fbf e558 0a3f
00000070: b4f6 5c3e 440e 0ebf bb97 78bf 3001 f9ba
00000080: 12d5 f43d b5c6 573e e0e7 ef3e f9e1 173f
00000090: 933b bd3e 3bd9 e0be 13b7 dbbc 99e4 553d
000000a0: 70fd 443f d247 87bf 8104 c13e 877a 8e3e
000000b0: 02ba 3abe 6642 753e 7636 c93c 3099 06bf
000000c0: 3be0 20bf f255 d13e d896 66bf 4abb eebe
000000d0: 9450 323f 5c73 063f 9ba4 2b3e 7cd4 5e3f
000000e0: 6328 dd3d db5b 49bf ce47 58be 1027 08bf
000000f0: 6532 fabe 17f6 783e 7d0d 0c3f a7a5 f23b
00000100: b296 36be 92fe 483f 296c 4bbf 4dea 1bbf
00000110: d68c 29bd 6c83 debe 0f49 0e3f d70b b6be
00000120: 7b39 ebbd 5c23 5b3e d089 81bf 65e0 1b3e
00000130: 0c2d 1abd dd89 64bf 3b30 29bf 5b3d 843e
00000140: f9b5 32bf fb4e 3fbf f605 003e 0f2f d8be
00000150: 28f3 73be ab75 1bbf 9a3b 043f d0e6 04bf
00000160: e3cb d03e c317 dc3e 41b1 04bf b7bd b43d
00000170: b0b3 483e 410e 253e c5e3 55bf 3139 153f
00000180: 13df 21be c886 45bd 0b8e 3cbe aedb 783d
00000190: 8ea3 1e3d 0c4d c7bd 7c48 823d bac7 a13c
000001a0: 368f a2bd 8fd0 d5bd f899 d4bd 3219 ebbc
000001b0: d6a5 8bbd 1276 04be 1786 05be 0f6e 46be
000001c0: dd5b 153b 45b6 6bbd 43cf 263c e77c ec3d
000001d0: 7035 e63c 2ed1 31bc fd45 16bd 7160 56bd
000001e0: dbd9 45bc 1533 b7bc 841f 44be 4ccb 9c3c
000001f0: 4932 36bb 414a 243d 26e7 a23b b06f d3bd
00000200: ef28 d5bd 13c7 9cbc 9211 643c c403 07be
00000210: 7e05 123d 13e7 a4bc b334 903b 47be 68bd
00000220: 2093 c7bd 7580 3abe a98a eabc 2685 1bbd
00000230: f391 19be cdef e5bb 1a46 92bd 34e1 48bd
00000240: 7e04 e63a 1ea1 e3bd 86c6 63be 9fac 55bd
00000250: 7777 49be f9af 87bd 5589 1dbe 0e96 d8bd
00000260: dfd2 f93b 30f9 ad3c fc17 33bc 2bc3 1cbc
00000270: 873c 983d 99c3 4cbe cfd8 1fbe d91a babc
00000280: b408 3fbe e7df 4bbe 3a55 0cbe 4642 99bc
00000290: e23f a4bd 3682 20bd 62f0 9c3d 1966 03be
000002a0: 1341 85bd 43d3 88bd a42a 8dbd 3bc4 c6bd
000002b0: 49d3 29be 6853 b6bd 080a c5bd a847 b5bd
000002c0: 0dab 033d 2592 7ebd f71e 16be 99b3 65bd
000002d0: b6e4 ecbd 35cd 043d fd26 ba3c 8999 05be
000002e0: 3cff 883d e63c a8bb 8f7c cebd 043e c1bd
000002f0: 8177 5bbc 490b 0dbe 6990 67bd 4867 b8bd
00000300: 6fe7 b23e e068 453f e378 1cbe 925c 23bf
00000310: e073 a93e beaf 9a3c e555 46c0 ee80 923e
00000320: fe92 a4bc b4d9 1a3d db7d 62bf ca2e d5be
00000330: e3d2 693e 0059 143f 4bfa c3be bc92 40be
00000340: e649 82bf 1652 58bf 550a 01bf cea5 1a3d
00000350: f6a1 b63e a80d 223e bbb5 a03f d5b7 57bf
00000360: 7d64 073f ee90 a8be 5d68 e6be 4ee3 50be
00000370: be54 87bc ae85 90be 592d aabf 2972 36bf
00000380: cf6b e5bd 075d 1ebf 4158 3fbf 51f7 7fbf
00000390: 4c7e 1dbf f173 7f3e d816 77be d2a5 3ebf
000003a0: fd13 2bbf 4edd f8be 38d2 22be ea94 e9be
000003b0: 1829 6b3e 3fbb 06bf 0cea 3a3f e1d6 583f
000003c0: b341 34bf fcbb 87be 78bd a83e db07 063f
000003d0: acc0 f4bf 4f9a 413f 509b 853e 8a01 15bf
000003e0: c1bd ecbe 26e0 94bf ac56 d3be 68d6 3bbf
000003f0: 7925 5c3d 1001 fabe a7cc b5bf ca5f 54bf

2.bias f4 [96]
-12.055039 -0.131347 13.957462 5.5212235 -0.8783249 -18.015678 6.467491 -0.06285817
-4.1250763 3.0765853 -10.518259 2.8800504 -0.1057784 -0.85571694 -17.85715 -8.789093
7.040996 -3.052036 -8.669112 -0.08593632 -17.962862 -1.6443807 -0.9029958 -2.4492893
-0.095792264 -0.106790766 -0.04984618 1.946349 17.848377 5.727551 -6.84045 12.702382
-2.9956105 -4.993736 22.526892 -0.875394 -18.443607 10.846157 -13.607507 7.8149295
2.4784768 -8.247099 5.7462254 -0.023547215 1.410981 -2.1650383 -12.3047495 -2.0305333
10.416401 -4.995903 4.0654325 25.169554 -5.5917525 -6.102916 12.748366 -6.878825
1.7421291 3.4442284 10.334548 2.9692287 -29.015522 3.4412143 -2.2253368 -3.0494118
-6.6327524 -1.5623244 -20.112295 1.7254124 0.26443678 -14.0492325 4.079333 -4.285063
-15.005129 6.844479 -1.7401097 -0.10443111 3.4185812 -10.073757 15.576055 -0.5206304
3.703242 0.028056195 4.644105 8.02741 -7.4820223 8.053886 0.45640525 0.0016533526
-0.30915844 -8.905821 -10.533278 -34.263344 8.707829 8.215798 6.62875 -4.138394
00000000: 71e1 40c1 d47f 06be c451 5f41 ddad b040
00000010: e7d9 60bf 1c20 90c1 b0f5 ce40 c9bb 80bd
00000020: a000 84c0 c6e6 4440 ca4a 28c1 bf52 3840
00000030: 59a2 d8bd 4410 5bbf 71db 8ec1 20a0 0cc1
00000040: d74f e140 8f54 43c0 afb4 0ac1 62ff afbd
00000050: f1b3 8fc1 117b d2bf bc2a 67bf 28c1 1cc0
00000060: bc2e c4bd 1eb5 dabd 822b 4cbd f721 f93f
00000070: 7ac9 8e41 1948 b740 f7e4 dac0 f53c 4b41
00000080: 15b8 3fc0 afcc 9fc0 1337 b441 d219 60bf
00000090: 828c 93c1 dc89 2d41 59b8 59c1 e713 fa40
000000a0: 5d9f 1e40 1ef4 03c1 14e1 b740 17e6 c0bc
000000b0: 079b b43f fd8f 0ac0 41e0 44c1 42f4 01c0
000000c0: 94a9 2641 70de 9fc0 0618 8240 3f5b c941
000000d0: a3ef b2c0 164b c3c0 4ff9 4b41 561f dcc0
000000e0: 16fe de3f 3d6e 5c40 4f5a 2541 d807 3e40
000000f0: ca1f e8c1 db3c 5c40 eb6b 0ec0 9029 43c0
00000100: 823f d4c0 3ffa c7bf fbe5 a0c1 50da dc3f
00000110: 4264 873e a8c9 60c1 e589 8240 3c1f 89c0
00000120: 0215 70c1 f905 db40 eabb debf fadf d5bd
00000130: 09ca 5a40 1c2e 21c1 8537 7941 0948 05bf
00000140: eb01 6d40 1bd6 e53c 829c 9440 4570 0041
00000150: ba6c efc0 b8dc 0041 f3ad e93e 4fb5 d83a
00000160: 044a 9ebe 3e7e 0ec1 4f88 28c1 aa0d 09c2
00000170: 4553 0b41 e973 0341 b81e d440 b96d 84c0

4.weight f4 [96, 96]
0.7107088 -0.14278449 -1.3904428 -0.3637543 -2.31077 -1.6241674 0.05742434 0.025598831
0.45989528 -1.0861762 -0.16398169 -0.3643362 -0.096502855 -0.059722256 0.15672167 0.25917658
-0.21470118 0.26483017 -0.301717 0.063039966 1.1640865 0.23089372 0.14500648 -0.5975554
0.0401222 -0.072243415 0.045850612 -0.48812252 -0.27284902 -0.35655284 -0.5146897 0.6516278
-0.94229364 -1.3935943 -0.4343968 0.36285418 -0.0018913163 -0.39844507 -0.32587847 0.014242232
-0.04905524 0.869194 0.34786773 0.03311663 -1.8750515 0.6694893 -1.1088367 0.38190776
1.134997 -1.7800792 0.46219078 -0.2755869 -0.018144928 0.40859327 0.16992715 -0.59774446
-1.4337645 -1.4573807 -0.10254329 -0.24861063 -0.9182205 0.079794884 0.123423785 0.40280777
-0.03798208 -0.6960751 -0.008545389 -0.9842735 0.22406298 -0.67754567 0.20554881 0.45554104
-2.0198293 -0.90992063 -0.121959895 -0.014779308 0.58547574 0.053587332 0.2667686 -1.3616922
0.14624594 -0.05274624 0.71125937 0.40722248 -0.22828797 -2.2843554 -0.50673133 -0.06451574
0.20004183 -0.17652193 -1.2639177 -0.8123877 -0.44083112 -0.7355058 -1.075202 -0.1737992
-0.3393087 -0.06824609 0.008095344 0.47425342 0.06020646 -0.033125408 -0.16242619 -0.057473347
0.12575756 -0.24103075 -0.5941445 0.13667777 -0.053125903 -0.20387627 -0.2323163 -0.2630237
-0.15416999 -0.32157382 -0.40777776 0.03827893 -0.17422721 0.21023636 -0.1470188 0.10185973
0.079281874 -0.04188139 -0.04704241 -0.106263995 0.47030315 -0.007707761 -0.231978 0.3905529
-0.34871468 0.18187307 -0.24405302 -0.3451105 0.19552174 -0.16499709 0.16540687 -0.15760736
-0.6100059 -0.112840615 0.23710729 0.16438363 -0.03642672 -0.05007151 0.39932394 0.23281339
0.49827048 0.18399511 -0.52282363 -0.7641556 -0.4348065 -0.2495454 -1.2238888 -0.046870656
0.07825009 -0.027433416 -0.15221006 -0.25364116 0.20786601 0.06983879 0.1851124 -0.0037223767
-0.1287989 0.08168712 -0.10100232 -0.16824357 -0.94697523 -0.05721126 0.50984275 -0.21781002
-0.3298365 0.011586826 -0.0035290434 0.024407458 -0.41830063 0.039107595 0.015341679 0.10128203
-0.15666816 0.013274107 0.085565284 0.21418196 0.24542359 0.2708332 -0.038535383 0.003432464
-0.35115573 -0.014334933 -0.34388146 -0.4484244 -0.72588265 -0.11535246 -0.065512784 -0.20302498
-0.2140436 -0.08826422 0.28671205 -0.061994325 -0.41262755 -0.13256119 -0.23141696 -0.15233782
0.013106979 -0.99496233 -0.1084429 -0.19542325 -0.047827743 0.78387487 0.076878995 0.54645914
0.05547252 0.22349441 -0.6506227 -0.072362565 0.3565481 0.11482184 0.40575105 0.11518338
-0.028111577 0.102875866 -0.07698505 -0.24718694 -0.15089346 -0.070486605 -0.12949492 0.61578435
-0.26900205 0.14279969 -0.8461805 -0.106824934 -1.2758822 -0.1584251 -0.5966951 -0.6782103
0.3743862 -0.16573533 -0.046834107 0.07525642 0.09565577 0.27638483 -0.73172724 0.1454108
-0.28846097 0.029022498 -0.56081516 -1.5856131 -0.3495092 0.18517318 0.14351307 -0.06252348
-0.06723655 -0.030580424 -0.050912503 0.24257916 -1.7318319 0.45448083 -0.037043743 0.19041327
00000000: 03f1 353f 1936 12be 08fa b1bf 013e babe
00000010: a8e3 13c0 b8e4 cfbf c935 6b3d a4b4 d13c
00000020: 6577 eb3e d207 8bbf d1ea 27be 468a babe
00000030: 4aa3 c5bd 539f 74bd a57b 203e cbb2 843e
00000040: a0da 5bbe d297 873e a77a 9abe 191b 813d
00000050: c900 953f 676f 6c3e 947c 143e 64f9 18bf
00000060: 2d57 243d 5bf4 93bd dacd 3b3d 32eb f9be
00000070: deb2 8bbe 188e b6be b4c2 03bf 14d1 263f
00000080: 283a 71bf 4c61 b2bf 4269 debe 06c8 b93e
00000090: 0be6 f7ba fe00 ccbe 8bd9 a6be 4058 693c
000000a0: 26ee 48bd 7f83 5e3f b81b b23e 4ea5 073d
000000b0: b001 f0bf a763 2b3f 5cee 8dbf 6a89 c33e
000000c0: 9547 913f a3d9 e3bf 45a4 ec3e ba19 8dbe
000000d0: aca4 94bc 2333 d13e 6201 2e3e c805 19bf
000000e0: 9885 b7bf 738b babf 3702 d2bd c993 7ebe
000000f0: 8010 6bbf 806b a33d 9cc5 fc3d d23c ce3e
00000100: 1993 1bbd fa31 32bf f601 0cbc 59f9 7bbf
00000110: c470 653e a273 2dbf 637b 523e ad3c e93e
00000120: e244 01c0 8ff0 68bf 1cc6 f9bd e924 72bc
00000130: bde1 153f 647e 5b3d e595 883e ee4b aebf
00000140: 7fc1 153e 710c 58bd 1815 363f 777f d03e
00000150: 52c4 69be e132 12c0 25b9 01bf d420 84bd
00000160: c4d7 4c3e 2ac2 34be 0ec8 a1bf a4f8 4fbf
00000170: 9eb4 e1be 1c4a 3cbf 38a0 89bf 6bf8 31be
00000180: dfb9 adbe 9bc4 8bbd 55a2 043c 58d1 f23e
00000190: 0d9b 763d 82ae 07bd 0d53 26be 2c69 6bbd
000001a0: 97c6 003e c4d0 76be db19 18bf 42f5 0b3e
000001b0: 8c9a 59bd f1c4 50be 53e4 6dbe 0bab 86be
000001c0: bdde 1dbe 53a5 a4be 3fc8 d0be 5eca 1c3d
000001d0: 9e68 32be 3348 573e 198c 16be d69b d03d
000001e0: 895e a23d d28b 2bbd 8baf 40bd f0a0 d9bd
000001f0: 93cb f03e 6391 fcbb a48b 6dbe 8df6 c73e
00000200: bb8a b2be ef3c 3a3e 09e9 79be 53b2 b0be
00000210: da36 483e fff4 28be 6b60 293e d363 21be
00000220: 5929 1cbf fb18 e7bd 41cc 723e 2f54 283e
00000230: 2f34 15bd c917 4dbd 3074 cc3e a266 6e3e
00000240: 4f1d ff3e 3769 3c3e c5d7 05bf b49f 43bf
00000250: f59e debe d488 7fbe 63a8 9cbf 72fb 3fbd
00000260: 9541 a03d 0bbc e0bc f4dc 1bbe 41dd 81be
00000270: d4da 543e a407 8f3d 1b8e 3d3e 1ef3 73bb
00000280: dce3 03be 944b a73d 4eda cebd 0b48 2cbe
00000290: f86c 72bf 5b56 6abd 0e85 023f 9709 5fbe
000002a0: 54e0 a8be acd6 3d3c 8647 67bb 26f2 c73c
000002b0: 802b d6be 492f 203d aa5b 7b3c f46c cf3d
000002c0: 9e6d 20be a47b 593c da3c af3d 8452 5b3e
000002d0: 5250 7b3e a6aa 8a3e 47d7 1dbd 31f3 603b
000002e0: afca b3be 11dd 6abc 3b11 b0be e297 e5be
000002f0: 72d3 39bf e93d ecbd 912b 86bd c8e5 4fbe
00000300: 3f2e 5bbe dfc3 b4bd eccb 923e c3ed 7dbd
00000310: eb43 d3be 1fbe 07be 91f8 6cbe 72fe 1bbe
00000320: a8be 563c dab5 7ebf 5017 debd 081d 48be
00000330: 06e7 43bd 06ac 483f bc72 9d3d bfe4 0b3f
00000340: 2737 633d b8db 643e 368f 26bf d332 94bd
00000350: 798d b63e b627 eb3d 9abe cf3e 44e5 eb3d
00000360: 404a e6bc 95b0 d23d 57aa 9dbd 931e 7dbe
00000370: d183 1abe 485b 90bd 519a 04be 0ba4 1d3f
00000380: a3ba 89be 153a 123e 499f 58bf 08c7 dabd
00000390: 1c50 a3bf 303a 22be 03c1 18bf 319f 2dbf
000003a0: 8caf bf3e 86b6 29be 1fd5 3fbd 0a20 9a3d
000003b0: 2ce7 c33d 5082 8d3e 7a52 3bbf 92e6 143e
000003c0: 28b1 93be 97c0 ed3c 9591 0fbf 5ff5 cabf
000003d0: dff2 b2be 0a9e 3d3e 17f5 123e 4f0c 80bd
000003e0: 51b3 89bd cc83 fabc a189 50bd ac66 783e
000003f0: abac ddbf b6b1 e83e 2ebb 17bd b2fb 423e

4.bias f4 [96]
-27.759409 0.77644706 2.9213617 1.5646005 -0.4297028 5.3844366 7.6388283 10.906939
8.111829 9.849156 0.6675585 -8.7774725 -12.48695 -5.2101774 -0.7498039 5.239889
-6.8716955 0.26344 -2.5475857 3.869895 -8.442191 1.4987376 -7.968223 -3.9371657
5.9487047 1.2761258 0.024404688 15.382758 -5.880193 -0.20162046 -16.58238 -18.75527
4.192832 -11.900399 -12.780695 -6.7496037 3.5678077 -13.279631 4.722268 -3.914582
12.486175 2.4821782 -2.7252388 -2.8966508 -0.039496228 0.41684896 2.9387114 -8.940054
0.9339843 9.60454 9.238313 11.35951 7.3106065 5.0597878 11.564056 -1.7590696
6.713645 -0.15314402 0.11963056 -1.2417387 -0.26032525 5.109272 6.8768816 -5.3199296
3.0099485 -0.43107727 6.3032537 1.9774727 -9.413468 11.425228 -11.865514 -16.434212
-0.1809317 -0.8399995 -0.20719801 -2.8230605 0.40797728 9.732468 -5.9218206 -1.83551
12.91025 7.0450377 -0.17603406 14.270631 -3.1977541 -0.08374382 -16.515783 12.5865965
8.84628 1.3805898 0.9022074 2.3355799 -9.839679 -7.451231 5.754661 1.1902134
00000000: 4513 dec1 3cc5 463f 97f7 3a40 d444 c83f
00000010: 0102 dcbe 4e4d ac40 4871 f440 d282 2e41
00000020: 0dca 0141 2596 1d41 1de5 2a3f 8770 0cc1
00000030: 8cca 47c1 c6b9 a6c0 26f3 3fbf 2cad a740
00000040: eee4 dbc0 9ce1 863e a50b 23c0 5cac 7740
00000050: 3713 07c1 a2d6 bf3f affb fec0 86fa 7bc0
00000060: ca5b be40 1758 a33f 57ec c73c c71f 7641
00000070: 8b2a bcc0 9875 4ebe b7a8 84c1 cb0a 96c1
00000080: ae2b 8640 0968 3ec1 ba7d 4cc1 c1fc d7c0
00000090: f656 6440 5e79 54c1 d21c 9740 8388 7ac0
000000a0: 5fc7 4741 02dc 1e40 506a 2ec0 ba62 39c0
000000b0: ccc6 21bd 3a6d d53e d913 3c40 760a 0fc1
000000c0: 9819 6f3f 32ac 1941 21d0 1341 8ec0 3541
000000d0: 7df0 e940 c8e9 a140 6006 3941 3129 e1bf
000000e0: 2ed6 d640 c9d1 1cbe de00 f53d 4bf1 9ebf
000000f0: 5a49 85be 287f a340 6a0f dc40 dd3c aac0
00000100: ffa2 4040 29b6 dcbe 41b4 c940 d31d fd3f
00000110: 919d 16c1 bccd 3641 25d9 3dc1 4479 83c1
00000120: 2946 39be 350a 57bf b72b 54be 06ad 34c0
00000130: 66e2 d03e 30b8 1b41 8e7f bdc0 fef1 eabf
00000140: 6290 4e41 f370 e140 4642 34be 8154 6441
00000150: 01a8 4cc0 e181 abbd 5320 84c1 b362 4941
00000160: 5d8a 0d41 2bb7 b03f 10f7 663f 247a 1540
00000170: 536f 1dc1 7c70 eec0 2f26 b840 ea58 983f

6.weight f4 [96, 96]
-0.08119712 0.02138352 -0.081623994 -0.13146508 -0.016752873 -0.13311082 -0.08138426 -0.0980826
-0.061198093 -0.12873314 -0.13130611 -0.13895005 -0.06024807 -0.03837754 -0.1738202 -0.02207089
0.22205783 -0.003252791 -0.13147116 -0.028963516 -0.07567538 -0.012908764 -0.023931243 0.10208832
-0.0898033 -0.109140076 0.06906486 0.051370595 -0.038352825 -0.076061875 -0.008383376 -0.08695716
-0.43671218 0.000268259 -0.026712282 -0.0084810695 -0.21058029 -0.08412689 -0.023142729 -0.0112654595
-0.0029340705 -0.131911 -0.041911207 -0.009594132 0.042864468 -0.21223205 -0.16483049 -0.021928938
-0.123935856 -0.15504912 -0.059960198 -0.15726306 -0.041980784 0.0709684 -0.10708515 -0.010472227
-0.11065719 0.045876525 0.09385339 -0.15730508 0.040058315 -0.10840588 -0.08207415 -0.057110064
-0.14770423 -0.1735907 -0.2984923 -0.46444443 -0.078354135 -0.11253579 0.04147177 0.028202686
-0.07278929 -0.15868916 -0.09615423 0.029163685 -0.13950594 -0.01979219 0.14731859 -0.14053224
-0.1574315 -0.041160353 -0.06262893 -0.096026964 -0.049392376 0.050704107 -0.123795055 0.00542804
-0.10229327 0.047627233 0.08464093 -0.15238042 -0.06868483 -0.09894753 -0.060137704 -0.30602872
-0.30188775 -0.5802433 -1.4518536 0.14726375 -1.3413025 -0.2573435 1.1158624 -0.13355218
0.0826812 -1.6260638 -0.5503028 -0.30999726 0.012695959 -0.5627079 -0.34401795 -0.02193141
-1.113737 0.5373862 -1.6512648 -0.7780928 -0.18236834 -0.084404774 0.034576546 -0.6976825
-0.36864766 0.17486443 0.06243544 -0.54713434 0.038111776 -0.025643433 -1.5297016 -1.5884292
0.18100755 -1.0207868 -0.326088 -0.49110934 -0.820631 -0.48380506 -1.3482562 -0.16977897
-0.52963424 -0.019870315 0.36598995 0.08139557 0.0016735204 -1.3762021 -0.5036436 -0.6765258
0.062064752 -0.6358242 -0.40371868 -1.4998165 -2.2164023 -0.63179207 0.30164766 -0.9513159
0.06853864 -0.08420123 -1.5767163 -0.4740362 0.043007288 -0.5392018 0.0038956704 -2.0583482
0.35791096 -0.8586092 -1.0346853 -0.09833318 -0.809965 -0.2531123 -0.8634165 -0.56075937
-0.06873169 -0.7692937 -0.2626748 -0.046856824 0.046717424 -0.45795298 -0.2184978 -0.6287507
0.0072340146 -2.0567214 -1.187849 0.38154534 -1.4182307 0.054829508 -0.6717695 -0.61010444
0.25312355 -0.116505116 0.13630602 0.07736586 -0.13090013 -0.8606594 -0.81479144 0.08360268
-0.090483755 -0.014518701 0.12654111 -0.17749734 -0.17545176 -1.574521 0.043053985 -0.13477167
-0.99218535 -0.7136581 -0.02911195 -0.056865048 -0.4302937 -0.25800252 -0.0047608037 -0.35422385
-0.025315356 0.03997848 -0.11061034 -0.04387032 0.106630445 -0.059871458 -0.635362 -0.28300318
-0.034237124 -0.08817581 0.08169204 0.06511229 -0.4710439 0.021992195 0.015038837 -0.14115745
0.033767805 -0.30578452 0.27860686 -0.3912525 -0.7647868 0.15800321 -0.09167447 0.10201866
-0.0020548943 -0.47708008 0.0893469 -0.31846464 0.17509136 -0.19322535 0.025373312 -0.13411434
-0.39915866 -1.1503918 0.17266752 0.008519104 -0.000269735 -0.18503007 -0.12867178 -0.15468808
0.089202985 -0.10972853 0.17576745 0.023822902 0.0074702296 0.13859816 -0.051029287 -0.17963639
00000000: ad4a a6bd 7e2c af3c 7b2a a7bd c89e 06be
00000010: 523d 89bc 344e 08be caac a6bd 88df c8bd
00000020: daaa 7abd 9fd2 03be 1c75 06be ec48 0ebe
00000030: aec6 76bd c431 1dbd ecfd 31be 03ce b4bc
00000040: 2163 633e c72c 55bb 60a0 06be e544 edbc
00000050: b2fb 9abd 487f 53bc 740b c4bc ae13 d13d
00000060: cbea b7bd d584 dfbd e171 8d3d f969 523d
00000070: da17 1dbd 54c6 9bbd 6d5a 09bc 9816 b2bd
00000080: bd98 dfbe 1da5 8c39 b7d3 dabc 2ff4 0abc
00000090: 5ca2 57be b84a acbd d295 bdbc c392 38bc
000000a0: 8949 40bb ad13 07be 16ab 2bbd b530 1dbc
000000b0: a792 2f3d 5c53 59be 53c9 28be 51a4 b3bc
000000c0: 15d2 fdbd 32c5 1ebe d398 75bd 9109 21be
000000d0: 0bf4 2bbd e157 913d 764f dbbd b493 2bbc
000000e0: 3da0 e2bd 06e9 3b3d 3536 c03d 9514 21be
000000f0: 3014 243d e703 debd 7e16 a8bd 3eec 69bd
00000100: c73f 17be c3c1 31be fcd3 98be a9cb edbe
00000110: 2278 a0bd 2a79 e6bd 4dde 293d 5209 e73c
00000120: 8d12 95bd 697f 22be 82ec c4bd aee8 ee3c
00000130: a5da 0ebe 3b23 a2bc afda 163e afe7 0fbe
00000140: b935 21be c297 28bd 9943 80bd c9a9 c4bd
00000150: a94f 4abd 1caf 4f3d 4388 fdbd b3dd b13b
00000160: 227f d1bd c614 433d 3958 ad3d 9d09 1cbe
00000170: a2aa 8cbd 01a5 cabd f452 76bd ccaf 9cbe
00000180: 0891 9abe d38a 14bf 57d6 b9bf 4fcc 163e
00000190: cdaf abbf 87c2 83be 94d4 8e3f e7c1 08be
000001a0: c354 a93d dc22 d0bf a5e0 0cbf f6b7 9ebe
000001b0: b602 503c a00d 10bf 1f23 b0be 80a9 b3bc
000001c0: ef8e 8ebf 2492 093f a55c d3bf 1731 47bf
000001d0: c4be 3abe 69dc acbd 23a0 0d3d 529b 32bf
000001e0: 63bf bcbe a90f 333e 4ebc 7f3d ff10 0cbf
000001f0: 181b 1c3d 2d12 d2bc 43cd c3bf a651 cbbf
00000200: 0b5a 393e 24a9 82bf 02f5 a6be af72 fbbe
00000210: e014 52bf 4cb5 f7be a993 acbf 8ada 2dbe
00000220: 1c96 07bf 12c7 a2bc 0963 bb3e b8b2 a63d
00000230: 075a db3a 6427 b0bf c9ee 00bf cb30 2dbf
00000240: 9c37 7e3d 60c5 22bf 37b4 cebe fdf9 bfbf
00000250: 89d9 0dc0 20bd 21bf 9071 9a3e 7089 73bf
00000260: fd5d 8c3d b271 acbd d7d1 c9bf dfb4 f2be
00000270: 6928 303d 2109 0abf 814e 7f3b fabb 03c0
00000280: 1b40 b73e d0cd 5bbf 9170 84bf e862 c9bd
00000290: de59 4fbf ef97 81be dd08 5dbf ed8d 0fbf
000002a0: 33c3 8cbd 6ff0 44bf 507d 86be f1ec 3fbd
000002b0: c55a 3f3d d078 eabe e3bd 5fbe cef5 20bf
000002c0: 500b ed3b 53a1 03c0 700b 98bf e959 c33e
000002d0: 9588 b5bf e894 603d 16f9 2bbf ce2f 1cbf
000002e0: 6999 813e 3c9a eebd ce93 0b3e fe71 9e3d
000002f0: af0a 06be 2d54 5cbf 2c96 50bf e237 ab3d
00000300: 8c4f b9bd d8df 6dbc fe93 013e ddc1 35be
00000310: a0a9 33be e789 c9bf 6059 303d 9601 0abe
00000320: dcff 7dbf 4cb2 36bf 2f7c eebc 53eb 68bd
00000330: 754f dcbe e818 84be 8400 9cbb d45c b5be
00000340: 2662 cfbc 7ac0 233d ad87 e2bd 5db1 33bd
00000350: 1061 da3d c63b 75bd 16a7 22bf cbe5 90be
00000360: 3a3c 0cbd 8595 b4bd 284e a73d 9859 853d
00000370: ab2c f1be fa28 b43c 7465 763c 948b 10be
00000380: 1c50 0a3d ca8f 9cbe 8fa5 8e3e 3f52 c8be
00000390: 11c9 43bf 98cb 213e d3bf bbbd 29ef d03d
000003a0: 68ab 06bb d743 f4be 82fb b63d cc0d a3be
000003b0: 264b 333e dedc 45be b1db cf3c 4555 09be
000003c0: 865e ccbe 0a40 93bf c1cf 303e b693 0b3c
000003d0: 386b 8db9 8678 3dbe 89c2 03be 8d66 1ebe
000003e0: 0eb0 b63d 5ab9 e0bd 62fc 333e 3f28 c33c
000003f0: d4c8 f43b adec 0d3e 1604 51bd 9af2 37be

6.bias f4 [96]
0.04510579 -7.0727606 -2.895521 -3.9512308 -2.2823515 2.3352778 -13.884534 4.991393
12.775748 -14.582023 11.975611 1.8778609 9.241627 -3.645856 -11.166944 -1.0796173
0.38661644 -5.9374743 -3.7490368 -7.157519 -13.531917 -4.3308077 0.9729329 -9.282209
-7.0425143 -16.465824 -11.561305 0.863953 1.7625113 5.0504675 5.912368 -0.0817435
2.0485494 0.8280366 -17.846907 -4.456987 17.38838 -0.0020534769 -9.490758 -11.363642
9.71995 -1.1242002 -1.2665389 6.7513943 -0.692397 -1.852853 -3.649483 -0.35711655
-29.059963 -8.8778715 3.841511 -3.5876443 -2.890198 -12.487069 1.282653 10.897656
-0.100486726 -8.750043 1.1784341 11.480969 4.044885 -0.34957337 -3.8817153 3.534722
-5.6576815 1.0913392 -1.492548 -2.4701498 -0.28374812 -1.4376156 -0.54087377 -0.37767094
-0.19415617 0.14521843 -0.3311817 6.0518446 0.8679475 5.993789 -0.19577284 -1.6145205
-0.27412465 -8.898497 -0.25119072 -0.077957384 -8.589175 1.8141651 -2.730413 1.1463848
-3.1175287 -0.28196505 -2.597125 -20.502632 -8.18863 -10.513142 -0.75679684 -9.47007
00000000: d9c0 383d 0e54 e2c0 3750 39c0 f7e0 7cc0
00000010: 0c12 12c0 3175 1540 0d27 5ec1 7eb9 9f40
00000020: 7769 4c41 f74f 69c1 1a9c 3f41 bf5d f03f
00000030: b4dd 1341 b455 69c0 cdab 32c1 e630 8abf
00000040: 97f2 c53e caff bdc0 38f0 6fc0 650a e5c0
00000050: bb82 58c1 fa95 8ac0 2112 793f ee83 14c1
00000060: 475c e1c0 02ba 83c1 1bfb 38c1 062c 5d3f
00000070: f899 e13f 6e9d a140 1e32 bd40 2369 a7bd
00000080: 6f1b 0340 35fa 533f 77c6 8ec1 a39f 8ec0
00000090: 671b 8b41 a093 06bb 25da 17c1 7ad1 35c1
000000a0: ea84 1b41 cbe5 8fbf f21d a2bf 6c0b d840
000000b0: ee40 31bf 492a edbf 2191 69c0 fbd7 b6be
000000c0: ce7a e8c1 c30b 0ec1 51db 7540 f79b 65c0
000000d0: 01f9 38c0 09cb 47c1 f92d a43f cd5c 2e41
000000e0: fccb cdbd 2d00 0cc1 eed6 963f 0db2 3741
000000f0: b36f 8140 48fb b2be 066e 78c0 e338 6240
00000100: ba0b b5c0 01b1 8b3f d00b bfbf ef16 1ec0
00000110: 6f47 91be ca03 b8bf b476 0abf 165e c1be
00000120: e0d0 46be 24b4 143e a690 a9be b6a8 c140
00000130: cf31 5e3f 1fcd bf40 ad78 48be 9ca8 cebf
00000140: 115a 8cbe 3e60 0ec1 129c 80be 1fa8 9fbd
00000150: 436d 09c1 9036 e83f 16bf 2ec0 bdbc 923f
00000160: 9785 47c0 b95d 90be 4c37 26c0 6405 a4c1
00000170: a104 03c1 d435 28c1 70bd 41bf 6885 17c1

8.weight f4 [6, 96]
0.0647896 0.012518549 -0.016166069 -0.021471707 0.008008384 -0.08544852 0.030121941 -0.014893615
-0.0009002201 0.047202248 0.02910504 0.030508494 0.04598316 -0.013999154 0.0034123864 0.03495145
0.23391551 -0.01379858 0.055985924 -0.0007808856 -0.019885628 0.005468748 0.102250345 0.17214142
-0.0004901515 -0.0013930278 -0.1309012 -0.006079911 -0.03446291 0.0069625275 0.06232453 -0.0142542925
-0.070195645 0.039978452 0.0057713594 0.0007110936 0.06681851 -0.006746634 0.016735561 0.005742895
-0.020659989 -0.14197023 0.012999262 0.017487029 0.18189868 -0.0014967802 0.01585475 0.0050982405
-0.009079458 -0.0046600467 0.019803194 -0.0058560856 0.091063954 0.079595424 -0.041067287 -0.0036230194
-0.0055039157 -0.0029253548 0.008056876 0.012853907 0.007818055 0.12640268 -0.1481485 -0.046322875
-0.0021634947 0.104463324 0.05021261 -0.0021130461 -0.071430504 0.06435661 -0.008922187 0.339229
-0.05918499 -0.027104713 0.04287121 -0.039505646 0.010495894 0.0021666237 0.06292647 0.06940435
0.029671257 -0.0067206966 -0.008388112 -0.0018352629 0.016503725 0.0046159867 -0.009202104 0.024796303
-0.03179682 0.020702802 0.032728836 -0.013141909 0.12121094 0.006509586 -0.006162221 0.020976525
0.02299359 -0.014684674 -0.019082675 0.0008622081 0.0024295647 -0.24765351 0.04741281 -0.017297028
-0.004510361 0.10295884 0.15924233 0.043520328 0.02046714 -0.051755562 -0.006496139 0.01984374
0.11155109 -0.027604342 0.010613326 0.04610723 -0.1190422 -0.035011668 0.055542745 -0.003039856
-0.0012176228 -0.0061045517 -0.08459868 -0.03627712 -0.037320614 0.0070143226 0.14476499 0.062565856
-0.022728529 0.029009959 0.004951471 -0.017768823 0.0784458 0.032367982 0.13158368 0.012516637
0.07626221 -0.41782126 0.08730494 0.02837045 0.03774564 -0.024223102 -0.04276765 0.0023527727
-0.006441748 -0.01528563 -0.021547401 -0.03135308 -0.06707009 0.073074 -0.12387483 -0.018296096
0.012870508 0.0019575502 -0.01105231 0.010196864 0.022836741 -0.13732588 -0.08265386 -0.00894254
-0.004206643 0.44771352 0.034100275 0.030064557 -0.0878463 0.12459375 -0.016686795 0.20321156
-0.02342663 -0.04050677 0.085985236 -0.06586415 -0.029119916 0.010159683 -0.11826211 -0.055720307
-0.05912281 -0.009926069 -0.012068147 0.0005072858 0.012772605 -0.013804453 0.038888656 0.037863992
-0.08743884 0.079311736 0.14160372 0.00027421146 0.027907066 0.004631629 -0.002224255 0.0333865
0.011539418 -0.027229173 -0.035743617 -0.025875103 0.0033453195 -0.38675964 -0.0040860055 -0.0071383663
-0.0025123055 0.12000266 0.05664644 0.06972441 0.018985007 -0.081180334 -0.009161098 0.0408106
0.04837531 0.042213 -0.007271837 0.14251448 -0.0899984 -0.08719439 -0.003386605 -0.0035217002
0.0003156915 -0.03424611 -0.027197156 -0.12358791 -0.009435815 0.0066955206 0.1344217 0.14588106
0.0028476121 0.030653562 0.0013832522 -0.03969812 0.054775734 0.19216247 -0.04091076 0.043721985
-0.02126915 -0.7913111 0.084885485 -0.029985158 0.01112136 -0.05049523 0.0036337143 0.05676069
-0.042328164 -0.027543368 -0.07417236 -0.011782414 -0.045207184 -0.050963197 -0.20744002 -0.031783402
0.1353079 0.0048488597 0.12654367 0.022993227 0.077574596 0.0824527 -0.022977328 -0.0108200535
00000000: 69b0 843d 9a1a 4d3c b46e 84bc 6fe5 afbc
00000010: 9935 033c a2ff aebd 4ac2 f63c 5904 74bc
00000020: c0fc 6bba 2557 413d b16d ee3c f3ec f93c
00000030: d758 3c3d b55c 65bc 58a2 5f3b 4029 0f3d
00000040: 8c87 6f3e 7013 62bc 7f51 653d 58b4 4cba
00000050: 2fe7 a2bc 2f33 b33b a168 d13d d745 303e
00000060: 837d 00ba 4296 b6ba f70a 06be fd39 c7bb
00000070: fb28 0dbd ea25 e43b 0248 7f3d d68a 69bc
00000080: bcc2 8fbd 72c0 233d ac1d bd3b af68 3a3a
00000090: 25d8 883d de12 ddbb 0419 893c e52e bc3b
000000a0: 233f a9bc a560 11be dbfa 543c f540 8f3c
000000b0: a643 3a3e 9c2f c4ba d2e1 813c 240f a73b
000000c0: 02c2 14bc 4eb3 98bb 4f3a a23c 68e4 bfbb
000000d0: bd7f ba3d ed02 a33d 2c36 28bd 2e70 6dbb
000000e0: 315a b4bb 4fb7 3fbb fd00 043c 3299 523c
000000f0: 4d17 003c b46f 013e 3eb4 17be 0ebd 3dbd
00000100: 6bc9 0dbb def0 d53d bdab 4d3d 087b 0abb
00000110: 284a 92bd 66cd 833d 5d2e 12bc 6caf ad3e
00000120: f66b 72bd b40a debc b999 2f3d acd0 21bd
00000130: f8f6 2b3c eafd 0d3b 98df 803d de23 8e3d
00000140: 2311 f33c 4a39 dcbb 4b6e 09bc 348d f0ba
00000150: d232 873c b441 973b 6cc4 16bc 9e21 cb3c
00000160: 623d 02bd ec98 a93c ac0e 063d 2951 57bc
00000170: 713d f83d 5d4e d53b 75ec c9bb f6d6 ab3c
00000180: 0e5d bc3c fd97 70bc 4553 9cbc ce05 623a
00000190: 5539 1f3b e298 7dbe ef33 423d 7fb2 8dbc
000001a0: a6cb 93bb 16dc d23d 6c10 233e 5f42 323d
000001b0: b4aa a73c a4fd 53bd 90dd d4bb 578f a23c
000001c0: e674 e43d 8022 e2bc 84e3 2d3c efda 3c3d
000001d0: 66cc f3bd 6568 0fbd ca80 633d 5238 47bb
000001e0: a498 9fba b108 c8bb 1342 adbd 5197 14bd
000001f0: 80dd 18bd 67d8 e53b 463d 143e 8722 803d
00000200: 2e31 babc 4ba6 ed3c f33f a23b ec8f 91bc
00000210: 31a8 a03d 4a94 043d dfbd 063e 9512 4d3c
00000220: 5d2f 9c3d abec d5be efcc b23d 2569 e83c
00000230: 2c9b 1a3d 876f c6bc 222d 2fbd fa30 1a3b
00000240: 4c15 d3bb 9470 7abc 2d84 b0bc 166c 00bd
00000250: 0b5c 89bd d2a7 953d 16b2 fdbd b2e1 95bc
00000260: d3de 523c 3e4a 003b bf14 35bc bf10 273c
00000270: 1e14 bb3c 289f 0cbe 6d46 a9bd bb83 12bc
00000280: e1d7 89bb b53a e53e bbac 0b3d f249 f63c
00000290: c3e8 b3bd 022b ff3d bfb2 88bc b116 503e
000002a0: 34e9 bfbc 6dea 25bd 0719 b03d c9e3 86bd
000002b0: e48c eebc cd74 263c 6833 f2bd fa3a 64bd
000002c0: c22a 72bd f3a0 22bc 7ab9 45bc 60fb 043a
000002d0: 3044 513c 132c 62bc b649 1f3d 4617 1b3d
000002e0: 2213 b3bd 316e a23d 9100 113e 0ac4 8f39
000002f0: 5c9d e43c ecc4 973b cec4 11bb 48c0 083d
00000300: d40f 3d3c b70f dfbc e667 12bd 06f8 d3bc
00000310: 263d 5b3b 5c05 c6be e6e3 85bb f5e8 e9bb
00000320: 7ea5 24bb f4c3 f53d 1906 683d accb 8e3d
00000330: 7286 9b3c e041 a6bd 6e18 16bc 0429 273d
00000340: 3025 463d 8ae7 2c3d 9748 eebb 51ef 113e
00000350: 1551 b8bd f992 b2bd cef1 5dbb 53cc 66bb
00000360: 6583 a539 a645 0cbd 92cc debc a81b fdbd
00000370: ad98 1abc 1966 db3b d8a5 093e d861 153e
00000380: 019f 3a3b 2e1d fb3c 3e4e b53a 7f9a 22bd
00000390: 855c 603d 3dc6 443e 0b92 27bd d315 333d
000003a0: a43c aebc 5d93 4abf 71d8 ad3d 6fa3 f5bc
000003b0: 5d36 363c 16d4 4ebd 9c23 6e3b e67d 683d
000003c0: 4c60 2dbd a1a2 e1bc aee7 97bd 070b 41bc
000003d0: 2b2b 39bd c9be 50bd 286b 54be 502f 02bd
000003e0: 278e 0a3e 2fe3 9e3b aa94 013e 4b5c bc3c
000003f0: 6edf 9e3d f6dc a83d f33a bcbc 9846 31bc

8.bias f4 [6]
-0.0039638784 0.0010023098 0.009561721 0.0040822607 -0.0016173944 -0.0016595352
00000000: 6ce3 81bb f05f 833a c4a8 1c3c 7cc4 853b
00000010: c0fe d3ba c384 d9ba
