models/FF_no_station/FF_no_station_depth3_width48_batch106.pth (torch, 38364 bytes, 10 tensors)

0.weight f4 [48, 24]
0.11590056 -0.6517465 0.44341615 0.14770767 -0.78239757 1.0250303 0.36292034 -0.3753114
-0.6139792 0.15953714 0.2710724 -0.24146354 -0.38438815 0.32599047 0.55800545 -0.5247434
-0.9747785 0.24995045 0.9243327 0.1095834 -0.25813004 0.100385964 -0.51270443 0.5614207
0.2883396 -0.11350636 -1.3728477 -0.5892771 0.27969074 0.23766987 1.0510085 0.31742808
-0.8407028 -0.97160083 -0.03209767 0.30200243 0.12156595 0.22816804 0.35937855 0.0172894
-0.0896819 0.056740686 -0.2177598 0.04680023 0.26013923 0.41232547 -0.14206392 -0.36289802
0.81632376 0.25925186 0.077838995 -0.39752465 0.52081805 0.5336286 0.63036305 -0.61205286
-0.84195966 0.23541456 0.47744372 -1.2256718 -2.2964308 -2.3486192 -0.5487964 -0.31380662
-0.10740526 -0.25936338 -0.3013456 -0.09698644 -0.022020448 -0.34742272 -0.7488732 -1.5045849
0.08119789 -0.089338556 -0.24703583 0.0032862874 0.149673 0.06648472 -0.07558496 -0.0070612743
0.173397 0.22929297 0.27530873 0.27492595 -1.0069244 -2.2414548 -3.4262874 -1.8728421
-0.70010245 -0.63949925 0.72112364 1.2537156 0.56166667 -1.4913898 -0.5756781 0.98425895
0.7286065 -0.976295 -0.62725097 0.7185888 0.5781138 -0.4678429 -1.2416074 -0.5382591
-0.13456433 0.03181842 0.360358 0.19716457 0.27881783 0.08234604 0.19114162 -0.29953486
-0.16388972 0.42440808 0.2128535 0.24173391 -0.10421319 -0.017546972 0.33367226 -0.11635145
1.7381357 0.27072188 -0.10115043 -0.038449537 -0.0023089375 0.1658414 0.07858575 0.18951488
0.16286683 0.036850553 0.028894143 -0.023223257 -0.16356474 -0.12601812 0.14006229 0.057868294
-0.0066182627 0.22799234 0.15670171 0.24245961 0.61413825 0.61414737 -1.9874585 -9.542413
-1.4310493 0.90919256 0.38221753 -0.64756644 0.046037424 0.61993563 -0.31543016 -0.08645285
-0.06088438 0.01348817 0.026863337 -0.016410906 -0.12186125 -0.07650273 0.096936464 0.26589477
0.029208608 -0.0102327205 0.037017193 -0.22885223 -0.0036945036 0.056978058 -0.12633161 0.5160344
1.1941353 0.20015782 0.40558863 -0.111048736 -0.44884324 0.1507001 0.03130539 0.11863297
0.2699236 0.101959795 -0.06522786 -0.065135375 -0.39927334 -0.22988583 0.26713398 0.47868162
0.20496947 -0.11616732 -0.35543367 0.43512437 0.29149935 0.73615044 -0.39439434 -3.125305
-1.4010148 -0.495648 0.5348984 0.6928937 -0.36918622 -0.8040321 -0.25983363 0.08483642
-0.056540534 0.013730778 0.24418971 0.16858211 -0.0031573612 -0.28086516 0.29121614 0.081062384
-0.06392618 0.116290584 0.43573323 0.66516465 0.5764911 0.8329971 0.37930608 -3.6063383
-0.5225308 0.21485488 -0.2080333 0.05110254 0.29125682 0.26873967 0.23804313 0.4892428
0.03730705 -0.23376103 0.04075023 0.17662778 0.0030724974 -0.27587748 -0.23885915 -0.20194276
0.080991775 -0.47357243 -1.3401147 -2.2597442 -1.7385352 -0.43804625 -0.14985678 1.0720832
-0.36509278 0.14589757 -0.015318851 -0.04295519 0.25515905 -0.13718969 0.065752864 0.29448068
0.25933963 -0.16499609 -1.0386192 -1.7634923 -3.0860503 -3.621428 -1.2992914 -0.6285362
00000000: 465d ed3d dcd8 26bf 7107 e33e ae40 173e
00000010: 354b 48bf 3134 833f b2d0 b93e d128 c0be
00000020: be2d 1dbf b45d 233e 00ca 8a3e 3842 77be
00000030: 86ce c4be 39e8 a63e 72d9 0e3f 9555 06bf
00000040: 158b 79bf 03f3 7f3e 11a1 6c3f 436d e03d
00000050: 9f29 84be 2897 cd3d 9940 03bf 44b9 0f3f
00000060: 40a1 933e 0676 e8bd 79b9 afbf ddda 16bf
00000070: a033 8f3e bb5f 733e 7287 863f ef85 a23e
00000080: 4c38 57bf d5ba 78bf d978 03bd 10a0 9a3e
00000090: 92f7 f83d e2a4 693e 7700 b83e 80a2 8d3c
000000a0: 25ab b7bd ec68 683d 6dfc 5ebe 99b1 3f3d
000000b0: f830 853e 531c d33e 3479 11be c5cd b9be
000000c0: 98fa 503f a9bc 843e 0d6a 9f3d 5a88 cbbe
000000d0: 5554 053f e29b 083f 795f 213f 7faf 1cbf
000000e0: ab8a 57bf 8410 713e 8173 f43e d0e2 9cbf
000000f0: b9f8 12c0 c74f 16c0 ec7d 0cbf 43ab a0be
00000100: 4af7 dbbd 47cb 84be f849 9abe d4a0 c6bd
00000110: 3a64 b4bc 64e1 b1be 27b6 3fbf 3d96 c0bf
00000120: 144b a63d 22f7 b6bd f6f6 7cbe c15e 573b
00000130: e143 193e 2429 883d 4acc 9abd 4362 e7bb
00000140: fc8e 313e c7cb 6a3e 44f5 8c3e 18c3 8c3e
00000150: e6e2 80bf ff73 0fc0 4b48 5bc0 4ab9 efbf
00000160: ea39 33bf 39b6 23bf 8f9b 383f c179 a03f
00000170: 63c9 0f3f dce5 bebf a45f 13bf 65f8 7b3f
00000180: f585 3a3f 78ee 79bf 8593 20bf 70f5 373f
00000190: 44ff 133f 1b89 efbe feec 9ebf 59cb 09bf
000001a0: 3bcb 09be 0854 023d d880 b83e 82e5 493e
000001b0: 36c1 8e3e 0aa5 a83d a1ba 433e a25c 99be
000001c0: b5d2 27be 044c d93e 45f6 593e 1889 773e
000001d0: ba6d d5bd abbe 8fbc 17d7 aa3e ab49 eebd
000001e0: 3b7b de3f 0f9c 8a3e f527 cfbd 437d 1dbd
000001f0: 8b51 17bb 54d2 293e 91f1 a03d 3010 423e
00000200: 90c6 263e 9bf0 163d 69b3 ec3c b33e bebc
00000210: 847d 27be e50a 01be 7d6c 0f3e 4e07 6d3d
00000220: 03de d8bb d376 693e 6a76 203e 5547 783e
00000230: 2a38 1d3f c338 1d3f 0a65 febf b9ad 18c1
00000240: a02c b7bf d8c0 683f 04b2 c33e eac6 25bf
00000250: bd91 3c3d 1ab4 1e3f 1080 a1be 310e b1bd
00000260: e661 79bd 7cfd 5c3c 8010 dc3c 2a70 86bc
00000270: 6492 f9bd 77ad 9cbd a086 c63d 5c23 883e
00000280: e446 ef3c 24a7 27bc 579f 173d 3d58 6abe
00000290: 7c1f 72bb d361 693d 135d 01be d51a 043f
000002a0: 6dd9 983f 2cf6 4c3e 50a9 cf3e 856d e3bd
000002b0: c8ce e5be 2151 1a3e 153a 003d d8f5 f23d
000002c0: 6d33 8a3e 4cd0 d03d 2f96 85bd b265 85bd
000002d0: 8e6d ccbe 3167 6bbe c9c5 883e c215 f53e
000002e0: 84e3 513e 22e9 edbd 67fb b5be 9fc8 de3e
000002f0: 673f 953e 5b74 3c3f 0eee c9be ff04 48c0
00000300: 7454 b3bf 93c5 fdbe 1aef 083f 7b61 313f
00000310: fa05 bdbe 0cd5 4dbf ea08 85be b8be ad3d
00000320: 0c97 67bd 0ff7 603c de0c 7a3e caa0 2c3e
00000330: bbeb 4ebb 8fcd 8fbe 481a 953e 0904 a63d
00000340: bbeb 82bd c229 ee3d 6d18 df3e 3b48 2a3f
00000350: ec94 133f 4c3f 553f 6834 c23e 3fce 66c0
00000360: 94c4 05bf eb02 5c3e ae06 55be e650 513d
00000370: 9d1f 953e 3f98 893e 94c1 733e 087e fa3e
00000380: 47cf 183d 0d5f 6fbe b7e9 263d eadd 343e
00000390: f45b 493b d03f 8dbe 7e97 74be 15ca 4ebe
000003a0: 04df a53d 1678 f2be e188 abbf a69f 10c0
000003b0: 5288 debf 9947 e0be 0e74 19be 063a 893f
000003c0: 71ed babe 2c66 153e ebfb 7abc c8f1 2fbd
000003d0: 35a4 823e 747b 0cbe 70a9 863d 2cc6 963e
000003e0: 2ac8 843e bcf4 28be 79f1 84bf 1eba e1bf
000003f0: d981 45c0 7ac5 67c0 2e4f a6bf c0e7 20bf

0.bias f4 [48]
-3.9407167 -0.20317337 13.27152 -25.726582 -3.6960866 2.226296 -9.045641 6.6889777
0.080669045 22.494621 -29.18409 1.3336427 -14.053335 0.4752018 21.541939 17.120214
2.1775622 -21.59089 1.4661977 4.230543 12.300818 2.9200654 18.325378 8.091984
10.274845 -0.8667286 8.049688 2.2911065 -4.9791536 3.348342 -12.514038 -4.9615703
0.03500818 11.461771 -0.50840855 -1.1142455 -4.487393 3.3703437 -3.1429043 -10.7360525
-6.565763 -12.249684 -0.5807204 -16.93104 -3.5919583 13.50162 15.177378 11.359006
00000000: b434 7cc0 ae0c 50be 2558 5441 0ad0 cdc1
00000010: af8c 6cc0 a27b 0e40 f2ba 10c1 1b0c d640
00000020: d035 a53d fcf4 b341 0479 e9c1 ceb4 aa3f
00000030: 76da 60c1 a64d f33e e455 ac41 33f6 8841
00000040: 2e5d 0b40 25ba acc1 5eac bb3f 9c60 8740
00000050: 27d0 4441 5ae2 3a40 609a 9241 c478 0141
00000060: c465 2441 ede1 5dbf 86cb 0041 7da1 1240
00000070: 3a55 9fc0 3c4b 5640 8039 48c1 2fc5 9ec0
00000080: bd64 0f3d 6a63 3741 1027 02bf 999f 8ebf
00000090: b998 8fc0 b6b3 5740 5825 49c0 dfc6 2bc1
000000a0: bb1a d2c0 b5fe 43c1 18aa 14bf c572 87c1
000000b0: a5e2 65c0 a306 5841 8ad6 7241 7dbe 3541

2.weight f4 [48, 48]
-0.13765624 0.12731884 0.22759353 0.12025498 0.08511789 -0.011836008 0.27180043 -0.12172483
-0.0025810988 0.005981284 0.2614013 -0.11754473 0.09149315 0.07135316 0.025077749 -0.03621694
0.00076347706 -0.010807085 0.29531848 -0.12169918 0.057723854 -0.2529189 0.15617655 0.054421738
-0.03334566 0.14126332 -0.17730463 0.19310285 -0.23944294 0.020573385 -0.1554189 -0.24903516
-0.109037094 0.12411683 0.7086231 -0.19790843 0.007230809 0.3070605 -0.285381 0.14827786
0.10452224 0.27026376 0.83412784 -0.109194495 -0.16238947 -0.1503341 -0.09551408 0.052490436
0.6702867 0.037005555 -0.21008636 0.5242038 0.33835924 -1.2223238 0.44986334 -0.57908446
-0.65276736 0.028877465 -0.5871632 -0.5220728 0.4675078 -0.35516828 -0.6999849 0.5225246
0.35823116 0.67940724 0.013685881 0.40918344 -0.42383337 -0.71923906 -0.22755662 -0.84631485
0.06758797 -0.41995674 -0.024573578 0.39363697 -0.25020394 -0.7463272 -0.08150829 0.504255
-0.11619657 0.36805362 -0.11460523 0.32060528 -0.31304014 0.19736344 0.26271626 0.08017792
0.5197819 -0.25835845 0.09417214 -0.6298506 -0.16590774 -0.43360448 0.25822127 -2.1067874
0.50062066 -0.52475655 0.8920227 1.0870531 -0.6781284 0.43304515 0.17331102 0.31241348
0.50819874 -0.5246614 0.32484418 0.2530284 -0.06146721 0.07388607 -0.15759176 0.020580828
-0.4936161 0.5027445 -0.07061605 -0.18332335 -0.0870405 0.022038464 0.5503773 -0.11444775
0.3091395 0.4619688 -0.14692605 -0.5120012 -0.4860361 0.6416404 0.30185437 -0.115553886
0.6109398 -0.085476175 0.35542896 -0.066140026 -1.1663085 0.40235707 -0.8085079 0.042222265
0.81625295 0.110108994 0.1515164 -0.28698623 0.18740268 -0.60325015 0.8034463 -0.2876931
0.013984611 -0.4618543 0.13041806 -1.0813452 0.2598962 -0.25139853 -0.27721915 0.0741306
-0.16849454 -2.9248712 -1.1430858 0.16067302 0.2200963 0.47189146 0.46059692 -0.123702355
0.30679464 -1.6538609 -1.7269623 0.44820225 0.6545357 0.26114076 0.11821008 -0.4123407
-1.3585025 -0.37162372 0.10365062 0.32939783 0.09074567 -0.68729174 -0.7115495 0.32147157
-0.26255703 0.17561696 0.029105758 -0.048471015 -0.42405224 0.37917462 -1.416905 -0.041486733
-0.37422875 0.445799 0.31646526 -0.18922518 -0.051539365 0.15291224 0.18095675 0.6702315
0.26565787 0.14095424 -1.2171292 -0.5856632 0.21472128 0.5242558 -0.30262738 -0.18277742
0.03376991 0.011499126 0.3415905 0.034686096 0.40554202 -0.16449116 0.21956822 -0.53842914
0.0048815426 -0.2655475 0.40257052 0.19475344 -0.015029296 -0.113975 0.55434036 -0.90786445
-0.19334607 0.34988263 -0.40862015 0.05265253 0.15536992 -0.05142265 -0.32529062 -0.025594337
-0.87007475 0.40957505 -1.0873753 0.28778824 0.5793164 0.30685407 0.583662 0.14385313
-0.13182521 -0.41170698 -0.38504037 0.22220717 0.36424175 -0.12934834 0.05174873 -0.4495041
-0.02739934 -1.5058475 -1.4674842 0.30573148 -0.49738303 -0.71295285 0.11521182 -0.51229703
-0.21208224 0.51178867 1.0436137 -0.83111143 0.3966038 0.3995249 -1.370261 0.8878733
00000000: c2f5 0cbe df5f 023e 470e 693e 3e48 f63d
00000010: 4a52 ae3d d1eb 41bc 6d29 8b3e de4a f9bd
00000020: a727 29bb a6fe c33b 64d6 853e 4bbb f0bd
00000030: c360 bb3d 9b21 923d da6f cd3c 3758 14bd
00000040: 1424 483a 3310 31bc fc33 973e 6b3d f9bd
00000050: d96f 6c3d 967e 81be bfec 1f3e 54e9 5e3d
00000060: 7595 08bd 55a7 103e 588f 35be c1bc 453e
00000070: 8830 75be 8489 a83c 2226 1fbe 1303 7fbe
00000080: d74e dfbd f730 fe3d 5368 353f 82a8 4abe
00000090: 6cf0 ec3b 0937 9d3e 751d 92be 27d6 173e
000000a0: c20f d63d 0360 8a3e 6789 553f 5da1 dfbd
000000b0: 6d49 26be 2ff1 19be e39c c3bd 3600 573d
000000c0: e997 2b3f 2393 173d e120 57be 3832 063f
000000d0: 6c3d ad3e 1b75 9cbf 7d54 e63e e13e 14bf
000000e0: c31b 27bf 6f90 ec3c 5450 16bf 90a6 05bf
000000f0: 2f5d ef3e 9ed8 b5be 3632 33bf 2cc4 053f
00000100: 136a b73e a2ed 2d3f bf3a 603c 7e80 d13e
00000110: b000 d9be 0d20 38bf 9a04 69be 17a8 58bf
00000120: 906b 8a3d 9204 d7be 874e c9bc c98a c93e
00000130: bb1a 80be 4d0f 3fbf d1ed a6bd db16 013f
00000140: 78f8 edbd 8671 bc3e 26b6 eabd 6026 a43e
00000150: cc46 a0be a419 4a3e bf82 863e 5234 a43d
00000160: 6d10 053f 8f47 84be 53dd c03d e43d 21bf
00000170: b8e3 29be 6801 debe 9435 843e 9bd5 06c0
00000180: ad28 003f 7256 06bf 9a5b 643f 8e24 8b3f
00000190: d399 2dbf 18b8 dd3e 7278 313e a9f4 9f3e
000001a0: 5019 023f 3650 06bf fa51 a63e f08c 813e
000001b0: 0bc5 7bbd 9451 973d bc5f 21be 2099 a83c
000001c0: 40bb fcbe ddb3 003f 269f 90bd 1eb9 3bbe
000001d0: 4a42 b2bd 028a b43c 87e5 0c3f 9563 eabd
000001e0: 8847 9e3e 2d87 ec3e c873 16be 8312 03bf
000001f0: b9d9 f8be 8c42 243f a88c 9a3e 84a7 ecbd
00000200: 8d66 1c3f 220e afbd c9fa b53e 6c74 87bd
00000210: 9949 95bf bf01 ce3e 60fa 4ebf 41f1 2c3d
00000220: f4f5 503f d380 e13d 1d27 1b3e dcef 92be
00000230: 7de6 3f3e 9a6e 1abf a8ae 4d3f 834c 93be
00000240: b61f 653c 2b78 ecbe 508c 053e 8569 8abf
00000250: 1d11 853e 4fb7 80be abef 8dbe c9d1 973d
00000260: d589 2cbe 1731 3bc0 a350 92bf 7887 243e
00000270: ed60 613e c29b f13e 5cd3 eb3e a957 fdbd
00000280: 3014 9d3e b7b1 d3bf 1a0d ddbf c47a e53e
00000290: a78f 273f 3eb4 853e 2018 f23d 521e d3be
000002a0: 69e3 adbf 7745 bebe c746 d43d d5a6 a83e
000002b0: ded8 b93d 5af2 2fbf 1c28 36bf ec97 a43e
000002c0: e06d 86be efd4 333e 336f ee3c 8b89 46bd
000002d0: 601d d9be 2d23 c23e 255d b5bf feed 29bd
000002e0: e99a bfbe c43f e43e bc07 a23e 3fc4 41be
000002f0: f11a 53bd 0795 1c3e ba4c 393e 4b94 2b3f
00000300: 4f04 883e 4f56 103e e4ca 9bbf 06ee 15bf
00000310: e5df 5b3e a135 063f faf1 9abe 012a 3bbe
00000320: 5152 0a3d d566 3c3c f3e4 ae3e 0213 0e3d
00000330: 34a3 cf3e 5f70 28be 7ed6 603e 7ed6 09bf
00000340: 59f5 9f3b d8f5 87be b91d ce3e 726d 473e
00000350: 703d 76bc ba6b e9bd 40e9 0d3f ce69 68bf
00000360: 83fc 45be d123 b33e a936 d1be 2eaa 573d
00000370: 4b19 1f3e 8fa0 52bd 7e8c a6be 37ab d1bc
00000380: 38bd 5ebf d2b3 d13e 1d2f 8bbf fb58 933e
00000390: 144e 143f fa1b 9d3e df6a 153f 3c4e 133e
000003a0: 30fd 06be 42cb d2be 0324 c5be 478a 633e
000003b0: e57d ba3e e473 04be 7af6 533d 6725 e6be
000003c0: 9574 e0bc 9cbf c0bf 86d6 bbbf d688 9c3e
000003d0: fda8 febe 1484 36bf 2df4 eb3d e625 03bf
000003e0: 162c 59be 9504 033f 2295 853f b8c3 54bf
000003f0: a70f cb3e 878e cc3e b664 afbf aa4b 633f

2.bias f4 [48]
6.2815957 -7.650522 8.414759 -10.284886 14.49856 6.268345 -10.540254 -12.593417
1.0455012 12.920933 0.3393302 -14.279873 1.749936 -1.9323151 -3.4287093 10.319128
11.655581 -1.132425 -19.564495 14.162057 -0.768723 -28.943298 -21.135183 -0.90227765
17.315847 6.1809444 0.5805246 1.9560955 3.7113307 12.45668 -16.998863 -4.6516495
3.0539107 5.44977 -3.6393535 3.4966755 -8.332037 -16.713608 2.5228295 -2.5834363
1.5909305 15.163077 -16.467953 -1.4093369 13.821729 -0.77023757 -0.12950294 -0.21091485
00000000: d502 c940 14d1 f4c0 daa2 0641 e58e 24c1
00000010: 1afa 6741 4896 c840 e1a4 28c1 a37e 49c1
00000020: fcd2 853f 24bc 4e41 b0bc ad3e 5c7a 64c1
00000030: e7fd df3f 1a56 f7bf f96f 5bc0 261b 2541
00000040: 437d 3a41 4df3 90bf 1684 9cc1 c997 6241
00000050: 08cb 44bf e08b e7c1 db14 a9c1 abfb 66bf
00000060: db86 8a41 4cca c540 439d 143f 5661 fa3f
00000070: 7186 6d40 904e 4741 acfd 87c1 50da 94c0
00000080: 4673 4340 8464 ae40 2beb 68c0 88c9 5f40
00000090: 0650 05c1 78b5 85c1 0a76 2140 0557 25c0
000000a0: 9ca3 cb3f f79b 7241 5ebe 83c1 2765 b4bf
000000b0: cd25 5d41 4a2e 45bf 6b9c 04be 10fa 57be

4.weight f4 [48, 48]
0.056248013 -0.4278375 0.08451266 -1.8689547 0.34100148 0.05767133 -0.24621029 0.007975025
0.1529895 -0.32999915 -0.29728827 -0.12490759 -0.5945268 -0.3204198 -0.04023398 0.5862837
0.111283205 -0.04605949 -0.17467861 -0.004528917 0.3193961 0.35465667 -0.51602757 -0.13308819
0.40501666 -0.12964779 0.17125559 0.18268345 -0.20423697 0.22851937 -0.1476062 0.017143708
-0.5161883 0.19863985 -0.13893634 -0.04658145 -0.10202086 0.38352737 0.22694439 0.3517966
0.32370389 0.02768598 0.03499826 -0.1684747 -1.0811818 -0.19509944 0.1272465 0.07656477
0.12654853 -0.6930149 0.091847815 -3.8059006 -0.4318391 0.050847284 0.086125046 0.15462211
0.052237894 0.026672643 -0.6830736 -0.11088067 -0.26813573 -0.4898294 0.15949482 0.4394583
-0.021373272 0.31515914 0.62145287 -0.61325616 -0.30835357 -0.2889772 0.8877976 0.3163418
0.5031342 -1.1546699 0.30104247 -0.66653675 -1.1060817 -0.06552519 -0.6028146 -0.8018847
-2.7553282 0.41962552 0.05462058 -0.049719516 0.18490009 -0.24236631 -0.07445844 0.22048388
0.30316594 -2.2693932 0.75643426 0.01810831 -0.025091153 0.34752357 -0.014373965 -0.102980204
0.30651274 -0.34091505 -0.25479203 0.034721144 -1.1756462 -0.19178455 -0.11364591 0.22053345
-0.05908117 0.21123584 -0.28992805 -0.19211331 -0.5093401 0.4836264 0.13850081 0.098176055
0.11412651 -0.5285506 -0.16538754 0.34987408 0.092272244 0.50993234 0.045544103 -0.10208924
-1.1622375 0.5796288 -0.18272498 -0.07038346 -0.4406324 -0.79681325 -0.5781533 0.012253559
0.36595765 -0.68322855 -0.5064984 0.24813789 0.14031853 0.81396216 0.37905428 -0.40669054
0.42349076 -0.33876765 -0.10671056 0.12609573 -0.26984754 -0.5419622 0.052733965 -0.049764764
-0.13124041 0.50780857 -0.052307587 -2.2051032 0.24923608 -1.2346728 -0.5168093 0.5975102
0.104556195 -0.3777924 -0.09618982 0.62071496 -0.8883878 0.17914608 0.18609639 -0.31586605
0.13459012 0.28979468 0.09698664 0.06435138 0.12162233 0.03397813 -0.10778309 0.18583055
0.22772647 0.2668003 -0.6583812 -0.31318426 0.4750199 -1.8265318 0.58013713 -0.05512036
-3.2861774 -0.36956993 -0.09912756 -0.19835499 -1.7985438 -0.5519366 -0.3854824 -0.25171113
-0.115025416 0.25721475 -0.9715062 -0.1943771 -0.23879762 -0.7127207 -0.0017593338 -0.05915385
-0.19919458 -0.18048084 0.07748336 -1.4551389 0.22901182 0.0030232798 -0.12693478 -0.059927862
0.06630285 0.21537618 -0.55334085 -0.22879942 -0.24174201 0.12037973 -0.031455398 0.35058573
0.034532875 -0.37030235 -0.08832738 -0.19225861 0.5616157 -0.31944603 0.15840986 0.50154734
0.6408899 -0.027121209 0.012038054 -0.17990538 -0.07618215 -0.72768295 0.12388021 0.07620725
-0.014906559 0.035756484 -0.013240147 0.11165155 -0.2937687 -0.1346759 0.24036726 -0.5331313
0.16397616 -0.19294073 0.06348602 -0.31693012 -0.10444528 -0.17874546 -0.07607382 0.028680746
-0.21046391 -0.32383236 -0.15280227 0.37684202 -0.20063202 -0.027986802 -1.4408147 -0.28804344
-0.011512968 0.35231796 -0.28069293 -0.30997732 -0.9556482 0.5469535 -0.20493665 -0.22249147
00000000: 5164 663d 840d dbbe f914 ad3d e839 efbf
00000010: bf97 ae3e c638 6c3d 8d1e 7cbe aea9 023c
00000020: 48a9 1c3e a6f5 a8be 2b36 98be 8dcf ffbd
00000030: e932 18bf 100e a4be 63cc 24bd b016 163f
00000040: 73e8 e33d e0a8 3cbd f3de 32be 4f67 94bb
00000050: e387 a33e 8f95 b53e 621a 04bf 4548 08be
00000060: 585e cf3e 64c2 04be a05d 2f3e 5f11 3b3e
00000070: 7f23 51be fb00 6a3e 1426 17be f670 8c3c
00000080: eb24 04bf 3f68 4b3e 5445 0ebe 31cc 3ebd
00000090: 50f0 d0bd b35d c43e 1c64 683e af1e b43e
000000a0: 84bc a53e b5cd e23c 565a 0f3d a284 2cbe
000000b0: 2a64 8abf 26c8 47be e84c 023e fdcd 9c3d
000000c0: f095 013e 6d69 31bf b51a bc3d e093 73c0
000000d0: 041a ddbe 3e45 503d 5462 b03d 4255 1e3e
000000e0: 67f7 553d 9680 da3c e9dd 2ebf 6815 e3bd
000000f0: 1649 89be ebca fabe 9c52 233e ae00 e13e
00000100: 0017 afbc 8a5c a13e 8917 1f3f 5bfe 1cbf
00000110: 85e0 9dbe d2f4 93be b446 633f 8df7 a13e
00000120: 67cd 003f 39cc 93bf 3d22 9a3e 27a2 2abf
00000130: 1694 8dbf 1232 86bd 0f52 1abf 5148 4dbf
00000140: 4c57 30c0 28d9 d63e d4b9 5f3d b1a6 4bbd
00000150: 7356 3d3e e02e 78be ab7d 98bd 87c6 613e
00000160: 9138 9b3e bd3d 11c0 ada5 413f e157 943c
00000170: f68b cdbc 9cee b13e c780 6bbc 49e7 d2bd
00000180: 3def 9c3e 6b8c aebe 1a74 82be c237 0e3d
00000190: 937b 96bf 2b63 44be 30bf e8bd 85d3 613e
000001a0: 19ff 71bd 354e 583e 7371 94be 5ab9 44be
000001b0: 1d64 02bf e19d f73e 28d3 0d3e 8710 c93d
000001c0: 29bb e93d 184f 07bf 5a5b 29be b222 b33e
000001d0: 3bf9 bc3d ed8a 023f 748c 3a3d 2a14 d1bd
000001e0: 33c4 94bf 8e62 143f 421c 3bbe 3425 90bd
000001f0: 929a e1be f4fb 4bbf db01 14bf 27c3 483c
00000200: cd5e bb3e 11e8 2ebf e1a9 01bf dc17 7e3e
00000210: a9af 0f3e d35f 503f 6713 c23e be39 d0be
00000220: c8d3 d83e f472 adbe 118b dabd 3d1f 013e
00000230: 7529 8abe 09be 0abf 92ff 573d 23d6 4bbd
00000240: e363 06be beff 013f 7b40 56bd 6920 0dc0
00000250: be37 7f3e c209 9ebf 9d4d 04bf 6ef6 183f
00000260: 8f21 d63d 016e c1be 2bff c4bd 2de7 1e3f
00000270: 626d 63bf 1272 373e 0d90 3e3e 32b9 a1be
00000280: fed1 093e f85f 943e eea0 c63d a8ca 833d
00000290: 2115 f93d a72c 0b3d 61bd dcbd 5d4a 3e3e
000002a0: 2131 693e 0d9a 883e ac8b 28bf b059 a0be
000002b0: cf35 f33e cbcb e9bf de83 143f e3c5 61bd
000002c0: bb50 52c0 4538 bdbe 6403 cbbd 921d 4bbe
000002d0: af36 e6bf b84b 0dbf f35d c5be 48e0 80be
000002e0: 7292 ebbd a7b1 833e a1b4 78bf ca0a 47be
000002f0: 5d87 74be dd74 36bf 7299 e6ba 4f4b 72bd
00000300: aaf9 4bbe f8cf 38be 99af 9e3d fe41 babf
00000310: 1382 6a3e 3822 463b 31fb 01be eb76 75bd
00000320: cac9 873d 938b 5c3e bfa7 0dbf 654a 6abe
00000330: 388b 77be a689 f63d 60d7 00bd f97f b33e
00000340: 5872 0d3d 4598 bdbe fce4 b4bd 71df 44be
00000350: 0cc6 0f3f 6e8e a3be 3236 223e 6865 003f
00000360: 5c11 243f 4c2d debc 423b 453c 1e39 38be
00000370: 6305 9cbd 6e49 3abf e8b4 fd3d 8c12 9c3d
00000380: a43a 74bc 6475 123d 34ed 58bc 91a9 e43d
00000390: da68 96be 7be8 09be d622 763e 4b7b 08bf
000003a0: 5ee9 273e 4192 45be f504 823d aa44 a2be
000003b0: 68e7 d5bd 0d09 37be 97cc 9bbd e2f3 ea3c
000003c0: da83 57be 5bcd a5be 3378 1cbe 70f1 c03e
000003d0: 7b72 4dbe 9444 e5bc 9e6c b8bf 6e7a 93be
000003e0: e3a0 3cbc 0563 b43e fcb6 8fbe 59b5 9ebe
000003f0: 5ca5 74bf 2505 0c3f eada 51be ced4 63be

4.bias f4 [48]
10.405948 -22.297878 -8.314459 -5.8125587 22.61009 -13.52396 -0.316 -11.190835
8.910558 0.2962222 -20.510277 2.6225138 -2.5530343 -18.938408 3.3669221 11.80081
-14.991539 1.2705636 -29.638988 -3.305858 15.200997 -10.901662 3.5802588 1.5384011
1.3944111 1.2992547 4.2019463 0.6153529 4.3296685 -9.099164 8.488815 1.732595
-15.269479 -10.036097 -19.164917 8.9792795 3.2379546 -0.24132618 10.57929 3.5135717
8.371142 -8.063259 -25.565453 1.2513193 13.949717 5.3673987 -9.492296 -0.077311575
00000000: c37e 2641 0e62 b2c1 0608 05c1 7b00 bac0
00000010: 77e1 b441 2462 58c1 c1ca a1be a90d 33c1
00000020: a591 0e41 70aa 973e 0c15 a4c1 44d7 2740
00000030: ea64 23c0 dc81 97c1 a77b 5740 1ed0 3c41
00000040: 58dd 6fc1 d4a1 a23f a61c edc1 2d93 53c0
00000050: 4937 7341 356d 2ec1 f622 6540 54ea c43f
00000060: 107c b23f fa4d a63f 5876 8640 c587 1d3f
00000070: a58c 8a40 2d96 11c1 30d2 0741 acc5 dd3f
00000080: c94f 74c1 da93 20c1 c051 99c1 21ab 0f41
00000090: a63a 4f40 361e 77be c644 2941 5cde 6040
000000a0: 33f0 0541 1c03 01c1 0c86 ccc1 3b2b a03f
000000b0: 0a32 5f41 bbc1 ab40 72e0 17c1 8855 9ebd

6.weight f4 [48, 48]
0.12238142 -0.7854563 0.13833185 0.22607896 -3.6522713e-05 -0.535082 0.054711092 -0.2826158
-0.26158747 -0.10014921 -0.50701344 -0.057130806 -0.29593378 0.031208066 -0.30077255 -0.7799892
-0.14662993 -0.17557916 -0.83037543 -0.970047 -0.87779486 -0.16791686 -0.096804984 0.41387236
-0.20606036 0.06007446 -0.3540779 -0.42760462 -0.08990395 0.23592012 -0.9549594 -0.017189521
-1.3332634 0.21783327 0.19841202 -0.90989566 0.011243095 -0.08771138 -0.40607047 -0.07975335
-0.6139942 -0.42462918 -0.24159518 -0.5173464 0.10083543 -0.6918116 -0.10125075 -0.07278665
0.09278322 -0.68308043 -0.6430593 -1.0512247 0.06423447 0.08230345 -0.05356766 -1.0823766
-2.1915493 -0.7938179 -0.5718579 -0.3504081 -0.06727829 -0.45820534 0.3307379 1.5495589
0.45942634 0.39720473 -0.9801485 -0.039853692 0.24641477 0.48461375 0.1409795 -0.008479402
-0.36883503 -0.33743614 0.08544096 -1.1230246 -0.077097945 -1.9232199 0.21770874 -0.28269637
-0.6997249 0.70670915 -0.930783 -1.3571949 -1.8188925 -0.08761317 -1.6102563 -0.5978552
0.23929265 -0.4492707 0.9179236 -0.5159522 0.9564515 0.5475815 -0.3288609 -0.12730639
-0.07122859 -0.08927778 -0.21290952 -0.23365371 -0.37869227 0.11534249 0.034458373 0.050539356
0.009927095 0.043363336 -0.2793102 0.03364456 -0.25148255 -0.100775294 0.033491526 0.20737876
-0.09785277 -0.23322262 -0.05172373 -0.7937966 -0.42074752 -0.20378368 -0.36596718 -1.0253391
-0.06383985 -0.4869506 -0.24586467 -0.3853664 -0.28247598 0.3631518 0.03324946 -0.054713845
-0.6149528 -0.37556478 0.13642965 0.11767935 -0.022044044 0.10743974 -0.07922836 -0.44744357
-0.37325805 -1.8485125 0.047106206 -0.06377386 -0.18872818 -0.59848464 0.09083017 -0.120481394
-0.13515839 0.077591166 -0.15361324 -0.72313136 0.27987415 -1.2047204 -0.009333351 0.05782041
-1.0799848 0.24441208 0.60714483 -0.51960564 0.39151374 -0.6886738 -0.7024739 -1.5087131
0.964169 -0.98105824 0.8960038 -0.48155335 -0.34468773 0.040621597 -0.11329905 -0.899016
0.6955717 -0.67640054 -0.10382681 -0.041941855 -2.1881583 -0.630215 0.46430546 -0.13318883
0.37688738 -0.31442577 0.89991575 -0.13353406 0.71513754 -0.13911514 -0.46253946 0.07291193
-0.79561096 0.31385466 -0.5412894 -1.3265635 0.03079966 -1.0290277 -1.3241411 -0.015760208
0.72904223 -1.4964378 -2.0151145 -1.4048289 0.532371 -0.3656135 -0.08103695 -0.4953333
-0.7070936 -0.64645797 0.13036975 -0.86898845 0.022853123 -1.2723631 -4.11592 0.68926954
-1.9859595 -0.98590493 -1.6467779 -0.2354312 -0.7307496 -1.9370036 0.30583715 -1.9472425
-0.7520485 -0.49398968 -0.25926253 -0.0701286 0.17186843 -2.0724177 1.2438055 -0.01531299
-1.290171 0.11041109 -0.62936 -0.467738 -1.7388195 0.10951918 -1.0138385 0.118408725
0.91993743 -1.000034 0.33213103 -2.4634953 -0.533137 0.25785938 -2.2434433 0.0003596241
0.03903778 0.08861882 -0.016769862 -0.11964791 -0.058821093 0.066865526 -0.12835455 -0.09643676
-0.020605905 -0.0056833746 0.16105065 0.16431627 -0.17954923 0.1331682 0.019792857 -0.24637821
00000000: 1ca3 fa3d aa13 49bf dda6 0d3e 3e81 673e
00000010: f72f 19b8 22fb 08bf bd18 603d 05b3 90be
00000020: cbee 85be 071b cdbd a2cb 01bf fe01 6abd
00000030: a284 97be 0fa8 ff3c dcfe 99be 5fad 47bf
00000040: 2826 16be 06cb 33be 7c93 54bf 0055 78bf
00000050: 2ab7 60bf 66f2 2bbe b141 c6bd 14e7 d33e
00000060: 7d01 53be a310 763d b349 b5be feee dabe
00000070: 901f b8bd 0b95 713e 3878 74bf 0ad1 8cbc
00000080: 60a8 aabf af0f 5f3e 852c 4b3e ecee 68bf
00000090: f534 383c 06a2 b3bd 78e8 cfbe b955 a3bd
000000a0: b92e 1dbf ff68 d9be ba64 77be d070 04bf
000000b0: ce82 ce3d 911a 31bf 8e5c cfbd 2b11 95bd
000000c0: 2105 be3d 5cde 2ebf 899f 24bf 888e 86bf
000000d0: 5d8d 833d b68e a83d c369 5bbd 518b 8abf
000000e0: 5842 0cc0 a637 4bbf 4865 12bf b168 b3be
000000f0: 33c9 89bd e499 eabe 7a56 a93e f257 c63f
00000100: ee39 eb3e 6b5e cb3e 03eb 7abf a03d 23bd
00000110: 2754 7c3e 4b1f f83e ee5c 103e 31ed 0abc
00000120: f2d7 bcbe 6ec4 acbe acfb ae3d 45bf 8fbf
00000130: 87e5 9dbd 122c f6bf 0aef 5e3e 94bd 90be
00000140: 2c21 33bf e4ea 343f cb47 6ebf 90b8 adbf
00000150: 78d1 e8bf 896e b3bd e11c cebf 0a0d 19bf
00000160: 2209 753e cf06 e6be 0bfd 6a3f 7215 04bf
00000170: 01da 743f 4d2e 0c3f 7560 a8be 9b5c 02be
00000180: 4ce0 91bd 45d7 b6bd f404 5abe eb42 6fbe
00000190: f4e3 c1be af38 ec3d 3924 0d3d 5b02 4f3d
000001a0: 41a5 223c c19d 313d bf01 8fbe e1ce 093d
000001b0: 52c2 80be 4763 cebd 692e 093d 195b 543e
000001c0: 0867 c8bd e9d1 6ebe 43dc 53bd 4136 4bbf
000001d0: 386c d7be abac 50be 0d60 bbbe 503e 83bf
000001e0: 78be 82bd 9751 f9be f3c3 7bbe bf4e c5be
000001f0: b1a0 90be 08ef b93e 9630 083d a01b 60bd
00000200: 8c6d 1dbf 074a c0be 37b4 0b3e df01 f13d
00000210: b695 b4bc 5e09 dc3d 7a42 a2bd 5317 e5be
00000220: ae1b bfbe 0f9c ecbf 70f2 403d df9b 82bd
00000230: f641 41be 4a36 19bf 2b05 ba3d f3be f6bd
00000240: f666 0abe 1ee8 9e3d ca4c 1dbe 231f 39bf
00000250: aa4b 8f3e 4734 9abf e9ea 18bc 18d5 6c3d
00000260: f13c 8abf 2947 7a3e d86d 1b3f e004 05bf
00000270: 7d74 c83e ed4c 30bf 54d5 33bf 831d c1bf
00000280: c8d3 763f a226 7bbf 8160 653f 298e f6be
00000290: e97a b0be d562 263d 5509 e8bd ea25 66bf
000002a0: fd10 323f 9628 2dbf 27a3 d4bd 39cb 2bbd
000002b0: c90a 0cc0 c555 21bf 72b9 ed3e a762 08be
000002c0: 62f7 c03e 6afc a0be e160 663f 27bd 08be
000002d0: 4113 373f 3374 0ebe f9d1 ecbe da52 953d
000002e0: 29ad 4bbf 8fb1 a03e f191 0abf d5cc a9bf
000002f0: 924f fc3c 2eb7 83bf 757d a9bf 8d1b 81bc
00000300: 83a2 3a3f 468b bfbf a3f7 00c0 6fd1 b3bf
00000310: 7749 083f b131 bbbe b3f6 a5bd 549c fdbe
00000320: 1604 35bf 457e 25bf a67f 053e 0776 5ebf
00000330: 7936 bb3c cbdc a2bf 9eb5 83c0 f873 303f
00000340: ec33 febf 4464 7cbf 9ec9 d2bf e014 71be
00000350: 6812 3bbf bcef f7bf b096 9c3e 3e3f f9bf
00000360: 4086 40bf 37ec fcbe 0fbe 84be 959f 8fbd
00000370: 47fe 2f3e 7ea2 04c0 0535 9f3f 56e3 7abc
00000380: 5324 a5bf 361f e23d bd1d 21bf 5b7b efbe
00000390: a391 debf 984b e03d 76c5 81bf 4680 f23d
000003a0: 0581 6b3f 1d01 80bf 140d aa3e e8a9 1dc0
000003b0: ab7b 08bf 2506 843e 9394 0fc0 ee8b bc39
000003c0: 14e6 1f3d c97d b53d f360 89bc f709 f5bd
000003d0: 63ee 70bd cbf0 883d 606f 03be a380 c5bd
000003e0: b7cd a8bc 9a3b babb 76ea 243e 8642 283e
000003f0: c1db 37be 3f5d 083e a124 a23c 924a 7cbe

6.bias f4 [48]
-7.2741795 -0.24207424 -10.7003145 1.1610832 4.866426 -2.166652 -5.4155173 -13.124545
1.2030944 -3.5575716 4.924577 -16.28101 -6.588837 -4.787839 4.5729837 5.5749087
-4.4354424 -0.26353273 5.299664 -15.859767 -0.24792248 -5.6658754 -10.344475 3.5786235
-0.2027598 13.989298 -9.436935 -5.317239 17.346153 -8.486773 1.8205615 -8.5035715
13.175449 -4.538654 -4.0410295 3.8833272 -16.928043 -4.79656 -14.016439 -1.9454881
-5.1996098 -0.15304706 4.37716 -6.7711625 -17.62025 -3.3084006 -8.94095 -9.381448
00000000: 14c6 e8c0 4fe2 77be 7d34 2bc1 609e 943f
00000010: c3b9 9b40 6daa 0ac0 eb4b adc0 23fe 51c1
00000020: fffe 993f 41af 63c0 2396 9d40 823f 82c1
00000030: c1d7 d2c0 fa35 99c0 e255 9240 a765 b240
00000040: 25ef 8dc0 c3ed 86be d996 a940 9bc1 7dc1
00000050: 64df 7dbe da4e b5c0 f882 25c1 2b08 6540
00000060: 44a0 4fbe 2ad4 5f41 b0fd 16c1 d226 aac0
00000070: ecc4 8a41 d2c9 07c1 2908 e93f a10e 08c1
00000080: a4ce 5241 a73c 91c0 1d50 81c0 6f88 7840
00000090: a26c 87c1 6b7d 99c0 5643 60c1 c105 f9bf
000000a0: 3463 a6c0 5eb8 1cbe b211 8c40 5dad d8c0
000000b0: 46f6 8cc1 d6bc 53c0 220e 0fc1 691a 16c1

8.weight f4 [6, 48]
-0.012333988 -0.010901786 -0.04582597 -0.0071148765 0.0004879284 -0.005364472 0.012142825 -0.0046157707
0.27829838 -0.00855818 -0.0029338305 0.14462636 0.30468696 -0.18521279 0.005001773 0.009723286
0.0015094219 -0.07111935 0.047318406 -0.012461748 -0.018227672 -0.0033488658 0.009118998 -0.020277258
-0.18392919 0.019382525 0.05988697 0.0025125467 0.029426742 -0.0011544116 0.0046265065 0.00014929732
-0.04142246 -0.021257862 0.0068106554 -0.09421787 0.06135133 0.0018149152 0.012384196 -0.002569389
-0.05901181 -0.0011111732 0.021944163 -0.0031311938 -0.014075534 -0.0063769305 0.07156766 0.1801241
-0.024376767 -0.10690336 0.08907711 -0.0001740253 -0.004795962 0.096214734 0.06095637 -0.0016082287
0.12537977 0.017735595 -0.021917062 0.017285746 0.5723829 -0.10586275 -0.0009532265 0.009027882
0.0061202706 -0.20379025 0.1699327 -0.01594786 -0.0109931445 0.038085323 0.016262198 0.022049433
0.015634112 0.071072236 0.122538775 -0.015170673 0.047807194 -0.0138699105 0.016578728 -0.0026734767
-0.024493063 -0.084870614 -0.004719967 -0.074499175 0.05695643 -0.009359389 0.15602946 0.01046455
-0.091098666 -0.008017276 0.02284179 -0.010089048 -0.004729117 -0.09781311 0.14594147 0.046566036
0.042894464 -0.26569292 -0.0031417282 -0.03297323 0.044477843 -0.027967073 -0.052965246 0.11481448
0.053142708 0.09478614 0.026100637 0.019639721 0.68662274 -0.046224274 0.05491372 0.046227362
-0.012884011 -0.2743269 0.17349042 -0.012640076 0.0023363237 0.047454175 0.019281933 0.1505268
-0.035295077 0.2525173 0.016053401 -0.012117128 0.06949956 0.0064503984 0.17447837 -0.012899048
-0.020791503 -0.077813916 -0.033066515 -0.01423739 0.05611749 -0.026918408 0.08237662 -0.04665848
-0.14369614 -0.01810556 0.031017223 -0.014245937 -0.027325358 -0.03743292 -0.009402328 0.008256462
0.029724924 -0.28435156 -9.604741e-05 -0.082571596 0.28038755 -0.048292056 0.116227835 0.07063115
0.018982949 0.1575081 0.012833154 0.011074645 0.36299202 -0.018065 0.15119866 0.117234804
-0.0036362547 -0.17388667 0.09457262 -0.05161173 0.0010106508 0.039055366 0.011705327 -0.066754006
0.043211766 0.17636022 0.0129086105 -0.03355317 0.06617249 0.12739551 0.11471259 0.028942777
-0.01627363 -0.046808504 -0.048515067 -0.023065323 0.0133080445 -0.053449377 0.0070306854 -0.0032373448
-0.041843444 -0.040539566 0.06509314 0.157912 -0.06919435 -0.0020397336 -0.0075837797 0.008666089
-0.06318802 -0.15513277 0.020297078 -0.16409208 0.61813045 -0.0003725913 -0.014960465 -0.04756894
0.008507245 0.10167916 0.07283793 0.0022705104 0.1389123 0.0005065542 0.14847395 0.20358093
0.062164582 -0.10983195 0.029650679 0.052350294 0.012717507 0.039036334 0.05829948 -0.047295492
0.021658741 0.10200266 0.015269951 -0.09285841 0.050754167 -0.013204367 0.022561166 0.17470919
0.03922237 -0.013788562 -0.10282408 -0.003118804 -0.0044960324 0.18818662 0.004108055 0.11512673
-0.0144300815 -0.06024315 0.13932166 0.104079604 -0.07791497 0.02481788 0.00016609134 0.017967068
-0.027856216 -0.048252366 0.022325901 -0.21882404 0.4960113 0.0013804075 0.00936899 -0.017870897
0.009934256 0.030627236 0.04547052 0.0036254786 0.035181817 0.005859624 0.036040716 0.2746439
00000000: 7f14 4abc 689d 32bc 03b4 3bbd e923 e9bb
00000010: a4d0 ff39 74c8 afbb b3f2 463c e43f 97bb
00000020: 207d 8e3e 9c37 0cbc 8245 40bb ef18 143e
00000030: eeff 9b3e 6ca8 3dbe eae5 a33b 6b4e 1f3c
00000040: cbd7 c53a 06a7 91bd f2d0 413d 5c2c 4cbc
00000050: 3352 95bc a578 5bbb da67 153c 7e1c a6bc
00000060: ef57 3cbe 1ac8 9e3c 0a4c 753d 8aa9 243b
00000070: 5a10 f13c a04f 97ba f399 973b b28c 1c39
00000080: 99aa 29bd f824 aebc eb2b df3b 4cf5 c0bd
00000090: 884b 7b3d 73e2 ed3a 15e7 4a3c 3263 28bb
000000a0: 5eb6 71bd c9a4 91ba 3fc4 b33c b734 4dbb
000000b0: 129d 66bc 92f5 d0bb 1192 923d 7472 383e
000000c0: c9b1 c7bc 26f0 dabd 0f6e b63d 907a 36b9
000000d0: 7227 9dbb 3b0c c53d 63ad 793d 33cb d2ba
000000e0: 8e63 003e 3d4a 913c 698b b3bc d69a 8d3c
000000f0: b087 123f 92ce d8bd f3e1 79ba aee9 133c
00000100: 8d8c c83b 64ae 50be d602 2e3e 16a5 82bc
00000110: 971c 34bc 5bff 1b3d 4d38 853c 03a1 b43c
00000120: 1c13 803c 528e 913d 9cf5 fa3d 6a8e 78bc
00000130: 7ad1 433d 9f3e 63bc 1dd0 873c 7f35 2fbb
00000140: ada5 c8bc a5d0 adbd f4a9 9abb 0693 98bd
00000150: 254b 693d 1f58 19bc 30c6 1f3e 8173 2b3c
00000160: f091 babd e55a 03bc b51e bb3c 894c 25bc
00000170: b5f6 9abb 3d52 c8bd ae71 153e 07bc 3e3d
00000180: 1bb2 2f3d e708 88be 74e5 4dbb f00e 07bd
00000190: 662e 363d 341b e5bc 16f2 58bd db23 eb3d
000001a0: 2bac 593d 3c1f c23d 01d1 d53c 7be3 a03c
000001b0: 82c6 2f3f aa55 3dbd 35ed 603d e758 3d3d
000001c0: 7517 53bc 9374 8cbe 79a7 313e 5218 4fbc
000001d0: 021d 193b 4f5f 423d 25f5 9d3c b323 1a3e
000001e0: 9291 10bd f349 813e 6c82 833c eb86 46bc
000001f0: c955 8e3d dd5d d33b 75aa 323e 8756 53bc
00000200: f152 aabc e75c 9fbd c170 07bd f143 69bc
00000210: 74db 653d fe83 dcbc 13b5 a83d f61c 3fbd
00000220: 1525 13be 1d52 94bc d517 fe3c ca67 69bc
00000230: 6ed9 dfbc 4353 19bd 390c 1abc 1d46 073c
00000240: af81 f33c 8796 91be 106d c9b8 4c1b a9bd
00000250: f58e 8f3e e4cd 45bd dc08 ee3d 10a7 903d
00000260: 2182 9b3c ce49 213e 2642 523c 6e72 353c
00000270: 17da b93e 0dfd 93bc d2d3 1a3e cd18 f03d
00000280: 3b4e 6ebb 590f 32be 4aaf c13d d266 53bd
00000290: d077 843a 85f8 1f3d b3c7 3f3c 53b6 88bd
000002a0: d2fe 303d c697 343e a37e 533c 0c6f 09bd
000002b0: 7185 873d f873 023e 6fee ea3d 6719 ed3c
000002c0: 4750 85bc 46ba 3fbd bcb7 46bd 7df3 bcbc
000002d0: fc09 5a3c bced 5abd aa61 e63b a229 54bb
000002e0: 0864 2bbd d10c 26bd 8d4f 853d afb3 213e
000002f0: c4b5 8dbd 0dad 05bb 5b81 f8bb 36fc 0d3c
00000300: b868 81bd 20db 1ebe 0f46 a63c c107 28be
00000310: cc3d 1e3f 5c58 c3b9 bd1c 75bc a6d7 42bd
00000320: f961 0b3c 2a3d d03d 0d2c 953d d8cc 143b
00000330: 073f 0e3e 47ca 043a 8e09 183e 8577 503e
00000340: 4aa0 7e3d 93ef e0bd fbe5 f23c 436d 563d
00000350: 175d 503c 90e4 1f3d 6fcb 6e3d ebb8 41bd
00000360: ac6d b13c c5e6 d03d d12e 7a3c 8d2c bebd
00000370: 9ae3 4f3d 2157 58bc 32d2 b83c f7e6 323e
00000380: a3a7 203d 6ce9 61bc 6e95 d2bd d964 4cbb
00000390: 7453 93bb feb3 403e dd9c 863b 90c7 eb3d
000003a0: 266c 6cbc 85c1 76bd 56aa 0e3e b027 d53d
000003b0: e291 9fbd de4e cb3c ce28 2e39 ac2f 933c
000003c0: b832 e4bc 46a4 45bd cfe4 b63c 6913 60be
000003d0: 31f5 fd3e caee b43a 6480 193c fd65 92bc
000003e0: 4ac3 223c f8e5 fa3c 4c3f 3a3d 7099 6d3b
000003f0: cf1a 103d 1702 c03b 6e9f 133d 209e 8c3e

8.bias f4 [6]
-0.0013817667 0.001077754 0.002945996 0.00075702695 4.9896516e-06 -0.00024928694
00000000: 661c b5ba 6c43 8d3a 9c11 413b 3873 463a
00000010: c86c a736 bab2 82b9
