models/FF_no_station/FF_no_station_depth2_width48_batch106.pth (torch, 28392 bytes, 8 tensors)

0.weight f4 [48, 24]
0	0x3f05c9d3	0.52261084
1	0xbec050ca	-0.37561637
2	0x3d922044	0.071350604
3	0xbf5820fe	-0.8442534
4	0xbfd5e450	-1.67103
5	0xbf5e0bd6	-0.8673681
6	0x3d94d85d	0.072678305
7	0xbdf5ef33	-0.12008514
8	0x3e570930	0.20999599
9	0x3e0f46f0	0.13991904
10	0xbd591a85	-0.053003807
11	0xbd94038b	-0.07227238
12	0x3d897b3d	0.06712959
13	0xbd8d7e0d	-0.06908808
14	0x3ecab4f3	0.39591178
15	0x3eda5793	0.4264494
16	0x3e9a9ee9	0.30199364
17	0x3e086649	0.13320269
18	0xbc3b9e85	-0.011451368
19	0xbc7e06df	-0.015504568
20	0x3e78c34e	0.24293253
21	0x3e640a9c	0.22269672
22	0x3d0e16b2	0.034689613
23	0x3e460f19	0.19341697
24	0x3ed5dc9d	0.41769877
25	0xbf2ebe9c	-0.68259597
26	0x3f30ed22	0.69111836
27	0x3ec20193	0.37891826
28	0xbf8f4b94	-1.119494
29	0x3e8bb2c7	0.27284834
30	0x3dbea95d	0.09309647
31	0xbcae8239	-0.02130233
32	0x3e6faf73	0.23406772
33	0x3e8e19b2	0.2775398
34	0x3e0319f5	0.1280287
35	0x3e33525c	0.17511886
36	0xbe3856f3	-0.18001918
37	0xbe2ea2a6	-0.17054233
38	0x3d870c5f	0.065941565
39	0xbdc4bc67	-0.096062474
40	0xbce8f2a9	-0.028436022
41	0x3eedf6d4	0.46477377
42	0x3e061534	0.13094026
43	0xbf5ada7e	-0.8548964
44	0xbc9edf4f	-0.019393591
45	0xbd8c45aa	-0.06849225
46	0x3ef7a80f	0.48370406
47	0xbe267b3b	-0.16257946
48	0x3dc033d2	0.09384884
49	0xbf35ed68	-0.7106538
50	0x3f24c9f1	0.6437064
51	0xbd7d95f0	-0.06191057
52	0x3e3be678	0.18349636
53	0x3e8b6b13	0.2723013
54	0xbc929221	-0.017891945
55	0xbf33d98b	-0.7025382
56	0xbf6e9215	-0.93191653
57	0xbe93179d	-0.28728953
58	0x3da61a9f	0.08110546
59	0xbba7cd6f	-0.005120925
60	0xbdf97e4a	-0.12182291
61	0xbd292519	-0.041295145
62	0x3f46b7a8	0.7762399
63	0xbd44d54d	-0.048054982
64	0xbf1ee396	-0.6206602
65	0xbe065d7c	-0.13121599
66	0xbe9bfe81	-0.3046761
67	0x3ea7dd6b	0.32786116
68	0x3e859bdc	0.26095474
69	0x3ecee31a	0.4040764
70	0x3e98db1a	0.2985466
71	0xbe02541e	-0.127274
72	0x3d500baf	0.050792392
73	0x3f0588e7	0.5216202
74	0x3ea438a9	0.32074478
75	0xbf20a0da	-0.6274544
76	0xbf2e9812	-0.6820079
77	0xbf29ec5e	-0.6637629
78	0xbf3603f7	-0.710998
79	0xbe8df68f	-0.27727172
80	0x3eab4cf7	0.33457157
81	0x3f41e1d1	0.75735193
82	0x3e8e1ab4	0.27754748
83	0xbb1fdcb8	-0.0024393033
84	0x3d40201e	0.04690563
85	0xbced35bc	-0.028956287
86	0xbeff8bfd	-0.4991149
87	0xbe599ae2	-0.2125049
88	0x3d80ca85	0.062886275
89	0xbe8a72ae	-0.2704062
90	0xbdc08e74	-0.09402171
91	0x3ea15d0e	0.31516308
92	0x3f07bb2e	0.5301999
93	0x3d15790f	0.036492404
94	0xbe1b13da	-0.15144292
95	0x3f189523	0.59602565
96	0xbe2c919a	-0.16852418
97	0x3dd604c7	0.1045013
98	0x3dc9e94c	0.09858951
99	0xbd7cf3a3	-0.061755788
100	0xbe08dcef	-0.1336553
101	0xbdbdc3eb	-0.09265884
102	0x3ed3252b	0.41239294
103	0x3eeb8603	0.4600068
104	0xbdd398a3	-0.103318475
105	0x3ec93164	0.39295495
106	0xbff0a686	-1.8800819
107	0xc09bc32d	-4.867575
108	0xc000d09a	-2.012732
109	0xbf2494d5	-0.642896
110	0xbf466e84	-0.77512383
111	0x3f35f249	0.7107282
112	0x3f8b4493	1.0880302
113	0x3f72494c	0.9464309
114	0xbf383816	-0.7196058
115	0xbf286c7d	-0.6579054
116	0xbd40ddab	-0.0470864
117	0x3e16e009	0.147339
118	0xbe893757	-0.26800033
119	0x3f009bdb	0.50237817
120	0x3fbbb4e4	1.4664578
121	0x3cc4f8db	0.024044445
122	0xbf3be20a	-0.73391783
123	0x3f212243	0.62942904
124	0xbe25c775	-0.16189368
125	0x3e7a54e7	0.2444645
126	0x3e685f0f	0.22692512
127	0x3e82a973	0.25519904
128	0xbb902a7c	-0.004399596
129	0x3d4ba59f	0.049718495
130	0x3e0ba039	0.13635339
131	0xbdb65e0a	-0.08904655
132	0xbe93fc97	-0.28903648
133	0xbd37fe82	-0.044920452
134	0x3eb06283	0.34450158
135	0x3e2fc10e	0.17163488
136	0xbeac7314	-0.33681548
137	0xbf5ba2ba	-0.85795176
138	0x3cec27c1	0.02882755
139	0x3e8b41e5	0.2719871
140	0x3e85877c	0.2607993
141	0x3ed577e6	0.41693038
142	0xbdee62f2	-0.11639966
143	0xc026e944	-2.6079874
144	0xbe09def7	-0.1346396
145	0x3e700d4a	0.2344257
146	0xbe9235c3	-0.28556642
147	0x3f8ba8ff	1.0910949
148	0x3f1e44a6	0.618235
149	0xbf68027c	-0.9062879
150	0xbf7919c7	-0.9730496
151	0xbf1dee82	-0.6169206
152	0xbf303175	-0.68825465
153	0xbe328460	-0.1743331
154	0x3e8fb8ec	0.28070772
155	0x3df7fd06	0.12108807
156	0x3e981565	0.29703823
157	0x3ee7979d	0.4523286
158	0x3d4689be	0.048471205
159	0xbe24a350	-0.16077924
160	0x3d428ab7	0.04749557
161	0x3dbc85ac	0.092051834
162	0x3db4c75e	0.08827089
163	0x3d658e9c	0.056044206
164	0x3da733d6	0.08164184
165	0xbd0da153	-0.03457768
166	0x3dd76194	0.105166584
167	0xbe03cc8c	-0.12870997
168	0x3fbf202c	1.4931693
169	0x3ef455bf	0.4772167
170	0x3e9650de	0.29358572
171	0x3ede2a86	0.43391818
172	0xbe962ed9	-0.29332617
173	0xbe249406	-0.16072091
174	0x3e5bd3bb	0.21467488
175	0x3e2e7d44	0.17039973
176	0xbde2720d	-0.1105691
177	0xbea74a0c	-0.3267368
178	0x3b2d9bbf	0.0026490537
179	0x3e385f2f	0.1800506
180	0xbc9db899	-0.019253062
181	0xbe4630d1	-0.1935456
182	0x3df96c7b	0.12178894
183	0x3eb57c4c	0.35446393
184	0xbeaab710	-0.3334279
185	0xbe63ad3b	-0.22234051
186	0xbe9678a8	-0.29388928
187	0x3eb4316d	0.3519396
188	0xbc9ae811	-0.018909486
189	0x3e226ed1	0.15862586
190	0x3d4a7168	0.04942456
191	0xc04c3379	-3.1906416
192	0x3fd49e00	1.6610718
193	0xbe4d33a7	-0.20039235
194	0x3e5902c2	0.21192458
195	0xbda0e6b2	-0.07856502
196	0xbd95cae5	-0.0731409
197	0x3cd09f40	0.025466561
198	0x3dfe9e79	0.1243257
199	0x3ea156b2	0.31511456
200	0x3d84072d	0.06446681
201	0xbe718eed	-0.23589678
202	0x3e443a54	0.19162875
203	0xbd8a74ed	-0.06760583
204	0xbf2b3fb0	-0.66894054
205	0x3e17966b	0.14803474
206	0x3e7e17a5	0.24813707
207	0x3f04c56b	0.51863736
208	0x3e3b55ea	0.18294492
209	0xbf5dbe6b	-0.8661868
210	0xbf628878	-0.88489485
211	0xbf01762c	-0.5057094
212	0xbeee7423	-0.4657298
213	0xbf5aa933	-0.8541443
214	0x3cdfe750	0.027331978
215	0xbefc1b99	-0.49239805
216	0xbe2e61a2	-0.17029431
217	0xbf243eca	-0.6415831
218	0xbeadc6bc	-0.33940685
219	0xbd02ce1b	-0.03193484
220	0x3f3283bb	0.69732255
221	0x3f37d0df	0.71803087
222	0xbf6ff06f	-0.9372625
223	0xbf4e10a2	-0.8049413
224	0xbe63ee62	-0.22258905
225	0xbf084a83	-0.53238696
226	0xbdd63cf3	-0.10460844
227	0x3e82e77e	0.2556724
228	0x3e5d1bc5	0.21592624
229	0x3e1d8703	0.15383534
230	0x3e844b78	0.25838828
231	0x3cca713f	0.024712203
232	0x3cdc7f29	0.026916103
233	0x3eaa89ed	0.33308354
234	0x3e14eb05	0.14542778
235	0x3e96b378	0.294338
236	0x3c3156e1	0.010823936
237	0xbec4fb99	-0.38473204
238	0xbf26c107	-0.65138286
239	0x3f4ef3aa	0.8084055
240	0x3f64fa0a	0.8944403
241	0xbfbcf0e1	-1.476101
242	0xc00944cf	-2.1448247
243	0xbf33a3b5	-0.7017167
244	0x3ecb5b8f	0.3971829
245	0x3eb40efe	0.35167688
246	0x3ea39757	0.319514
247	0x3ed09456	0.4073817
248	0x3e7f9289	0.24958242
249	0xbe7bbeb9	-0.24584474
250	0xbdcdef29	-0.10055382
251	0xbcc8c9d0	-0.024510294
252	0xba15a0b8	-0.0005707848
253	0x3d7fae1f	0.062421914
254	0xbd24703c	-0.040146098
255	0xbd997c38	-0.07494396

0.bias f4 [48]
0	0xc0014273	-2.0196807
1	0xc1026a2f	-8.150924
2	0xc18efd5b	-17.873709
3	0xc00d3a64	-2.206689
4	0xc1e87f1f	-29.06207
5	0x414dcd2d	12.862592
6	0x40ad848c	5.42243
7	0xc10632da	-8.387415
8	0xc140e137	-12.054984
9	0x3e6f4a3d	0.23368163
10	0x40929f1a	4.5819216
11	0x40937e2d	4.6091523
12	0xbe85c22a	-0.26124698
13	0xc01f0b57	-2.4850671
14	0xbfbeae19	-1.489688
15	0x41a16a8a	20.177021
16	0x40ee908f	7.4551463
17	0xc158a33d	-13.539853
18	0xc11dce4e	-9.862867
19	0xc084b013	-4.1464934
20	0x3f552da0	0.83272743
21	0xc1444a6e	-12.268171
22	0xc0e34241	-7.1018376
23	0x412b2af4	10.697987
24	0x40e6e5de	7.21556
25	0xc0898f94	-4.2987766
26	0x3e8c67cd	0.27422944
27	0xc1587afd	-13.530026
28	0xbf3eae97	-0.7448515
29	0xc0510698	-3.2660275
30	0xc1d85a79	-27.044176
31	0xc186d0a8	-16.851883
32	0xc1178bb5	-9.471608
33	0x41db1a47	27.38783
34	0x4139e8ee	11.619368
35	0xc1478a7e	-12.471312
36	0x400199a3	2.0250022
37	0xc109703f	-8.589904
38	0x41702ed3	15.011432
39	0xc16ebc35	-14.920949
40	0xc197abfc	-18.958977
41	0x419ceec5	19.616587
42	0x40f29bf8	7.581539
43	0xbea19ed2	-0.31566483
44	0x40e84742	7.2586985
45	0x4002be7e	2.0428767
46	0x412cd4cf	10.801955
47	0xc1b9320c	-23.149437

2.weight f4 [48, 48]
0	0xbe254411	-0.16139247
1	0xbfb7ef73	-1.4369949
2	0x3e72edbf	0.23723505
3	0xbf9bae73	-1.2162613
4	0x3f07b83a	0.5301548
5	0xbe68a3f7	-0.22718798
6	0xbbf7d657	-0.007563393
7	0xbc0eecef	-0.008723482
8	0xbda1cd89	-0.07900531
9	0x3e565115	0.20929368
10	0xbf74aa99	-0.9557281
11	0x3f13289d	0.57483846
12	0x3f5d4bcc	0.8644378
13	0xbf0a5696	-0.5403837
14	0x3f1e8552	0.6192218
15	0xbc85aa77	-0.016316636
16	0x3f06b900	0.5262604
17	0x3ec8bb44	0.39205372
18	0x3e32f123	0.17474799
19	0x3e3dd09c	0.1853661
20	0x3de7b314	0.11313453
21	0xbf884cc5	-1.0648428
22	0xbf0dde6e	-0.55417526
23	0x3f13f79c	0.57799697
24	0x3df13d43	0.11779263
25	0xbf432ade	-0.76237285
26	0xbec4b21b	-0.38417134
27	0xbfea677a	-1.8312829
28	0x3ecf709a	0.40515596
29	0xbd0fd980	-0.035119534
30	0xbf9168a6	-1.1360061
31	0xbfb606b6	-1.4220798
32	0x3e2016e7	0.15633737
33	0xbef502cb	-0.47853693
34	0x3e1c5c0c	0.15269488
35	0xbf1ac199	-0.60451657
36	0xbee80da1	-0.45322898
37	0xc0146cb6	-2.3191352
38	0x3df1da43	0.11809208
39	0x3eda936a	0.42690593
40	0xbe9df8e9	-0.30853966
41	0x3fd8b790	1.6931019
42	0x3eff6657	0.49882767
43	0x3ef3fc83	0.4765359
44	0x3f2e7ad6	0.6815618
45	0xbee88a6c	-0.45418108
46	0x3dfb4c80	0.122704506
47	0xc01db97a	-2.4644456
48	0x3cbd4a63	0.02310676
49	0x3cb0502f	0.02152261
50	0x3e9bc623	0.30424604
51	0xbf114ef4	-0.567611
52	0xbe4876a7	-0.19576512
53	0x3d64576d	0.05574744
54	0xbc8ea1c5	-0.017411122
55	0xbe701814	-0.23446685
56	0x3f0656d7	0.5247626
57	0x3ce210a6	0.02759583
58	0xbf372220	-0.71536446
59	0x3f2fba4a	0.6864363
60	0xbf0ed99a	-0.55800784
61	0xbe594c05	-0.21220405
62	0xbf0a197a	-0.53945124
63	0xbede9612	-0.4347387
64	0x3e5795fd	0.2105331
65	0x3f8d75e2	1.10516
66	0xc014900c	-2.321292
67	0xbeb87b5d	-0.3603162
68	0xbbb5a2d1	-0.005543091
69	0xbd9d4b71	-0.07680405
70	0x3f23a00b	0.6391608
71	0xbe896d2d	-0.26841107
72	0x3f2bf68e	0.6717309
73	0xbdd6c2cd	-0.10486374
74	0x3e8b01a7	0.27149698
75	0x3f213d2b	0.6298396
76	0x3e18f0ce	0.1493561
77	0x3e1013cf	0.14070056
78	0xbf753c0f	-0.9579477
79	0x3f022490	0.5083704
80	0x3f4181db	0.7558877
81	0x3eb90b7a	0.36141568
82	0x3d0deceb	0.03464977
83	0xbfcf81c4	-1.6211476
84	0x3f051c76	0.5199655
85	0x3e325700	0.17416
86	0xbf28fba8	-0.66008997
87	0xbeb18303	-0.34670267
88	0x3e0af2a2	0.1356912
89	0x3e79afdf	0.24383496
90	0x3fc14d5e	1.5101736
91	0xbe972aee	-0.2952494
92	0xbf114c16	-0.5675672
93	0xbe6c81eb	-0.23096435
94	0xc0012ea3	-2.0184715
95	0xc0589c73	-3.384549
96	0xbeaf6756	-0.34258527
97	0xbe252207	-0.16126262
98	0x3eba660d	0.36405984
99	0xbec61f23	-0.3869563
100	0xbff9eb81	-1.9524995
101	0x3e7c4c28	0.24638426
102	0xbf6851b3	-0.90749663
103	0xbdbf4fb1	-0.09341372
104	0x3e974fc8	0.29553056
105	0xbf690d80	-0.91036224
106	0xbdc05c4a	-0.09392603
107	0xbeb9c27a	-0.36281186
108	0xbe6d68a9	-0.23184456
109	0x3e2365ce	0.15956804
110	0x3eda3144	0.42615712
111	0x3e143a5c	0.14475387
112	0x3ec0c711	0.37651876
113	0x3ec9459e	0.39310926
114	0xbf137247	-0.5759625
115	0xbe862c5c	-0.2620572
116	0xbe58a667	-0.21157227
117	0xbe63aa91	-0.22233035
118	0xbe163dcf	-0.14672016
119	0xbf885c1c	-1.065311
120	0xbf201fc7	-0.6254849
121	0x3c7ed10c	0.01555277
122	0xbe9b9166	-0.30384368
123	0x3e331ad4	0.17490703
124	0x3cc6a83d	0.024250144
125	0x3ebe61a8	0.3718388
126	0x3e76a4eb	0.24086349
127	0xbf01516b	-0.5051486
128	0xbf3f1af1	-0.74650484
129	0xbe0b963e	-0.13631532
130	0x3e951f27	0.2912533
131	0xbf00b431	-0.5027495
132	0xbe12b038	-0.14325035
133	0xbeb7779d	-0.35833445
134	0x3e0dc8c3	0.13846116
135	0xbf473bdd	-0.7782572
136	0xbf1edae2	-0.6205274
137	0xbe204c3c	-0.15654081
138	0x3e012784	0.1261273
139	0xbffa23e1	-1.9542199
140	0xbe74e73b	-0.23916332
141	0x3f16722d	0.5876797
142	0x3dbd08cf	0.09230196
143	0x3de8ff9e	0.1137688
144	0xbcb0f0e1	-0.021599235
145	0xbdcafe8a	-0.09911831
146	0x3ea88d86	0.32920474
147	0xbff90b34	-1.9456544
148	0x3f7131d6	0.9421667
149	0x3e8f4b1e	0.27986997
150	0xbeba6b5a	-0.36410028
151	0xbe8cdb81	-0.27511218
152	0xbf742450	-0.9536791
153	0x3e19eae1	0.15031005
154	0x3ed33124	0.4124843
155	0xbf0a790a	-0.5409094
156	0x3e53d3d3	0.20686273
157	0xbeb5d31d	-0.3551263
158	0xbea100a7	-0.3144581
159	0x3e8dc070	0.2768588
160	0xbd76fe47	-0.06030109
161	0xbe892e5d	-0.26793185
162	0x3f2c6515	0.6734174
163	0xbf858a69	-1.0432864
164	0xbf222270	-0.633338
165	0xbe40c579	-0.1882533
166	0xbd81d2cb	-0.06339034
167	0x3f14a250	0.5806017
168	0xbf18cc84	-0.59687066
169	0xbd329b2f	-0.043605026
170	0xbf8bb9e5	-1.0916106
171	0xbcc94837	-0.024570568
172	0x3e60e55b	0.21962492
173	0x3eeb897d	0.46003333
174	0x3ee2a0ba	0.4426325
175	0x3f4a7387	0.7908253
176	0x3f143926	0.578997
177	0xbf113a50	-0.567296
178	0xbec1bfcc	-0.37841642
179	0xbf0df6c8	-0.55454683
180	0xbe82eb91	-0.25570348
181	0x3cad0445	0.0211202
182	0xbfa0e857	-1.2570904
183	0x3dbe82a7	0.09302264
184	0x3e9271d5	0.28602472
185	0xbf53ab02	-0.8268281
186	0x3f90356b	1.1266302
187	0xbf036f03	-0.51341265
188	0x3f05ff07	0.52342266
189	0xbf331462	-0.69952977
190	0x3ec67a06	0.38764971
191	0x3f48b5b4	0.78402257
192	0xbf260fe7	-0.64868015
193	0xbe8cb030	-0.2747817
194	0x3f04c478	0.5186229
195	0xbefb460c	-0.4907688
196	0x3f0073c5	0.5017665
197	0xbe9efb62	-0.31051165
198	0xbf90d7d1	-1.1315862
199	0xbe016975	-0.12637885
200	0x3e540b8b	0.20707528
201	0xbebe0dd6	-0.3711993
202	0xbe3be9e1	-0.18350936
203	0x3f14fa60	0.5819454
204	0xbef57400	-0.47940063
205	0x3e120f9c	0.14263767
206	0xbe5bcf44	-0.21465784
207	0xbef844bc	-0.4848994
208	0xbd6f8fb2	-0.058486648
209	0x3e135224	0.14386803
210	0xbf9dc52f	-1.2325801
211	0xbf3604a5	-0.71100837
212	0x3e382143	0.17981438
213	0xbea1d229	-0.31605652
214	0x3e84ab8a	0.25912124
215	0x3e71b664	0.23604733
216	0x3de3dd91	0.11126245
217	0x3e8507ec	0.25982606
218	0x3d095a91	0.033533636
219	0x3e4218e7	0.18954812
220	0x3ed08540	0.40726662
221	0x3e39055f	0.18068455
222	0xc00e717f	-2.2256773
223	0xbf74b34a	-0.95586073
224	0xbc97ba26	-0.01852138
225	0xbe629301	-0.2212639
226	0xbe4704a4	-0.19435364
227	0xbfba4bed	-1.4554421
228	0x3ee9e139	0.45679644
229	0xbeaaba63	-0.33345327
230	0xbf120858	-0.5704398
231	0x3e391a7f	0.18076514
232	0xbf2ed00b	-0.682862
233	0x3eeb2400	0.45925903
234	0x3fa3128a	1.2740033
235	0xbe8c2d51	-0.27378324
236	0x3cdb4e27	0.026770664
237	0xbe81bea5	-0.25340763
238	0xbffe4c83	-1.98671
239	0xbd4b9066	-0.049698256
240	0xbf69949f	-0.912424
241	0x3eceb759	0.40374258
242	0x3f1dccdf	0.61640733
243	0xbf000b26	-0.5001701
244	0xbf98856e	-1.191572
245	0xbe29c90f	-0.16580604
246	0xbe245ea6	-0.1605173
247	0x3e444e7f	0.19170569
248	0xbf429bcb	-0.7601897
249	0xbe45b66c	-0.1930787
250	0xbf041486	-0.51593816
251	0xbe19c73b	-0.15017407
252	0xbd3d9b53	-0.046290707
253	0xbc9615d2	-0.018320952
254	0xbea9701a	-0.3309334
255	0xbf47fe30	-0.78122234

2.bias f4 [48]
0	0x3fa1edda	1.2650712
1	0xc146150a	-12.3801365
2	0x41986050	19.047028
3	0x409cfe2a	4.906026
4	0xc1199025	-9.597692
5	0xc0bd91dd	-5.9240556
6	0x3c047aff	0.008085965
7	0xc05a5533	-3.4114501
8	0xc1823a02	-16.278324
9	0xc14e2325	-12.88358
10	0xc0e803bf	-7.2504573
11	0xc12c2f5b	-10.761561
12	0xc1cb976d	-25.448938
13	0xc1d2263f	-26.268675
14	0xc102e54c	-8.180981
15	0xc13c5ee2	-11.773165
16	0xc19d8d6f	-19.69406
17	0xc10fcfb4	-8.988209
18	0x41021c8e	8.131971
19	0x41850461	16.627138
20	0xc13b3b6b	-11.702006
21	0x40a8ed3d	5.2789598
22	0x3f1d3315	0.6140607
23	0xc068f082	-3.6396794
24	0x400bf9e8	2.187128
25	0x40db56e4	6.854357
26	0x40a052d3	5.0101104
27	0x40983e84	4.7576313
28	0x3fce82b8	1.6133642
29	0xc142f587	-12.184943
30	0x3cdea027	0.027175976
31	0x3f5e4da6	0.8683723
32	0xc14baf72	-12.730333
33	0xc111775c	-9.09164
34	0x4142df33	12.179492
35	0xbfcdd417	-1.608035
36	0x4089cdce	4.3063726
37	0x3f35a9c8	0.7096219
38	0xc0c3bbcc	-6.1166744
39	0x3da1562e	0.078777656
40	0x410c0c07	8.752936
41	0x414d9211	12.848161
42	0x41be05ba	23.752796
43	0xc0264297	-2.5978143
44	0xc1164eb4	-9.394215
45	0x402d99a5	2.7125027
46	0x4186aaff	16.833494
47	0xc0cfaeb6	-6.490077

4.weight f4 [48, 48]
0	0xbef2495b	-0.4732159
1	0xbef50b16	-0.4786002
2	0x3f1d15ca	0.6136137
3	0xbf2ceba7	-0.67547077
4	0xbea424bf	-0.32059285
5	0x3eccd52f	0.40006396
6	0xbed74b47	-0.4204962
7	0x3d2d4df2	0.042310663
8	0x3e26a5f9	0.16274251
9	0x3dcc2747	0.09968429
10	0xbdf376c4	-0.11887887
11	0x3e311235	0.17292102
12	0x3e2ef30f	0.17084907
13	0x3f18287d	0.5943678
14	0xbe8e58ff	-0.27802274
15	0xbf205315	-0.62626773
16	0x3ec78b77	0.3897359
17	0xbe60f30e	-0.21967718
18	0x3e70a509	0.23500456
19	0xbe6f92fa	-0.23395911
20	0x3e915a36	0.28389138
21	0xbe9d55ed	-0.3072962
22	0xbd30d138	-0.043168277
23	0xbedc13ef	-0.42983958
24	0x3e620caf	0.22075151
25	0x3d47c5de	0.048772685
26	0xbd7a4a87	-0.06110623
27	0x3e0750d2	0.13214424
28	0x3f2ff749	0.687367
29	0xbe77e042	-0.24206641
30	0x3a5e7655	0.0008486261
31	0xbe7370c2	-0.23773482
32	0xbe015d80	-0.12633324
33	0x3e5d1fdd	0.21594186
34	0xbed770f3	-0.4207836
35	0xbe2b2349	-0.16712679
36	0xbd2e14a8	-0.042500168
37	0xbc2bd983	-0.010488871
38	0x3e15888f	0.14602874
39	0xbe260870	-0.16214156
40	0xbef60539	-0.4805086
41	0xbe957336	-0.2918946
42	0x3ea01903	0.31269082
43	0xbcd0503f	-0.02542889
44	0xbec9e49b	-0.39432225
45	0xbe003542	-0.12520316
46	0xbedc0028	-0.4296887
47	0x3e459eed	0.19298907
48	0xbeb82ccd	-0.3597168
49	0xbe201b0c	-0.15635318
50	0x3ecfd608	0.4059298
51	0x3eb912d2	0.3614717
52	0xbd3499c0	-0.04409194
53	0xbf48ea43	-0.78482455
54	0xbd0b852a	-0.034062542
55	0x3e24e444	0.16102701
56	0xbf08a5d5	-0.5337804
57	0xbd7ad49e	-0.061237924
58	0x3ed58d3e	0.41709322
59	0x3e926e6b	0.28599867
60	0x3dbe2ad8	0.092855155
61	0xbf287815	-0.6580823
62	0xbe65e41e	-0.22450301
63	0xbf184fd5	-0.59496814
64	0x3d92c13e	0.07165764
65	0x3e570d31	0.21001126
66	0x3f0de1a0	0.554224
67	0xbe87de00	-0.2653656
68	0x3efc0199	0.4921997
69	0x3e3dd392	0.18537739
70	0x3ea9c047	0.33154508
71	0xbfdbcdc7	-1.7172173
72	0xbdc7fe0c	-0.097652525
73	0x3dd8c7f7	0.10585015
74	0xbe4311c1	-0.19049741
75	0xbe89e214	-0.26930296
76	0x3f0bd577	0.54622597
77	0x3db3f3d6	0.087867424
78	0x3deea012	0.11651625
79	0x3dab9f80	0.083800316
80	0x3e2a46b8	0.1662854
81	0xbc27a265	-0.010231589
82	0xbe82304c	-0.25427473
83	0xbe93d2bb	-0.28871712
84	0xbea65ebe	-0.32494158
85	0x3b833048	0.0040035583
86	0xbff3ce57	-1.9047345
87	0xbe9ff29a	-0.31239778
88	0x3df086b9	0.11744446
89	0xbe0ed3a3	-0.1394792
90	0x3dd6a997	0.104815654
91	0xbf93b1bf	-1.1538619
92	0xbf247b50	-0.6425066
93	0x3d01fded	0.031736303
94	0xbe55c10a	-0.2087442
95	0xbe477649	-0.19478716
96	0xbf30d5d7	-0.69076294
97	0x3ed2c7bc	0.4116801
98	0xbee4eed1	-0.44713452
99	0xbee8df93	-0.45483074
100	0xbfbb6f44	-1.464333
101	0xbf9243cd	-1.1426941
102	0xbfbe7778	-1.4880209
103	0x3decaf7c	0.115569085
104	0x3e4d2331	0.20032956
105	0xbf5aa3ea	-0.85406363
106	0x3f2cecd9	0.675489
107	0xbf2350da	-0.63795245
108	0xbf2b0692	-0.668069
109	0xbe1aca88	-0.15116322
110	0xbf138056	-0.576177
111	0xbfce80e5	-1.6133085
112	0xbed12e42	-0.40855604
113	0xbfaca934	-1.3489137
114	0x3dae7403	0.08518221
115	0x3d20fc19	0.03930292
116	0xbee0701d	-0.43835536
117	0xbf50c077	-0.8154368
118	0x3e73a7bc	0.23794454
119	0xbf6be395	-0.9214414
120	0xbedec463	-0.43509206
121	0xbf384cfc	-0.7199247
122	0x3f18483c	0.5948522
123	0x3e230907	0.15921412
124	0x3ee10ed4	0.43956625
125	0x3e116ffb	0.14202873
126	0x3e0533c8	0.13008034
127	0x3ea1ba0a	0.3158725
128	0xbcf87229	-0.030327873
129	0xbfaa72a7	-1.3316239
130	0xbfafbd44	-1.3729634
131	0xbf8edef4	-1.116179
132	0xbf856224	-1.0420575
133	0xbe3b3b5b	-0.18284361
134	0x3eaf1e70	0.3420291
135	0x3e116ad1	0.14200903
136	0xbf323fd3	-0.6962864
137	0xbfaa5862	-1.3308222
138	0xbf37be81	-0.7177506
139	0xbeee5481	-0.46548846
140	0xbf254808	-0.64563036
141	0xbf05fd85	-0.52339965
142	0xbed9496e	-0.42438835
143	0x3f148efe	0.5803069
144	0x3cc70ebc	0.024299018
145	0x3ca3fb98	0.02001743
146	0xbda702b6	-0.08154814
147	0x3cb2c316	0.02182154
148	0xbec3ef48	-0.38268495
149	0x3e5b6fe8	0.21429408
150	0x3cb741f7	0.022370322
151	0xbe6cb5b5	-0.2311619
152	0xbd9e0792	-0.07716288
153	0xbd2ec7cf	-0.04267102
154	0x3cb25f9d	0.021774108
155	0x3d6944b5	0.05695029
156	0xbca3f0f1	-0.02001235
157	0x3d43002f	0.047607597
158	0x3dd8f7f4	0.10594168
159	0x3e85b12a	0.26111728
160	0x3e2e2f45	0.1701022
161	0xbe7da267	-0.24768983
162	0xbf9aa5a5	-1.2081801
163	0xbc8d1775	-0.0172231
164	0x3e0a75ee	0.13521549
165	0x3e7db936	0.24777684
166	0xbecd76d7	-0.4012973
167	0x3d5fa0b8	0.054596633
168	0xbe8efcac	-0.27927148
169	0xbf382b54	-0.71941113
170	0x3dedb501	0.116067894
171	0xbd9dd502	-0.07706644
172	0xbde8f206	-0.11374287
173	0xbd09c9ea	-0.033639826
174	0xbd63a8a4	-0.05558075
175	0xc08ecd87	-4.462589
176	0x3d409acd	0.04702263
177	0xbe925633	-0.2858139
178	0xbda430c8	-0.08017117
179	0x3de47f9d	0.11157153
180	0xbe66368d	-0.22481747
181	0x3efce1bd	0.49390975
182	0x3dc93f91	0.098265775
183	0xbd7311b8	-0.05934307
184	0x3c259569	0.010106423
185	0x3d0010dd	0.031266082
186	0x3e4b79dd	0.19870706
187	0xbe15b848	-0.14621079
188	0xbee553c4	-0.4479047
189	0xbd446457	-0.047947254
190	0xbc909da8	-0.017653301
191	0xbeafd2ce	-0.3434052
192	0xbe3093f0	-0.17243934
193	0xbe0a61cf	-0.13513874
194	0x3ed3e511	0.413857
195	0xbd6dea85	-0.058084983
196	0x3d888083	0.06665137
197	0x3d37a0af	0.044830974
198	0x3e0a4232	0.13501814
199	0xbdfb0d1f	-0.12258362
200	0xbc62671d	-0.013818529
201	0x3ca9c88b	0.02072551
202	0xbd40d89f	-0.047081586
203	0xbde30315	-0.11084572
204	0xbed1dd77	-0.40989277
205	0xbf856ff2	-1.0424788
206	0x3ccaa8b6	0.02473865
207	0x3ebd96b0	0.37029028
208	0xbe7ed4a6	-0.24885806
209	0xbe9556b1	-0.29167703
210	0xbe491be1	-0.19639541
211	0x3ce16b43	0.027516967
212	0xbd9426aa	-0.07233937
213	0xbf004894	-0.50110745
214	0x3d102d11	0.03519923
215	0xbbced2c5	-0.006311747
216	0x3de40d2a	0.11135323
217	0xbf72330f	-0.9460916
218	0x3e1b0005	0.15136726
219	0xbe4e0e99	-0.20122756
220	0xbef836e3	-0.48479375
221	0x3b49b203	0.003077627
222	0xbce04260	-0.0273754
223	0x3e17f19f	0.14838265
224	0xbd645bd8	-0.05575165
225	0xbe232187	-0.15930758
226	0xbea31caa	-0.31857806
227	0x3d1e1409	0.038593326
228	0xbe100b54	-0.14066821
229	0x3d42118a	0.047380008
230	0xbd4465de	-0.04794871
231	0x3e6a9fe0	0.2291255
232	0x3e3ac82b	0.1824042
233	0xbd128aea	-0.03577701
234	0x3e6c41ba	0.23071948
235	0x3da630b7	0.0811476
236	0xbe977778	-0.29583335
237	0xbde56ec8	-0.112027705
238	0x3e80eb99	0.25179747
239	0xbe06aa7c	-0.13150972
240	0xbf03019f	-0.5117435
241	0xbec105f1	-0.37699845
242	0x3e2a0d9c	0.16606754
243	0x3e3bbe2a	0.1833426
244	0x3e973523	0.29532728
245	0xc005b6d8	-2.089285
246	0xbe0815a7	-0.1328951
247	0xbe3e9951	-0.18613173
248	0xbe83f92b	-0.25776038
249	0xbe3c64b8	-0.18397796
250	0x3e7eae54	0.24871188
251	0xbd86a21d	-0.065738894
252	0xbeb8a721	-0.3606501
253	0xbd942f8d	-0.07235632
254	0xbf25e3e6	-0.6480087
255	0x3ebee293	0.37282237

4.bias f4 [48]
0	0x412ac410	10.672867
1	0x3f4fdff4	0.812011
2	0xc101f5e6	-8.122534
3	0xc0337d16	-2.8045096
4	0x3f93a679	1.1535178
5	0x4153b226	13.230993
6	0xbf39f3c5	-0.7263759
7	0x4105c63f	8.3609
8	0xc18f7dd1	-17.936434
9	0xc119f7d9	-9.62301
10	0xc03c543e	-2.9426417
11	0xc1d15276	-26.165264
12	0x41ba2052	23.265781
13	0x3fc33a09	1.5252086
14	0xc0e7d3b2	-7.2445917
15	0x400de680	2.2171936
16	0x3f7b71da	0.982206
17	0x41129c1b	9.163112
18	0x40c0faff	6.030639
19	0x40605131	3.5049555
20	0x411a2bae	9.635664
21	0x41054548	8.329414
22	0xc10c7de8	-8.780739
23	0xc0fe85d9	-7.953839
24	0xc02f3f4c	-2.7382383
25	0x40048bd8	2.0710354
26	0x40fd3292	7.912423
27	0xc08963b5	-4.2934213
28	0xc0b2ca18	-5.5871696
29	0x400ddfd2	2.216786
30	0xc09e09b9	-4.938687
31	0xc12c4c71	-10.768662
32	0xc1ae9459	-21.822435
33	0xc0f3a450	-7.6138077
34	0x40ac5039	5.384793
35	0xc1f80e89	-31.007097
36	0xc0ab08d0	-5.3448257
37	0x4114744b	9.278392
38	0xc0841848	-4.127964
39	0x41c0c55e	24.09637
40	0xc1748ca1	-15.284333
41	0x40b05bfd	5.511229
42	0xbe827d6e	-0.2548632
43	0xc111e2ad	-9.117841
44	0x408cbc41	4.39798
45	0xc109cd73	-8.6126585
46	0xc15f8959	-13.971032
47	0x40ab99fd	5.3625474

6.weight f4 [6, 48]
0	0xbd73baad	-0.0595042
1	0x3b1e0ca0	0.0024116412
2	0x3e2174da	0.15767232
3	0x3c047f38	0.008086972
4	0x3d6d0d20	0.057873845
5	0x3cabf77a	0.02099203
6	0xbbb55e47	-0.0055349204
7	0xba9153cb	-0.0011087594
8	0x3b6ce810	0.0036149062
9	0x3cf5481a	0.029941607
10	0x3c3ff156	0.011715254
11	0xbbae3e15	-0.0053174593
12	0x3e04b863	0.12960963
13	0xbb5f79e5	-0.0034099754
14	0xbbdd53a6	-0.0067543564
15	0x3ccead22	0.02522904
16	0x3d2aa723	0.0416633
17	0xbb6fdf68	-0.0036601666
18	0xbcb88a13	-0.022526776
19	0x3b950bd9	0.0045485315
20	0x3d8fbe82	0.07018758
21	0x3cd3884d	0.02582183
22	0xbcc0601b	-0.023483327
23	0xbc212f39	-0.009837919
24	0xbbc7fa14	-0.0061028097
25	0x3c8b394c	0.016995095
26	0x3e9982b3	0.29982528
27	0xbbc86f4d	-0.0061167837
28	0xbd055795	-0.032554228
29	0x3e905813	0.28192195
30	0xbd077de1	-0.03307903
31	0xbbbb9ae0	-0.0057252496
32	0x3dc1d416	0.0946428
33	0xbc25f99f	-0.010130315
34	0xbcb86445	-0.02250875
35	0xbdb8f22f	-0.09030568
36	0x3e41a58b	0.18910806
37	0x3db7b7c0	0.089705944
38	0x3be8c374	0.007103378
39	0xbd47ce38	-0.04878065
40	0xbc7b87f9	-0.015352243
41	0x3cd6e469	0.026231961
42	0xbdceddef	-0.10100924
43	0x3da3c6fc	0.07996938
44	0xbc7ff174	-0.015621532
45	0xbd8f09b4	-0.069842726
46	0x3da588d9	0.08082742
47	0xbcdba341	-0.026811244
48	0xbd3dab7b	-0.046306115
49	0x3c3e242d	0.011605305
50	0x3e2b1b03	0.16709523
51	0x3bcce3a6	0.0062527237
52	0x3cecb03d	0.02889263
53	0x3d31bac5	0.043391008
54	0xbc0f862a	-0.008760015
55	0x3c0edd59	0.008719766
56	0x3dcb77d7	0.09934967
57	0x3d61eed6	0.055159412
58	0xbc047511	-0.008084551
59	0xbc593516	-0.013257286
60	0x3e353067	0.17694245
61	0xbc933d39	-0.01797353
62	0xbc0a3769	-0.008436062
63	0x3d6716a5	0.05641808
64	0x3d4dc36e	0.050235204
65	0x3dfa8d64	0.12233999
66	0xbd5e5873	-0.05428357
67	0x3d8f84fa	0.07007785
68	0x3e8c0219	0.2734535
69	0x3d8381c0	0.06421232
70	0xbd9d673a	-0.076857045
71	0xbd2fbb02	-0.042902954
72	0xbba096d4	-0.0049007926
73	0x3dc14d01	0.094385155
74	0x3e379348	0.17927277
75	0xbc93aef1	-0.018027755
76	0xbd70da56	-0.05880197
77	0x3e313380	0.17304802
78	0x3d47e339	0.04880068
79	0x3bc7deec	0.0060995724
80	0x3de91c54	0.11382356
81	0xbcaf4942	-0.021397237
82	0x3e09902f	0.13433908
83	0xbddf7c22	-0.10912348
84	0x3d04b5de	0.032400005
85	0x3e1c053c	0.15236372
86	0x3c15d20f	0.00914432
87	0xbda65992	-0.08122553
88	0xbd82df3f	-0.06390237
89	0x3de3497f	0.11098003
90	0xbd41edce	-0.04734593
91	0xbda2c3c7	-0.07947498
92	0xbcebc5aa	-0.028780777
93	0xbc3c303d	-0.01148611
94	0x3df4175d	0.11918519
95	0xbd5a7b8e	-0.053340487
96	0xbd043277	-0.03227469
97	0xbb88cc44	-0.004174741
98	0x3d6f1b36	0.05837556
99	0x3c25dda4	0.010123644
100	0x3c138a31	0.009005115
101	0x3d1183b5	0.035525996
102	0xbbf20fd8	-0.0073871426
103	0x3d1dbd5c	0.038510665
104	0x3e4d39ff	0.20041655
105	0x3dc05032	0.09390296
106	0x3d1868c8	0.037209302
107	0xbc921d4e	-0.01783624
108	0x3e423c3a	0.18968287
109	0xbd93d3fe	-0.07218169
110	0x3b299b66	0.0025879978
111	0x3e1a7371	0.150831
112	0x3d8e99dd	0.06962941
113	0x3dfda1fb	0.12384411
114	0xbd6e76cb	-0.05821876
115	0x3de1d30a	0.11026581
116	0x3e0a87fc	0.13528436
117	0x3e54cc4a	0.20781055
118	0xbddaa423	-0.10675838
119	0xbe19315d	-0.14960237
120	0xbd61a02c	-0.055084392
121	0x3eb57bd8	0.35446048
122	0x3d6612a1	0.05617011
123	0x3c20dd7e	0.009818433
124	0xbd9a12f8	-0.07523149
125	0x3d9b9ae0	0.075978994
126	0x3e1835a9	0.1486422
127	0x3e1b3a50	0.15158963
128	0x3da7f9ef	0.08201968
129	0xbd7e5355	-0.06209119
130	0xbd430816	-0.047615133
131	0xbda2468e	-0.079236135
132	0x3c15afbb	0.009136136
133	0x3e301510	0.17195535
134	0xbca3f099	-0.020012187
135	0xbd585b79	-0.05282161
136	0xbdf3f754	-0.119124085
137	0x3cf9bc7f	0.03048539
138	0x3db808cf	0.08986055
139	0xbd113c49	-0.035457883
140	0xbcb9c6ec	-0.022677861
141	0x3daa527a	0.083165124
142	0x3d650a2f	0.055917915
143	0xbdbbf754	-0.091780335
144	0x3c71304f	0.01472099
145	0xbd334537	-0.04376718
146	0x3d230e91	0.039808813
147	0xbc2b64ef	-0.010461076
148	0xbb3cbb45	-0.0028798145
149	0x3d68b5b4	0.05681391
150	0x3e36b05d	0.17840715
151	0x3e4d440f	0.20045494
152	0x3e6ef663	0.23336177
153	0x3e128604	0.14308935
154	0x3df2b40c	0.118507475
155	0xbd8b9c36	-0.06816904
156	0x3e706427	0.23475705
157	0xbd953f25	-0.072874345
158	0x3c41cee5	0.011829113
159	0x3e65fb97	0.22459255
160	0x3dd63085	0.10458473
161	0x3c6c6125	0.014427458
162	0x3cd572bd	0.026055688
163	0x3db424fc	0.08796117
164	0x3d0ddd41	0.034634832
165	0x3dddf6cb	0.10838088
166	0xbe004638	-0.12526786
167	0xbeb73076	-0.3577916
168	0xbda89b0d	-0.082326986
169	0x3f1d00f6	0.6132959
170	0x3cb8971d	0.022532994
171	0x3dcc9d59	0.09990949
172	0xbd84e02d	-0.06488071
173	0x3ca3c9ab	0.019993624
174	0xbd1365d1	-0.03598577
175	0x3db33047	0.087494425
176	0x3cf437be	0.029811736
177	0xbddcb4c0	-0.10776663
178	0xbb54f709	-0.0032495877
179	0xbce036de	-0.027369913
180	0x3caff0b7	0.021477086
181	0x3e08bfc2	0.133544
182	0xbd56a6c5	-0.052405138
183	0xbc25b588	-0.010114081
184	0xbddb7426	-0.10715513
185	0x3c7fb1c9	0.015606352
186	0xbdfc5a3a	-0.12321897
187	0xbc3cdafa	-0.011526817
188	0xbd0a95ab	-0.03383414
189	0x3dacbeeb	0.08434852
190	0x3b0c6acb	0.0021425958
191	0xbdf63873	-0.120224856
192	0x3d2ee242	0.042696245
193	0xbdbfd816	-0.09367387
194	0x3b4a2d4d	0.0030849755
195	0xbda83294	-0.08212772
196	0x3c832ee9	0.01601358
197	0x3d5a0fc6	0.0532377
198	0x3dbdf740	0.09275675
199	0x3f045a51	0.5170031
200	0x3dceefbc	0.101043195
201	0x3e396566	0.18105087
202	0xbba469ce	-0.0050174957
203	0xbe33ef62	-0.17571786
204	0x3e8596d6	0.2609164
205	0x3d896cf0	0.06710231
206	0x3ce6e172	0.028183673
207	0x3e4a70e1	0.19769622
208	0x3e007ccb	0.12547605
209	0xbd528783	-0.051398765
210	0x3e0408b7	0.1289395
211	0x3d30d405	0.043170948
212	0x3cbab238	0.02279006
213	0x3d139991	0.036035124
214	0xbdbb8e7f	-0.09158038
215	0xbe9f2e31	-0.3108993
216	0x3e647022	0.223084
217	0x3ea775f3	0.32707176
218	0xba195820	-0.00058496185
219	0xbd64faa5	-0.055903096
220	0xbd8cfb02	-0.068838134
221	0x3ae6cb02	0.0017608108
222	0xbd861bca	-0.06548269
223	0x3cd1764c	0.025569104
224	0x3c31ec76	0.010859599
225	0xbdffa538	-0.12482685
226	0x3bb9f540	0.005674988
227	0xbc6edcd9	-0.014579021
228	0x3c675c7a	0.014121169
229	0x3dccd3d2	0.10001339
230	0xbce1b23e	-0.027550813
231	0xbc898084	-0.016784914
232	0xbd654804	-0.055976883
233	0x3cb45da6	0.022017311
234	0x3d424400	0.04742813
235	0xbcae1c1b	-0.021253636
236	0x3ba1b4d2	0.0049348855
237	0x3db64e19	0.08901615
238	0xbbb462c0	-0.005504936
239	0xbdfae392	-0.12250437
240	0x3cf3b696	0.02975015
241	0xbdf67a4f	-0.12035047
242	0x3bddedda	0.006772739
243	0x3d8d4877	0.06898587
244	0x3d4adc6f	0.049526628
245	0x3c8724c1	0.016497018
246	0x3cd84b0e	0.026402976
247	0x3f1994d5	0.59992725
248	0x3d28349e	0.041065805
249	0x3e383fd3	0.17993097
250	0xbca34ba5	-0.019933531
251	0xbe97f3e7	-0.2967827
252	0x3e881e84	0.26585782
253	0x3e8d2d60	0.2757368
254	0x3e9c6d42	0.30552107
255	0x3e0492f1	0.12946679

6.bias f4 [6]
0	0x3ec52af9	0.38509348
1	0x3ea87f03	0.32909402
2	0x3f3cff2d	0.7382687
3	0x3f90109e	1.1255071
4	0x3f4fa730	0.8111448
5	0x3f620768	0.8829255
