models/FF_no_station/FF_no_station_depth2_width96_batch106.pth (torch, 90024 bytes, 8 tensors)

0.weight f4 [96, 24]
00000000: 69e7 253e 35f7 85be 065a d0be d05b 983e
00000010: 66c4 463f aa30 7d3f d9de 753e 9afa 643d
00000020: ce1f 8b3d 1271 373d 1399 d8bc bad6 05bd
00000030: c3db 5b3d ea85 d13d f7e7 9bbc 23df b93c
00000040: 2a3a 243d 6250 3a3d 69ea 81bd 287d 663c
00000050: fd7c 993c 367d 213d af1a 24bd 2c2f b0bd
00000060: a07b 1f3d 420a 943d 6c9a 26bf dcba 11be
00000070: 0136 3d3f 690c 29be 877c 08bd c4d9 5abe
00000080: f626 eabd 1f81 db3d a0c6 4f3d e25f 2fbe
00000090: a8b0 3d3e 85fb cdbc aedc c6bc 8d14 863b
000000a0: cc6e e43d ef2d 9abe e262 ddbd 49b4 e63e
000000b0: 2eba 53be 015f 443d 059c 8b3e 11dd e03e
000000c0: e251 6a3f 7195 eabe ff8f 12c0 b344 bfbf
000000d0: 1281 ee3e d026 6e3f 4c49 4abc eca6 2e3e
000000e0: c102 8bbd c7bc 1a3e ca89 c2bd 2bf5 8dbe
000000f0: 3206 5ebe 93e4 c43e 6e8c a93e 5940 cabc
00000100: 8375 473e 0835 373e fe9a d23d 2915 cdbe
00000110: 98d4 953d 3d41 1b3e 61da 003d 5314 3e3e
00000120: 91a7 ebbf db80 693f 6d05 d03e 2841 dbbe
00000130: 47a6 b13d d236 a4be ab1b dd3d adfd f63e
00000140: 008b ce3e c736 083d 2af1 26bc dfa8 41be
00000150: c168 73be 11f0 1b3e a535 9abe f72e f0be
00000160: 620c 90be f613 a3be cb36 073f 6a7e b1be
00000170: f4cd c6be aabf c73e 58a4 73be 4ba6 463f
00000180: 8925 1fbc 2a11 7bbf 7ebe 06bf 38a9 443f
00000190: 5604 f1bc d26c 4abf a00e b1bc a148 643f
000001a0: 4e04 6b3e ee6e 42bf db06 e3be ec0d 5a3e
000001b0: 50be 87bc 6872 3c3e 4884 3d3f a13d 55be
000001c0: b4dd 4dbf 093b 973e ad13 713e 44f5 903c
000001d0: 2c8c 5d3d 16d5 3a3f 3c65 3bbd d518 03bd
000001e0: 66d8 87bd 2a1d f6bd a889 743e d3f4 383d
000001f0: 88f1 8fbf 66c8 9f3f b66f 6e3e 8b47 99be
00000200: d47b 42be da80 e5be ac26 c0be 615a 093e
00000210: 266a bf3e 481d 143b f51e 1ebe 62b6 e43c
00000220: 278e c73d 89fd b53d 5bb4 1b3e 4382 2dbf
00000230: 43f0 c7be 371c 54bf 4e00 9f3f 44cd f8bd
00000240: 3346 c53e 02be 3f3f c4f0 4a3f 152c 05be
00000250: 61c7 e5be 45c2 0c3e f3e9 883e ac31 b2be
00000260: 15c4 6abf 8417 f4be 85aa dc3d 3369 103e
00000270: 4521 f53d bbe6 ac3d df51 063f 4325 6b3e
00000280: 1e87 383c d9bf 283e aa14 cd3e 16c4 a53e
00000290: 2c7c 9dbe 344c 92bf 269d b4bf 7af5 b6ba
000002a0: 2f64 603d a9fa 6ebf ef9b 5cbf edc5 85bf
000002b0: 1f4b c53e 8721 84bd 8805 253f 6660 e33e
000002c0: 22c9 adbd ce0b 7bbe f612 4e3e 98ce b53e
000002d0: cf57 18be dc62 5dbf 437b 473c 6bff 0e3f
000002e0: 99fa d63e 0f9e acbe bca0 56bf 2ccf 01be
000002f0: 8b19 dc3e a139 113f 10e7 c83e 932e 7f3e
00000300: 7ca5 4a3f 48e6 e23c 0ea3 b8be 3757 183e
00000310: c090 9f3e e6e7 e93e 1938 8b3d 0a9d 603e
00000320: 9802 1b3e cc77 7bbe 63ef 21bf 402b 68bf
00000330: 9c88 3dbf dc82 42bd 1697 b2be 0c23 f9be
00000340: c6ed 65bf 74cb 96bf eecd 663e cb7a 593e
00000350: d914 0a3e 688e a1be 67f5 50be 8de1 66bd
00000360: cb63 2b3f 47da 813d 9e5a 50bf a2b9 63be
00000370: 1f6e 373e 4a95 633e 0423 d8bc 330e 80be
00000380: 2d6f 3bbe 3e45 2fbe 981c 193f e762 c83d
00000390: 4a93 d33c e501 523e 6103 1cbd b3bb 53be
000003a0: 14d7 a63d a988 dd3e 936b 82be bc18 80bf
000003b0: c097 f9be 4560 b3be 582f b43f 4d8c e7be
000003c0: 33b3 14c1 f93e 8ac0 891e 2ebf 20cf 87be
000003d0: 0850 bc3d 8def dc3e 1c43 5b3e 87ef 75bc
000003e0: 7ffa 14be 8487 053e 6078 6e3e 63a6 493e
000003f0: 512a 8c3d 15c8 89bd ca05 92bd c989 90bd
0.16201557 -0.26165166 -0.40693682 0.29757547 0.7764343 0.9890238 0.24010791 0.055903055
0.06793176 0.044785567 -0.026440179 -0.032675482 0.053676378 0.1023062 -0.019031508 0.022689408
0.040094532 0.045486815 -0.06343538 0.0140679255 0.018736357 0.03942605 -0.04006451 -0.08602747
0.038936257 0.07228519 -0.6507938 -0.14231437 0.7391053 -0.1650864 -0.033321884 -0.21372133
-0.114332125 0.10717987 0.050726533 -0.1712642 0.1852442 -0.025144348 -0.02427515 0.0040918053
0.11153945 -0.3011317 -0.10809876 0.45059422 -0.2067649 0.047942165 0.2726747 0.4391866
0.91531193 -0.4581714 -2.2900388 -1.494284 0.46582848 0.93027973 -0.012346577 0.17055863
-0.06787635 0.15111075 -0.094989374 -0.2772611 -0.21682051 0.38455638 0.33114952 -0.024688886
0.19478421 0.17891324 0.10283469 -0.40055206 0.0731594 0.15161605 0.031458262 0.1856244
-1.8410512 0.9121224 0.4062914 -0.42823148 0.08674293 -0.32073075 0.10796293 0.48240414
0.40340424 0.033255365 -0.010189334 -0.18912075 -0.23770429 0.15228297 -0.30119053 -0.4691083
-0.28134447 -0.31851166 0.5281798 -0.3466676 -0.38829005 0.39013416 -0.23793161 0.7759749
-0.009713539 -0.98073065 -0.5263442 0.7682071 -0.029421013 -0.79072297 -0.021613419 0.8917332
0.22950861 -0.75950515 -0.44341168 0.21294373 -0.01657024 0.18403018 0.7402997 -0.20824291
-0.8041642 0.29537228 0.23542662 0.017695077 0.054088756 0.72981393 -0.04575084 -0.032006104
-0.066330716 -0.12017281 0.23880637 0.045155358 -1.1245584 1.2483032 0.23284802 -0.29937395
-0.18992549 -0.44824868 -0.37529504 0.13413383 0.37385672 0.002260046 -0.15441497 0.027918998
0.0974391 0.088862486 0.15205519 -0.6777689 -0.39050493 -0.8285555 1.2421968 -0.12148526
0.3853012 0.74899304 0.7927363 -0.13005097 -0.44878677 0.13745983 0.2674099 -0.34803522
-0.9170545 -0.4767419 0.107747115 0.1410263 0.11969236 0.08442446 0.52468675 0.22963433
0.011262683 0.16479434 0.40054828 0.32376164 -0.30758798 -1.1429505 -1.4110458 -0.0013958656
0.054783043 -0.9335123 -0.86175436 -1.0451027 0.38533875 -0.06451707 0.64461565 0.44409484
-0.08485629 -0.24516222 0.2012442 0.3550918 -0.14877246 -0.8647897 0.012175384 0.55858487
0.41988066 -0.3371434 -0.8383901 -0.12676686 0.42988238 0.5672856 0.39238787 0.2492011
0.7915876 0.027697697 -0.360619 0.1487702 0.31165123 0.45684737 0.06797809 0.21934906
0.15137708 -0.24557418 -0.632559 -0.90690994 -0.74036574 -0.04748808 -0.34880894 -0.4865955
-0.8981594 -1.1780839 0.22539493 0.21238248 0.13484515 -0.3155396 -0.20406114 -0.056367446
0.66949147 0.06340461 -0.8138827 -0.22238782 0.17913102 0.22224918 -0.026383884 -0.25010833
-0.18304129 -0.17116258 0.59809256 0.09784489 0.025827069 0.20508535 -0.03808916 -0.2067707
0.08146492 0.43268326 -0.25472698 -1.0007548 -0.4874859 -0.35034385 1.4076948 -0.45224229
-9.29375 -4.320187 -0.6801534 -0.2652521 0.09194952 0.43151513 0.21412319 -0.015010721
-0.14548682 0.13039976 0.23288107 0.19692378 0.06844009 -0.06727616 -0.071300104 -0.070575304

0.bias f4 [96]
00000000: a838 f0bf bd33 1ac1 1f92 d43f ebeb fd3f
00000010: 7350 90c1 05b3 2ac0 b152 6840 22ee 0141
00000020: 1891 8541 0d69 69c1 14cd 4a40 98d6 dfbe
00000030: 9107 313f 0cae 48c1 c4cb 95bf 8d8c 83c0
00000040: b788 f1c0 f527 4a41 3e08 5141 5700 8e41
00000050: 90e9 9541 d664 03c1 78aa d340 3e7e 8e41
00000060: 866a 8041 7ddf c8c0 2fe9 843f 0acd 5c40
00000070: 51da b9c0 d44e 09c1 75c2 28c1 2dd9 06bf
00000080: 3e70 abc1 b8fe 59c0 3f4d 1fc1 1ec7 63c0
00000090: e957 4bc1 6b7e 8641 d3cd 9a3f fca5 0ec1
000000a0: ad73 d93f 7f28 cec0 a4a5 8240 5ab4 8cc0
000000b0: ee8b 3341 ca7f 35c0 9a3a e0c1 451b 8bc1
000000c0: 6ac3 d13f d0c1 8340 926e 9bc1 97ea 9641
000000d0: 9606 8b41 3685 5d40 fbde a4c0 0d30 b33f
000000e0: 67c0 eb3e 8eea 4ec1 8ee9 3fc1 5b4a 4541
000000f0: 4a7c 6dc1 e826 eb3e b62e 60c1 6a33 7a41
00000100: 0d92 86c1 9541 0bc1 cf16 5240 0448 423f
00000110: 6416 1841 380a 893f f20b 8f3f ac94 1f40
00000120: 13f7 1f41 19f5 7e41 0160 50c1 bfc6 4cc1
00000130: 2b9a 19c0 ff50 e1c0 6e86 6141 d9b0 92c1
00000140: 5134 fac0 1a48 91c1 16f9 463f 8440 20c0
00000150: 02e7 a940 5e3e 11bf 58d8 e6bf 2ca5 05c0
00000160: 85e3 3c41 ca2a 2841 91be a1c1 e92f ddc0
00000170: ac61 4bc0 3f74 ea40 126b a841 abda 2cc1
-1.876729 -9.637631 1.6607093 1.9837621 -18.039282 -2.6671765 3.630047 8.120638
16.695847 -14.588147 3.168767 -0.4371841 0.6915217 -12.542492 -1.1702809 -4.110907
-7.547939 12.634755 13.064512 17.750166 18.739044 -8.212118 6.614559 17.811642
16.052013 -6.2772813 1.0383662 3.4500146 -5.8079 -8.581745 -10.547475 -0.52675134
-21.429806 -3.4061718 -9.956359 -3.5590281 -12.708962 16.811728 1.2094063 -8.915524
1.6988426 -6.4424434 4.08272 -4.3970156 11.2216625 -2.8359246 -28.028614 -17.388315
1.6387761 4.1174088 -19.42899 18.864546 17.378216 3.4612556 -5.1522193 1.3999039
0.4604523 -12.932264 -11.99452 12.330653 -14.842844 0.4592812 -14.011404 15.637552
-16.821314 -8.703511 3.2826421 0.7589114 9.505466 1.0706244 1.117552 2.4934492
9.997821 15.934838 -13.023438 -12.798522 -2.4000347 -7.041137 14.09532 -18.336351
-7.8188863 -18.160206 0.77723825 -2.5039377 5.309449 -0.5673579 -1.8034773 -2.0882063
11.805547 10.510447 -20.21805 -6.9120984 -3.1778364 7.32669 21.05228 -10.803386

2.weight f4 [96, 96]
00000000: 030a babf 6bf9 483d 803b 9f3e 5f69 8e3f
00000010: 57a5 12be 0db8 313f f822 a33d 89cb 8b3e
00000020: b021 093f 3e36 34bf 753e 10be 3a72 86bc
00000030: c7cd f03e e8cb e5be 9838 703f 943a fcbd
00000040: f94c c5be 6dbd d93e 5a3d 353f 8817 ddbd
00000050: 20dd 17bf 2291 ff3e 8898 803e fada 8a3f
00000060: f503 003f 8119 83bf ea29 643f 2bfa 1cbf
00000070: 15c0 cebd a2bf 0cbf cdde 8fbe ff6e 0ebf
00000080: 54b9 3ac0 2efe 61bf b6c3 ab3b 5360 03bf
00000090: 3697 ac3f 57f5 80bd 6558 aebd c2b9 093f
000000a0: 2f9b 773e 3db0 b7bf c95c d5be a537 a53e
000000b0: 315e 9d3e e786 3fbf 02a5 64be 1d23 70be
000000c0: b9a1 9ebe c6db 943e 37d5 3bbe 6990 a53d
000000d0: 01bf 9ebe 074e c2bf 091c 01bf 51cb c8bf
000000e0: 364e e53e 3670 0ebe 982b dfbf 550b eabf
000000f0: 8604 92be af92 f23d d54e 993e 0226 1fbf
00000100: 8929 053e 49f9 ef3d ca7c 183e 0d47 e43e
00000110: 7b2e 98bf 2668 0b3d 195a 85be 0bc9 74c0
00000120: c891 363c 6863 813f 9744 673f c8f5 adbe
00000130: defd 89bf bfae fd3e 967e a33f 3175 f0bf
00000140: 7a41 d43e d33c 97bf ebe9 95be 0055 3dbf
00000150: 6505 21c0 294a 83be 9419 9fbf 67f3 4b3e
00000160: 7786 363f c03d 5bbf 14fe 33bf 3f8a 993d
00000170: 1703 823f 7ac1 63bf de4b d33b 4baf 49be
00000180: 25ad 0a3f d838 813e 7059 943e 9e02 173f
00000190: dac4 b4be ce6d 90bf ac8a 42be 4f5f 733e
000001a0: 27b1 2dc0 eb94 323d 3bcf e1be 4818 2dbf
000001b0: 57f1 5abf 426f e7bf e20a 26bf 4326 8b3e
000001c0: 8ef2 e8be b39d ccbd b7f5 883f 0267 07bd
000001d0: 4fd5 413e 4c15 2dbf 4821 b8be 28ff af3e
000001e0: 98ea 06bf b5c8 17bf f7e2 b8be 9b79 81bc
000001f0: 638f 943e b731 b6be 8984 593d a5fb 953e
00000200: 1b1b 073d e01c 4e3d db04 313e 376e a63d
00000210: ad96 4f3d e0bd 213e b61e ebbd 0342 c2be
00000220: 580d 973e 7059 9c3e 5725 a1bd cfa6 273e
00000230: b042 c3bf 86b7 23bf f900 c43e d256 26bf
00000240: 3a17 993e efa4 01bf 3979 b3bf 5df8 01bf
00000250: 3c64 afbd 6f32 b9bf 49e7 4a3d ad56 63bf
00000260: 3e35 44bf bb89 54bd 44ea cdbe ed6a 8b3f
00000270: a7bc 363e da00 eabe 5bb8 47bf 1c82 823b
00000280: d79d 3ebe 88e1 46bf 4bdb 41be abfd 463f
00000290: 009e c3be f304 4dbe 7405 cabd ad01 98bd
000002a0: a4d3 47be ffa3 9bbf fe5f 04c0 33b5 5abf
000002b0: f8d1 27bf 963e 42be 0e97 d83e f33d 09be
000002c0: 07d6 24c0 9510 cabe cf73 99bf 28da b23e
000002d0: 106e fd3e 22b3 643f 765c 9cbf 05b6 b53e
000002e0: 963d b13e 3527 b7bd d63a 6bbf 1ee8 05c0
000002f0: 91ef 84be 0a29 1dbf b3b6 09bf 1348 883e
00000300: ddf5 6ebd bf4e 73bd 4ca8 143c cf56 23bd
00000310: 5e71 263c 7efd fbbd cdc6 cdbd 4bac 34be
00000320: b562 46be 9d8f 05be f4a8 2e3c 0fc2 ddbd
00000330: 2fc5 11be 552a a2bd 7543 17bd bc0c af3d
00000340: abaf 0cbd 1be9 ebbd 8db5 9ebd 856b 1f3d
00000350: 70b4 92bb 2ae2 44bc 5c85 febd 9bcb 01be
00000360: 9a21 2bbd 34e2 9fbd 971c 2ebd e125 2dbe
00000370: f2a8 62bd 9e7d c5bd 0ed6 14bd 7330 fcbd
00000380: ea96 543d 35aa cf3c 1995 77be 1b5a 1fbe
00000390: afb6 d3bd fb95 aebc b995 e6bd 2bd0 0c3d
000003a0: cdd4 93bd d9a2 0dbc e0b7 e53c 8e8a c8bd
000003b0: f949 ddbd 1615 d5bd 7e1c ae3d a3d9 a9bd
000003c0: 4808 f6bd dae4 1ebd 4435 e8bd b037 2cbd
000003d0: 79c8 acbd a431 8abd 1c20 98bd abf3 29be
000003e0: d9b0 20be f8c3 3fbd 701d 2d3e 6e8f e53c
000003f0: cb3e 50be 3b30 16be 771b f3bd 347a 1f3d
-1.4534305 0.04906599 0.31100082 1.1125907 -0.14320885 0.69421464 0.07965654 0.27303723
0.5356703 -0.70395267 -0.14086325 -0.01641189 0.47031996 -0.4488213 0.93836355 -0.123158604
-0.38535288 0.42527333 0.7079674 -0.10795504 -0.59321785 0.49915415 0.25116372 1.0848076
0.5000604 -1.0242158 0.89126456 -0.61319226 -0.100952305 -0.5497991 -0.2809967 -0.55638117
-2.9175615 -0.8827847 0.0052418364 -0.51318854 1.3483646 -0.06296795 -0.08512954 0.5379907
0.24180292 -1.4350659 -0.41672352 0.32269016 0.30735925 -0.7481522 -0.2232857 -0.23450895
-0.3098276 0.29073924 -0.18343054 0.08084185 -0.310051 -1.5180062 -0.50433403 -1.5687047
0.44786233 -0.13909993 -1.7435179 -1.8284708 -0.28519076 0.11844384 0.29942957 -0.6216737
0.13004126 0.11717469 0.14891353 0.44585457 -1.1889185 0.03403487 -0.26045302 -3.8247707
0.011143155 1.0108461 0.90339035 -0.3397658 -1.0780599 0.49547383 1.2773006 -1.8785764
0.41456205 -1.1815437 -0.29280028 -0.73957825 -2.5159543 -0.25642517 -1.2429681 0.1991707
0.7129893 -0.856411 -0.7030957 0.074970715 1.0157193 -0.88967097 0.006448253 -0.19695775
0.5417045 0.2523868 0.28974485 0.5898837 -0.35306436 -1.128351 -0.18998212 0.23766826
-2.7139375 0.04359905 -0.44103417 -0.67615175 -0.85524505 -1.8080828 -0.64860356 0.2717763
-0.45497555 -0.09991016 1.0699986 -0.03305722 0.18929027 -0.6761062 -0.35962892 0.34374356
-0.5270171 -0.5929063 -0.3611066 -0.015805056 0.29015645 -0.35584804 0.05310491 0.29293552
0.032984834 0.050320506 0.17287008 0.081264906 0.050680805 0.15795088 -0.11480467 -0.37940988
0.29502368 0.30536985 -0.0786845 0.16372226 -1.5254726 -0.6395191 0.38281992 -0.6497623
0.29900533 -0.50642294 -1.4021369 -0.507696 -0.0856404 -1.4468516 0.049536977 -0.8880413
-0.7664374 -0.051889163 -0.40217793 1.0892006 0.17845403 -0.45703775 -0.7801568 0.0039827954
-0.18614899 -0.77687883 -0.1893131 0.77730817 -0.38206482 -0.20021419 -0.09864321 -0.07422195
-0.19514328 -1.2159423 -2.068359 -0.8543274 -0.6555476 -0.18969187 0.42302746 -0.13402538
-2.5755632 -0.39465776 -1.1988467 0.34932065 0.49498034 0.89335835 -1.2215717 0.35490432
0.346173 -0.08943025 -0.9188665 -2.0922923 -0.25964025 -0.61390746 -0.537944 0.26617488
-0.058339942 -0.05940127 0.009073328 -0.03987771 0.010158865 -0.12304209 -0.10047684 -0.1764385
-0.19373591 -0.13043065 0.010660399 -0.10828029 -0.14235376 -0.079182304 -0.036929566 0.08547351
-0.034347218 -0.11519071 -0.07749472 0.038920898 -0.004477076 -0.012016812 -0.1242778 -0.12675326
-0.04178009 -0.07806817 -0.042507734 -0.16908981 -0.0553369 -0.096431 -0.03633695 -0.123139285
0.051901735 0.025349716 -0.2417797 -0.15561716 -0.103375785 -0.02131175 -0.11259026 0.034378212
-0.07218323 -0.008644783 0.02804178 -0.09792052 -0.10805125 -0.104044124 0.08501528 -0.08293464
-0.12013298 -0.03879247 -0.113382846 -0.042045295 -0.084366746 -0.067477494 -0.074279994 -0.16596858
-0.15692462 -0.04681775 0.16905761 0.028022494 -0.20336454 -0.14666836 -0.11870473 0.0389349

2.bias f4 [96]
00000000: 4ddd abc0 91f7 7a41 b3d6 41be 265e a9c0
00000010: c14c 6741 49a1 a0c1 3893 8841 f75f 9fbe
00000020: d27a 0ac0 7dfb 5841 34dd ecbd ef88 ccc1
00000030: 40b3 59c1 f89a 59c1 5651 aebf 64b0 3141
00000040: 4baa 05c0 278a 8fc1 6f75 cbc0 972b 8340
00000050: e45f fb40 d81b b840 f3f9 2cc0 87e2 f7bd
00000060: 3c58 2040 5d2e 82c1 dd85 b4bc 6d56 a9c0
00000070: 1b3f e0c0 8b8d f5bd 410d 6640 6961 a140
00000080: 6534 f7c0 ced5 6741 9ea7 0dc1 5831 6440
00000090: 8058 cbc0 c81c 4341 15d2 7dc0 65cf 82c1
000000a0: 12e3 0d40 3993 7f41 e458 87bc 6831 dcbf
000000b0: 557c fcbf 48e2 7341 4f06 f9bf 1329 32bd
000000c0: d776 b6c0 4281 bcc0 2ca0 6bbd 0eba 2b40
000000d0: 26c8 b1c1 b92c 8ec0 2939 fabf dd70 15be
000000e0: 61af 35c1 f980 09c1 a569 8bc1 1fcc 7441
000000f0: d65c 22c2 88a4 14c0 8633 3d41 3eef 29be
00000100: 9ac5 efc0 21dc e2bd 7026 60c1 f8bb 2741
00000110: fc8e 6ec0 7db9 7241 e7bd 0641 5cda 9640
00000120: 901e 05c2 5075 d640 3786 b8c0 0c18 4dc1
00000130: a753 5741 4b9c e840 a189 1d40 9339 57bf
00000140: 5adc aa3f ed51 80c1 e3b2 e9bd 7625 6641
00000150: 11ba fec0 99a7 0140 c706 5941 cfa0 a1c1
00000160: beb8 5f41 4172 abc1 2b29 f9bd 9779 283c
00000170: d51d 51c1 3649 b5c0 4777 2340 7c7e 3ac1
-5.3707643 15.685441 -0.18929558 -5.2927427 14.456239 -20.078753 17.071884 -0.31127903
-2.1637464 13.5613985 -0.11565629 -25.566862 -13.606262 -13.600334 -1.3618572 11.105564
-2.0885189 -17.942457 -6.358085 4.099071 7.8554554 5.753399 -2.7027557 -0.121037535
2.5053854 -16.272638 -0.022036487 -5.2918 -7.0077033 -0.11989888 3.594559 5.043141
-7.725146 14.489698 -8.853422 3.5655117 -6.354553 12.194527 -3.9659474 -16.351267
2.2169843 15.973443 -0.016521879 -1.7202578 -1.9725443 15.242744 -1.945505 -0.043496203
-5.702007 -5.8907785 -0.0575258 2.6832309 -22.222729 -4.4429593 -1.9548694 -0.14593835
-11.355317 -8.593987 -17.426584 15.299834 -40.59066 -2.3225422 11.825079 -0.1659517
-7.4928713 -0.110771425 -14.009384 10.483391 -3.727477 15.170285 8.421363 4.714155
-33.279846 6.7018204 -5.7663836 -12.818371 13.457923 7.2690787 2.4615252 -0.84072226
1.3348496 -16.040003 -0.11411073 14.384146 -7.960213 2.0258543 13.564155 -20.20352
13.982603 -21.430788 -0.12166055 0.0102828955 -13.069783 -5.665187 2.554155 -11.65588

4.weight f4 [96, 96]
00000000: 8b53 72be 9a3c f9bd b3bb 8dbd b098 793e
00000010: f0d4 36be 4237 4f3e 8d3f 7bbe 746c c5be
00000020: 941e c53d 53fc ecbe ca75 603d 31c8 973e
00000030: d48d dabc 4870 b2bc aad4 86bd 625e febe
00000040: 7b95 303e 0808 4dbd d8e8 f7bc 45cc d6bd
00000050: cd94 8fbd 0244 81bd 0669 1abd 981c cc3c
00000060: 1a55 29be 3992 47be 496d da3d 82e9 0e3e
00000070: 6859 ca3d 4183 57bd b125 f33c 8488 c0bd
00000080: dac7 4e3d 999b 8bbe 7bb7 583d fa4e 9dbf
00000090: 1c6a 63bb 1e03 d6be a6bb 5a3d 9678 9abe
000000a0: 449f f63d 68b3 56be a9a2 313d 7660 413e
000000b0: 66d7 00be 8b9b b43d 5de8 9bbe 4b51 c43c
000000c0: 3b2b c7bc f889 06bb 6791 033d 7603 903e
000000d0: 3b65 86be 4a84 8dbd 3c43 d43d 8e9a a0bd
000000e0: 8338 babf 9e9d 7b3e 3398 2cbc 8e19 55bf
000000f0: 334e 603e 4e40 0b3d 669e a9bd 70ef cdbd
00000100: a1ec 123d 7f75 1c3d 7b5e ff3b f9f0 1f3d
00000110: 4fd7 75be 19f2 533d ab5c 17be 2eac 123e
00000120: b24f 883e 04cc c6bd 03ce 3abf f583 2ebe
00000130: 2e9e 943c 313f c23d 564d 2bbe 3c6b bbba
00000140: b65f acbd d991 12be dc08 8b3d f6f9 7a3d
00000150: 669c d5bb 7885 96be 7ff0 fbbd a024 203e
00000160: 49c3 fcbd 41db c0bf 8fc7 0c3d cfbd 55bd
00000170: d902 3b3e 2253 883c 574d a7bf 9e90 343d
00000180: b004 55bf c405 1c3f 1520 35bd 0e44 473e
00000190: 9b5f f6bf f3aa 9cbf 43a9 343c 4ca1 cfbe
000001a0: c4d7 35bc 645f 6fbc b2ed 5f3d e591 88be
000001b0: 8036 cdbe f66a 53bf 49ed f83e 474d c4be
000001c0: 3c9e c63d 2c2b 863e 3fb3 bb3e 93f5 dfbe
000001d0: 2be1 f03e 80ca c6bd 01db 5dbe fab0 82bd
000001e0: 5ef2 9b3d 7a5d 2abf cc9c 90bd 627f f6be
000001f0: d2b9 c6be 66d5 48bd 6d9e 213e f8f7 cebd
00000200: c5d6 a0bf 365a dd3d 6b46 983d 7eba 91bd
00000210: 59c1 b1be 4aed 86bf d8c3 523e b242 7f3e
00000220: 9471 963d b5e4 fc3e 2f84 083d 670f 3cbe
00000230: 80f7 8d3e ac31 9fbe c4ac 97be 6f15 fbbd
00000240: cf79 563d b502 243e bb44 a6bd cbd2 3d3f
00000250: d687 98bf 0ca6 90be 4d7c 82be 9734 483c
00000260: 80dd 0a3e 624c 233e 0292 7b3f edb1 513f
00000270: 805d b0bd cd75 f13c 5e97 92bf 234a 9dbe
00000280: 31e3 32bd 6984 4d3d cd78 e03d 9d04 973e
00000290: 3d67 ee3d 7bc1 d93e 70ae 85bf 58f8 40bf
000002a0: c371 db3d 27b6 51be 444a 353f df50 c4be
000002b0: 9503 0c3f 319f ee3d 52fa 41bf 87a5 89be
000002c0: de8c 693e 52a0 3fbf 43a5 1dbd 4bb8 1c3d
000002d0: 3168 76bf 1ba4 1dbf 7bd9 e3be f518 30be
000002e0: a150 0cbf a878 8ebe 112b f8bc 7b1a 7e3c
000002f0: 73b9 3bbf 210c 85be 62e2 2c3e 8a2c abbe
00000300: f0f1 a8be d179 64bc 2874 02bd f006 25bd
00000310: 525c 8ebd 53fc abbd e2a4 2c3e 4c37 96be
00000320: 601e f1bc 61e3 813e e1ce 6cbb b8d2 d33d
00000330: 0470 9cbe bf72 61be 011b 0dbf cde8 91bd
00000340: 42ba 543e 278f 133e 5bf6 b23d c7f2 393e
00000350: 00a2 9fbe 4077 d5be eecd bc3d b25e 01bd
00000360: 134e 1ebd 1b10 b5bd b6fd 213c bd11 a0bd
00000370: e01e c9be abe2 f53b 9bcc 85c0 beab 37be
00000380: 1696 36bd f6b5 4cbe 8533 cb3d 50f0 c8c0
00000390: d537 4e3c a418 dcbb 7f21 b5be a824 b0bd
000003a0: 257b 88be 2e04 123c 0741 0dbe 73cd 78be
000003b0: 51ea 26be 79c2 42be 1e38 a7bd ff36 dfbd
000003c0: d9ef 54be 3fed 0d3e 1610 323d 1f83 143e
000003d0: c35c 693d bb8e 20bd 06fb 0a3e b6b8 43bd
000003e0: a349 5a3e be20 f1bd 9191 8a3c 6375 233f
000003f0: 963a cfbd b145 ba3e 70bb a6bf cb1b ca3d
-0.23664682 -0.12169762 -0.069205664 0.24374652 -0.17854667 0.20235923 -0.24535961 -0.38559306
0.09624973 -0.46286258 0.054799832 0.2964492 -0.026678957 -0.021782055 -0.06583531 -0.49681383
0.17244522 -0.050056487 -0.030262396 -0.1048818 -0.07010803 -0.063117996 -0.037697814 0.024915978
-0.1653637 -0.19489373 0.10665376 0.13956264 0.09880334 -0.052615408 0.029681059 -0.09401038
0.050483562 -0.2726715 0.052909356 -1.2289727 -0.0034700697 -0.41799253 0.05340161 -0.30170125
0.12042096 -0.20966876 0.043368015 0.18884453 -0.12582168 0.0881873 -0.30450717 0.023964545
-0.024312606 -0.0020529013 0.03212109 0.2812764 -0.26249108 -0.06909998 0.103643864 -0.07841979
-1.4548496 0.24571845 -0.010534334 -0.8324212 0.2190483 0.033996873 -0.08282165 -0.10055435
0.0358702 0.03819799 0.0077932454 0.03904817 -0.24007915 0.051744554 -0.14781444 0.14323494
0.26623303 -0.09706882 -0.729706 -0.17042525 0.018141832 0.09484709 -0.1672872 -0.0014298926
-0.08416693 -0.14313449 0.06788799 0.061273538 -0.0065188883 -0.29398704 -0.1230173 0.15638971
-0.12341935 -1.5066911 0.03437 -0.05218297 0.18262805 0.016641203 -1.3070477 0.04408323
-0.8321028 0.609463 -0.04422005 0.19459555 -1.9247926 -1.223967 0.011026683 -0.40552747
-0.011098806 -0.014610145 0.054670043 -0.2667381 -0.40080643 -0.82585084 0.48618534 -0.38340208
0.096981496 0.26204813 0.3666019 -0.43742046 0.4704679 -0.097065926 -0.21665575 -0.06381412
0.07614587 -0.66548884 -0.07061157 -0.4814406 -0.38813645 -0.049031638 0.15783091 -0.1010589
-1.2565542 0.10808222 0.07435306 -0.07115649 -0.34717825 -1.0541165 0.20582521 0.24927786
0.07345882 0.4939324 0.033329185 -0.1836525 0.2772789 -0.31092584 -0.29623997 -0.122599475
0.05236226 0.16016658 -0.08118578 0.7414977 -1.1916454 -0.28251684 -0.2548546 0.01221957
0.13561058 0.15947106 0.98269665 0.8191212 -0.08611584 0.029475117 -1.1452444 -0.30720624
-0.043673698 0.050175104 0.10960541 0.29495707 0.11640785 0.42530426 -1.0443859 -0.7537894
0.10715058 -0.20479642 0.70816445 -0.3834295 0.54692966 0.11651457 -0.75772583 -0.268841
0.22807643 -0.74854004 -0.038487684 0.038261693 -0.96252733 -0.6157853 -0.44501862 -0.1719702
-0.5481053 -0.27826428 -0.030293973 0.015509243 -0.7332985 -0.25985816 0.16883233 -0.33432418
-0.32997084 -0.013945059 -0.031849056 -0.04028982 -0.069512025 -0.083977364 0.16859773 -0.29339063
-0.02943343 0.2536879 -0.0036134052 0.10342926 -0.3055421 -0.22016428 -0.5511933 -0.07124481
0.20774177 0.14410077 0.08738395 0.18159018 -0.31178284 -0.41692543 0.092189655 -0.03158445
-0.038648676 -0.088409625 0.00988715 -0.07815883 -0.39281368 0.0075038276 -4.1812263 -0.17936608
-0.044576727 -0.19991288 0.09921936 -6.279335 0.012586554 -0.0067168046 -0.35377118 -0.086007416
-0.26656452 0.008912129 -0.13794337 -0.24297123 -0.16300322 -0.19019498 -0.081650004 -0.108991615
-0.2079462 0.13860033 0.043472372 0.14503144 0.05697323 -0.03919862 0.1357232 -0.047783576
0.21317153 -0.11773823 0.016915115 0.6385099 -0.10118596 0.36381295 -1.3025951 0.09868582

4.bias f4 [96]
00000000: 2419 f7c0 3ebd d241 9d1f 02c1 b76e e2bf
00000010: 186f 1abf 2903 4cc0 e0e5 3ec1 cadd c1c0
00000020: 1edf db40 fc94 92c1 42cd 173f 7acf 48c0
00000030: bed8 d6c0 698e 0640 3ac4 9ac1 888f 4f3f
00000040: cb58 0ac1 598c 91c1 cb4c 3ec1 1dd6 c1c0
00000050: 8c88 0fc0 8cf8 6f40 9314 dabf 74e3 b0c0
00000060: 0d2b e4c0 3e8d 02bf a0bc d23f 98b3 6ebf
00000070: f7e5 8a3f e480 8b40 6496 ccc0 f376 0f41
00000080: 6e5d c440 96d9 74c1 d147 2bc1 62be c8be
00000090: bf7f cbbf bc73 50c1 5e27 de3f 6f3b b1c0
000000a0: 87a5 93bf dadc dac1 e3ad 0c40 c1aa 5a40
000000b0: c757 0bc0 a5ed 4140 7c47 f0c0 e6a7 19c0
000000c0: a04a 5bc1 adbc 4440 5ff3 a840 2977 cdc0
000000d0: 8596 04c1 7aa0 19c2 69ff 9440 c8b6 c93b
000000e0: ce48 7dc1 ad5a 9740 1e13 f0bf 537b a7c0
000000f0: 91ad dcc1 fe72 b040 fc94 d3c0 9124 59c0
00000100: d8ec 0840 3a6b b240 0ece 2241 5fc8 b6be
00000110: d603 51c0 3b8b 30c0 8ea7 23c0 1c93 8ac0
00000120: da59 a0c0 b89c 9cc0 df0f cec0 24e3 1ec1
00000130: efe1 0041 7587 9bc0 0b63 9abf 19c5 a040
00000140: 8dd2 1cc1 72be a340 046c 1b41 2335 e4c0
00000150: 16a4 3240 3016 8d41 301a bdbf ffb3 ccc0
00000160: d985 5bc1 e5e3 d6bf 7de2 0ac1 25df b940
00000170: f17f b9c1 071f a440 18f3 5bbf e993 ddc1
-7.721819 26.342403 -8.132718 -1.7690037 -0.60325766 -3.1876929 -11.931122 -6.058324
6.870986 -18.322746 0.59297574 -3.1376634 -6.713958 2.102442 -19.345814 0.81078386
-8.646678 -18.19353 -11.893748 -6.057387 -2.2427092 3.749545 -1.7037529 -5.5277653
-7.130255 -0.5099677 1.6463814 -0.9324279 1.085143 4.3594837 -6.393358 8.96654
6.136405 -15.303122 -10.705033 -0.3920775 -1.589836 -13.028255 1.7355764 -5.538505
-1.153489 -27.357838 2.1981132 3.416672 -2.1772325 3.0301297 -7.508726 -2.4008727
-13.705719 3.0740159 5.2797084 -6.420796 -8.286748 -38.406715 4.656178 0.0061558224
-15.830275 4.729819 -1.8755834 -5.233804 -27.58475 5.514037 -6.6119366 -3.3928568
2.1394558 5.575589 10.175306 -0.35699746 -3.2658591 -2.758498 -2.5571017 -4.3304577
-5.010968 -4.8941307 -6.4394374 -9.930454 8.05516 -4.8602853 -1.2061476 5.02406
-9.801404 5.1169977 9.713871 -7.1314864 2.791265 17.635834 -1.4773617 -6.396972
-13.720178 -1.6788298 -8.680295 5.8084893 -23.187471 5.1287875 -0.85917807 -27.697222

6.weight f4 [6, 96]
00000000: 36f5 26ba c8d8 acbb 1707 333e b390 533c
00000010: 7a42 21ba a9bf bebb be65 ccbb db3b 573d
00000020: fe25 86bc daca f93c 7ba2 6e3b 6388 86bb
00000030: b00e 063c 650c 023d a49b e2bd d98d 81bb
00000040: 0348 bd3d cfe9 9d3d 6ee9 103d 8266 4e3c
00000050: 1293 ac3b d761 ecbc 5f44 dfbc 8704 bebb
00000060: 5419 e13a 8b0c 6fbc 9235 c73c af6c 803c
00000070: af77 83bd 92e5 783c 5623 d43b 9885 ab3c
00000080: dcd5 3b3c 4323 70bd ec73 64bc 69ce ec3c
00000090: 25bf 773e a83c d5bc 512e 16bb 8c7f cb3d
000000a0: f0e6 c0b9 980e a5bc f489 4e3c dedf 4abd
000000b0: 8837 32bd 62ed 28bd 1170 8b3b 31d6 26bd
000000c0: b678 403d 00e5 9cbd dcf7 3a3c ce16 b4bb
000000d0: 8b8d 8abd ed74 01bc bfde 103c 7d14 a53d
000000e0: 9448 b53c 25a6 ddbb 20f8 fabb 6b64 49bc
000000f0: b95b 66bb fc86 d1b9 0a35 953e 8861 253d
00000100: 9b1e e43c 4a58 5d3c fec4 293d f1e2 bdbd
00000110: 6854 1a3d ec55 ce3b 92ca a23c 1dde 11bc
00000120: 7fd1 98ba d17d 1cbc 57e6 1b3e e302 bd3b
00000130: ba18 703c 1624 80bd 168e 26bc 7518 163d
00000140: 4c10 6f3c 6f66 493d 0416 b7bd aafe 7abb
00000150: 8689 14bd 9699 653c 8994 c83c f545 953d
00000160: af92 86bc 3d07 88bd e584 e1b9 32f2 88bc
00000170: 233d 86bd b34a 5f3b 7e92 cbbc 8f81 f0bc
00000180: 0344 27bc a659 26bc 3372 853d a09b 263d
00000190: f259 553c a0b5 3fbc 079e 37bc dd8b f93d
000001a0: e6f4 8dbc e786 59bb 00c0 4f3d a5fb 83bb
000001b0: a3c6 6dbb dcd1 b83c 25b8 45bd 29f7 223d
000001c0: 7de7 3fbd 59a4 bc3d aa6f 0f3e 4202 593c
000001d0: 647d 3ebc 1a73 3ebd 8d5e 12bd 99f7 7abc
000001e0: 439e 49bb 02ae 8dbd f08f d63c 6e32 95bc
000001f0: bb41 c3bd dd9b 443c 99a0 38bb cbe0 663c
00000200: e489 213d 779b cebd 12a3 2d3d 7596 5b3d
00000210: 1c59 2c3e 76fe 6dbd 4a26 e43b 7c1c c1bc
00000220: 4f4f cabc 85a3 7ebc 4059 8c3b 1c3a 0cbd
00000230: f636 11be ab86 44bd 726d 543c 76e2 31bd
00000240: 9ba6 533d f428 acbd 955f f53d 229d 48bc
00000250: c10e 05be ba12 f3bc d487 873c 8eff 9b3c
00000260: 2d7f f33c 5672 bcbc 6105 70bd 79bc 0ebc
00000270: 6f3f 843c 96f0 95bc a9b5 7b3e 45ba 893d
00000280: 63c8 833d ae5a f73c 0cae 363e cb15 a93d
00000290: 44ac 4c3d 2f3f bbba 4f23 b33d 8ea8 51bd
000002a0: 901c e53c 0c48 4cbc 44a5 913d 390f 0b3d
000002b0: 250d 1f3e 4e90 e7bd 22d9 4fbd 7e6e 0c3e
000002c0: 9b8e af3c ae87 dcbd 1f38 debd d46f 3bbc
000002d0: b5e6 27be 34fb 3e3d f779 b93c ccfa c63e
000002e0: 7e34 563c ae29 8dbd 2d42 dc3a e6af bbbd
000002f0: 3d81 96bd 9975 0b3e 877e edbc 3b2a 13bd
00000300: 8426 e43d b5ef 643c ed73 ab3b 556f 513d
00000310: 8a82 263d e640 a7bc 2f93 05bd ea7a 983c
00000320: 5ee4 55bc 09c9 01bc c428 f53d aed0 a7bc
00000330: 9b23 48bd e1b8 9d3c 716d 94bb 541b 8cbd
00000340: 048f 29bd 5b77 b33d afbd 313d 628a 393d
00000350: 6771 af3d e39b 2bbd 5699 8ebd 87bd a0bd
00000360: 97f0 203c dba9 8d3c 1b96 473d 5d4b 44be
00000370: d8b6 a7bd c434 a03c 526a 29bd dfea 813c
00000380: 6f92 de3d 64a6 56bd 3ec5 903d 1da5 b53d
00000390: 3575 b83d 146d 77bd 85ff 2f3e a739 99bc
000003a0: 48d9 61bd e4ed 1dbd e437 da3c 0598 5cbd
000003b0: cae5 9ebe 3180 14bc b010 993c 868d eebd
000003c0: 4938 2e3d 32bf ebbc d375 bd3e 0c14 193c
000003d0: de11 c5bd 7988 78bd 8b30 b23d f4e3 8ebc
000003e0: 3efa 593d d326 45bd d976 b6bd 4a18 353d
000003f0: b4a3 663d 5152 bdbd 1d6c b238 c2c6 a63d
-0.0006368937 -0.005274866 0.17483173 0.012912917 -0.00061515684 -0.0058211875 -0.0062377146 0.052547317
-0.016375538 0.030492235 0.0036412764 -0.004105614 0.008182213 0.0317501 -0.11064842 -0.003953677
0.09242251 0.07710611 0.035378866 0.012597682 0.0052665556 -0.028855247 -0.027254282 -0.0057988795
0.0017173686 -0.014590393 0.024317537 0.015676824 -0.06419312 0.015191453 0.006473939 0.020937726
0.011464562 -0.05862738 -0.013943654 0.028907018 0.2419401 -0.0260299 -0.002291579 0.09936437
-0.00036793156 -0.02014856 0.012606133 -0.049529903 -0.04350999 -0.04124201 0.0042553027 -0.040731613
0.04699012 -0.07660866 0.011411633 -0.0054958826 -0.067652784 -0.007901412 0.008842169 0.080605485
0.022129335 -0.0067641907 -0.0076589733 -0.012292008 -0.0035149886 -0.00039964158 0.29142028 0.040376216
0.027846625 0.013509819 0.041447632 -0.09271801 0.037678152 0.006296864 0.019871984 -0.008903054
-0.0011659114 -0.009551481 0.15224586 0.0057681664 0.014654333 -0.06256883 -0.010165712 0.036644418
0.014591288 0.049169954 -0.08939746 -0.0038298764 -0.036263965 0.0140136685 0.02448489 0.07288734
-0.016427366 -0.066420056 -0.00043014358 -0.01671705 -0.0655463 0.0034071624 -0.024850126 -0.029358653
-0.010209086 -0.01015321 0.065159224 0.04067576 0.013021933 -0.011701018 -0.01120711 0.1218488
-0.01732869 -0.003319198 0.050720215 -0.004027801 -0.0036281727 0.022561006 -0.048271317 0.03978649
-0.046851624 0.09211034 0.1400744 0.013245167 -0.011626575 -0.04649649 -0.035734702 -0.015317821
-0.0030764497 -0.06917955 0.026191682 -0.018212523 -0.095340215 0.012000051 -0.0028171896 0.014091681
0.039438143 -0.10088246 0.042391844 0.053610284 0.16830868 -0.058104 0.006962572 -0.023573153
-0.02469602 -0.015541916 0.0042831004 -0.034235105 -0.14181122 -0.047979992 0.012965547 -0.04342886
0.05167256 -0.08406249 0.119811215 -0.012244495 -0.1299391 -0.029672015 0.01654426 0.019042756
0.029723728 -0.023003738 -0.05859888 -0.008711928 0.016143529 -0.018303197 0.24581017 0.06724981
0.06434705 0.030194607 0.17839831 0.0825611 0.049968973 -0.0014285798 0.08746969 -0.051186137
0.027967721 -0.012468349 0.071116 0.033950064 0.15532358 -0.11306821 -0.050744183 0.13714024
0.021430304 -0.10768066 -0.10850548 -0.011440236 -0.16396601 0.046626285 0.022641165 0.38863218
0.013074039 -0.068927154 0.001680439 -0.09164409 -0.07348869 0.13619079 -0.028990997 -0.035928946
0.11140159 0.013973166 0.0052323253 0.051131565 0.040651836 -0.020416688 -0.03261107 0.018613297
-0.013054935 -0.007921466 0.11970666 -0.020485248 -0.04886208 0.019253196 -0.004529648 -0.0684115
-0.041396156 0.087629996 0.043393787 0.045297988 0.08566552 -0.041896712 -0.0696284 -0.078486495
0.009822986 0.017292907 0.048727136 -0.19169374 -0.081891716 0.01955641 -0.04136116 0.015859066
0.10867774 -0.052404776 0.07068871 0.088693835 0.090067305 -0.06040676 0.17187317 -0.018704249
-0.055138856 -0.03855695 0.026637979 -0.053855915 -0.3103469 -0.009063766 0.018684715 -0.11648087
0.042534146 -0.028777692 0.37003955 0.009343158 -0.096225485 -0.060677025 0.08700665 -0.01744268
0.053217165 -0.04813273 -0.08909387 0.044212617 0.056308463 -0.09244216 8.507839e-05 0.08143379

6.bias f4 [6]
00000000: 9a76 e93b 2859 423c c02e 8c3b 0196 533b
00000010: 2526 843b 65e3 533b
0.007124734 0.011862077 0.004278034 0.0032285454 0.0040328675 0.0032331583
