models/FF_no_station/FF_no_station_depth1_width96_batch106.pth (torch, 52148 bytes, 6 tensors)

0.weight f4 [96, 24]
0.20735416 -0.17027776 -0.118302636 0.06032697 0.009323189 0.028750641 0.010063045 -0.09714206
-0.038001515 0.24649522 0.54169434 -0.14595719 -0.8730262 -0.06757175 0.74939454 0.8548769
-0.11720185 -1.529271 -2.3353617 -0.509682 -0.6812135 0.3365188 1.1108884 -0.030177556
0.9958128 -0.18392287 -0.031995907 -0.6878909 0.17020565 0.4851195 0.10329339 -0.13212618
0.49762583 0.106360584 -0.96198565 -0.5876244 0.51518524 0.7700822 -0.10253939 -1.0844514
-0.5569019 -0.4705393 -0.17315894 0.22094172 0.29554588 -0.38753158 -0.022638021 -0.14467156
-0.22481799 0.56625485 -0.7260745 0.49998456 -0.12229331 -0.15341838 0.18988316 -0.15322909
-0.014869468 0.09961736 0.039755277 -0.103674255 -0.043856114 0.19892669 -0.16946602 0.08860598
0.06026391 -0.1406356 0.08161222 0.12284453 -0.09641877 -0.17471482 -0.19853663 0.84980804
-1.3549843 -0.5202332 -0.15890071 0.5333861 0.5583113 0.3126083 -0.0848155 0.37766483
0.86292607 0.35555017 -0.9345928 -1.7490714 -1.2747102 -0.5365344 0.23935105 0.36073723
0.18750632 0.13711289 0.4535052 -0.00927324 0.2266068 0.38999498 -0.6491169 -0.5385431
1.0398514 -1.5293071 -1.4993088 -0.21449633 0.11693533 0.07525705 0.1541043 0.2604153
-0.018433165 0.26952973 0.27570522 -0.17287898 -0.30744174 -0.39535764 0.20480323 0.34116766
-0.3427856 -0.5027154 0.15522388 0.2124244 -0.13074782 0.01654725 0.62516904 0.58136445
1.5797085 -0.412829 0.056703974 0.23506789 0.37470314 -0.14090665 -0.06266677 0.18928565
0.08813505 -0.053926643 -0.35226247 -0.083391674 0.1234101 -0.033915542 -0.010855713 0.10738548
0.10651225 0.09451056 -0.34527788 0.14708963 0.13911238 0.7636728 -0.07436547 -3.599653
0.07091812 -0.0052955844 0.17262514 -0.6583403 0.1731275 0.44506225 0.11135326 -0.54973835
0.101495944 0.055680342 -0.6672288 0.0022713502 0.55852467 0.09917368 -0.35540664 0.37904757
0.059112173 -0.25371054 -0.40425712 -0.43882793 -0.18097396 0.3413519 1.1059295 -0.6146484
0.07246593 -0.3392488 -0.21781807 -0.13687603 0.18123357 0.1244793 -0.08491376 0.058970418
0.19714026 0.28932446 -0.08216377 -0.26782417 0.0019276664 0.41255608 0.44800606 -0.14985055
-2.2688863 -4.2359304 -1.5115416 -0.197729 1.0417552 1.094552 -0.89558136 0.5634105
1.0375617 -0.79059315 -0.13369708 0.0701415 -0.17790605 0.092167154 0.49456388 0.09626851
-0.3185771 0.062601894 0.13831183 -0.17854694 -0.16092016 0.121164724 0.31716233 -0.09060986
-0.18845348 0.28685945 0.8214865 0.39375928 -1.619501 -4.225179 -4.3659387 2.0391488
0.31278908 -0.8031582 0.17808574 0.14996979 0.56590575 0.26314446 0.08920855 -0.009029722
-0.2714295 -1.1731079 -0.63734776 -0.9193071 0.3229602 -1.1093003 -0.93772674 0.2718518
0.22659387 0.29377136 -0.0067759734 -0.20323426 -0.40082273 0.7565008 0.44920984 -0.40695336
0.59157676 -1.4462028 0.28680307 0.7216395 -0.7492195 -0.07991393 0.16249348 0.12797944
0.031860914 0.25130522 0.33116215 0.19464819 0.10775188 -0.42596585 0.011641522 0.17301564
00000000: a654 543e 4b5d 2ebe a748 f2bd 6a19 773d
00000010: 4ac0 183c 7786 eb3c 78df 243c 6bf2 c6bd
00000020: 7aa7 1bbd 3e69 7c3e 7bac 0a3f cd75 15be
00000030: a57e 5fbf 0f63 8abd 52d8 3f3f 36d9 5a3f
00000040: 8607 f0bd 27bf c3bf 9176 15c0 857a 02bf
00000050: 0264 2ebf 314c ac3e 9731 8e3f ec36 f7bc
00000060: 96ed 7e3f 4756 3cbe 240e 03bd 9e19 30bf
00000070: 644a 2e3e 9561 f83e 7c8b d33d 164c 07be
00000080: d0c8 fe3e 94d3 d93d b144 76bf 8d6e 16bf
00000090: 2ee3 033f 1b24 453f 2c00 d2bd 4ecf 8abf
000000a0: 1f91 0ebf 87ea f0be 9450 31be 8c3e 623e
000000b0: ca51 973e 8a6a c6be 5f73 b9bc c824 14be
000000c0: b036 66be 14f6 103f 05e0 39bf fafd ff3e
000000d0: ea74 fabd b519 1dbe bb70 423e 16e8 1cbe
000000e0: 129f 73bc 3004 cc3d 6ed6 223d 2b53 d4bd
000000f0: 78a2 33bd 70b3 4b3e 8088 2dbe 0d77 b53d
00000100: 4ad7 763d c702 10be 4f24 a73d ea95 fb3d
00000110: 3477 c5bd 71e8 32be 304d 4bbe 058d 593f
00000120: 2070 adbf 012e 05bf deb6 22be fe8b 083f
00000130: 7ded 0e3f 320e a03e c0b3 adbd 495d c13e
00000140: b9e8 5c3f ac0a b63e 7941 6fbf 92e1 dfbf
00000150: b429 a3bf 525a 09bf 7118 753e 8db2 b83e
00000160: a801 403e 5267 0c3e d531 e83e caee 17bc
00000170: 9d0b 683e 6cad c73e 862c 26bf f6dd 09bf
00000180: da19 853f 56c0 c3bf 5ae9 bfbf eda4 5bbe
00000190: ca7b ef3d 5e20 9a3d 85cd 1d3e 2755 853e
000001a0: 2601 97bc cdff 893e 3c29 8d3e 3007 31be
000001b0: 0169 9dbe 516c cabe f0b7 513e 87ad ae3e
000001c0: 9881 afbe f5b1 00bf 02f3 1e3e c885 593e
000001d0: c2e2 05be 198e 873c 140b 203f 4dd4 143f
000001e0: e333 ca3f 535e d3be 6d42 683d a3b5 703e
000001f0: 17d9 bf3e d549 10be 6f57 80bd 19d4 413e
00000200: 2680 b43d 2fe2 5cbd bf5b b4be 41c9 aabd
00000210: 6fbe fc3d 06eb 0abd 29dc 31bc ebec db3d
00000220: 1823 da3d c18e c13d 43c8 b0be aa9e 163e
00000230: 7a73 0e3e 1080 433f ec4c 98bd b760 66c0
00000240: 853d 913d 9586 adbb a5c4 303e fd88 28bf
00000250: 5648 313e 33df e33e 2e0d e43d a7bb 0cbf
00000260: 1bdd cf3d 1211 643d 82cf 2abf efda 143b
00000270: 79fb 0e3f 921b cb3d dcf7 b5be 8612 c23e
00000280: 9b1f 723d 59e6 81be cafa cebe 0eae e0be
00000290: 3d51 39be adc5 ae3e 198f 8d3f 9959 1dbf
000002a0: 0469 943d 05b2 adbe b30b 5fbe 3b29 0cbe
000002b0: 4b95 393e 01ef fe3d 44e7 adbd f78a 713d
000002c0: 23df 493e 5622 943e 7b45 a8bd 4020 89be
000002d0: c0a9 fc3a 8d3a d33e 0d61 e53e 6c72 19be
000002e0: 6f35 11c0 be8c 87c0 327a c1bf 7979 4abe
000002f0: 3c58 853f 481a 8c3f d244 65bf ac3b 103f
00000300: d2ce 843f 5064 4abf e3e7 08be 59a6 8f3d
00000310: 012d 36be 22c2 bc3d 7a37 fd3e 6d28 c53d
00000320: 8a1c a3be 6c35 803d 9ea1 0d3e 02d5 36be
00000330: 41c8 24be 3625 f83d 1a63 a23e aa91 b9bd
00000340: f3f9 40be 3edf 923e f04c 523f d19a c93e
00000350: cf4b cfbf ab34 87c0 c5b5 8bc0 6a81 0240
00000360: e425 a03e c79b 4dbf 1c5c 363e ae91 193e
00000370: 33df 103f dfba 863e f9b2 b63d 66f1 13bc
00000380: cff8 8abe 6628 96bf 3929 23bf b657 6bbf
00000390: 0a5b a53e 8dfd 8dbf dc0e 70bf 2930 8b3e
000003a0: 3908 683e 3369 963e fc08 debb a41c 50be
000003b0: a338 cdbe 09aa 413f d5fe e53e 315c d0be
000003c0: 9371 173f 2c1d b9bf dad7 923e 5ebd 383f
000003d0: d9cc 3fbf eaa9 a3bd b164 263e 0b0d 033e
000003e0: 9780 023d 14ab 803e 168e a93e db51 473e
000003f0: 05ad dc3d 3218 dabe 15bc 3e3c 032b 313e

0.bias f4 [96]
-15.287066 7.9574337 -3.3498847 2.955153 -16.143791 9.279763 14.478785 -26.081993
20.549736 17.273401 -0.16244732 -27.599258 13.235761 1.3896091 -1.6887246 -3.7037566
17.77823 1.5700078 14.627674 9.740081 3.7325394 -19.09798 -1.9600959 -4.040958
-35.310307 -20.464827 -16.650408 -12.404011 14.819666 10.221818 -12.528379 1.2831869
-14.001477 -18.597109 12.1465845 -3.021063 -14.8797245 0.025483431 -9.009101 -0.6288192
-25.544771 -2.1781974 2.7636006 0.6898557 15.768164 3.832408 5.1069713 2.067727
-10.707901 1.4306084 -5.692614 -6.4514523 -1.643758 8.069204 -10.811379 -1.6106914
19.847368 1.1346925 10.626806 -7.971043 -0.11443566 -9.165527 -8.019324 -16.39088
0.19332002 1.7308728 9.299479 11.687738 -6.266987 12.95857 21.485554 24.917759
21.063301 -9.642499 2.062029 -4.7507467 -11.705081 18.996128 -26.20946 -7.384875
-3.5002968 6.909951 -12.191044 12.960408 -31.879591 -8.33111 -22.144583 6.918321
-17.737999 38.206005 0.014994807 -17.443735 0.016472047 -10.706983 -6.4509525 2.1541982
00000000: d397 74c1 4ca3 fe40 8364 56c0 3a21 3d40
00000010: 7c26 81c1 e979 1441 1aa9 6741 eca7 d0c1
00000020: dc65 a441 ed2f 8a41 9758 26be 48cb dcc1
00000030: adc5 5341 b6de b13f 2128 d8bf 590a 6dc0
00000040: d139 8e41 04f6 c83f f40a 6a41 5fd7 1b41
00000050: ede1 6e40 aac8 98c1 6ce4 fabf 874f 81c0
00000060: c13d 0dc2 f7b7 a3c1 0934 85c1 d476 46c1
00000070: 5a1d 6d41 918c 2341 3e74 48c1 783f a43f
00000080: 0d06 60c1 e1c6 94c1 6958 4241 1959 41c0
00000090: 5a13 6ec1 a1c2 d03c 4725 10c1 4cfa 20bf
000000a0: b15b ccc1 9667 0bc0 d5de 3040 629a 303f
000000b0: 664a 7c41 2c46 7540 4f6c a340 a455 0440
000000c0: 9053 2bc1 2d1e b73f e529 b6c0 4c72 cec0
000000d0: aa66 d2bf 761b 0141 69fb 2cc1 232b cebf
000000e0: 69c7 9e41 9b3d 913f 6607 2a41 c912 ffc0
000000f0: 3e5d eabd 00a6 12c1 274f 00c1 8620 83c1
00000100: aff5 453e 3d8d dd3f aaca 1441 fa00 3b41
00000110: 288b c8c0 4d56 4f41 6ae2 ab41 9257 c741
00000120: a481 a841 ad47 1ac1 48f8 0340 1e06 98c0
00000130: 0348 3bc1 12f8 9741 f9ac d1c1 e550 ecc0
00000140: dd04 60c0 521e dd40 840e 43c1 d55d 4f41
00000150: 6709 ffc1 3a4c 05c1 1b28 b1c1 e362 dd40
00000160: 6ce7 8dc1 f3d2 1842 c7ac 753c c58c 8bc1
00000170: 63f0 863c cd4f 2bc1 346e cec0 62de 0940

2.weight f4 [96, 96]
-0.5343368 -0.41808817 0.066396356 -0.27627778 0.8757437 0.32814476 -0.4668652 5.0572726e-05
0.39188132 0.035580765 -0.06613158 0.31904748 -0.35002497 -0.19377498 -0.9541246 -2.2768335
-1.0648394 -0.073821895 -0.044152483 -0.2509007 -0.014166679 0.34770218 0.42100653 0.7964816
-0.25467637 -0.5170375 -0.21802783 0.67419785 0.31019825 -0.009183861 -0.20043606 0.39493212
-0.3906763 -0.31289965 -2.093991 0.11412502 0.30456185 0.12314715 0.431382 -1.8112205
-0.6714977 -0.32195845 0.2077728 0.26683122 -0.39502943 -2.8047726 -1.4899408 -0.29826722
0.186845 -0.3334625 -0.20672113 -0.27093852 0.14496611 0.24627255 -0.12623473 0.029813929
-0.5015642 -0.16736728 0.15345594 -1.6568623 -0.80989575 -0.07761097 -0.105518065 0.053062305
0.1472336 -1.7762055 -0.1792307 -1.0159184 0.017003037 -0.8860263 0.73482865 -0.3405994
-2.243423 -1.614453 -0.7624651 -2.2165241 -0.42810744 -0.41633657 0.7270375 -0.57631576
0.08715217 -0.057947364 -0.5333823 0.018489722 -0.3736233 0.16845353 0.22531883 -2.062667
-0.9615597 -0.7861317 0.24912561 0.08616967 0.43707892 -0.678095 0.2533586 0.12695922
-1.9820297 -0.34575942 0.18280247 -1.17201 -0.70160484 -2.0299177 -1.0941787 -0.78329074
0.9968945 -0.33835205 -0.07587201 1.1531813 -0.41648072 -1.2961721 -1.626382 -0.1918508
0.6203725 0.5313699 1.0174237 0.9320905 -0.32750103 0.7585918 -1.8574095 -0.7673055
0.28268102 0.9013572 -0.42233068 0.34807163 1.1899871 -1.2931646 -2.2171395 0.20563506
-3.3132806 -0.13469145 -2.2140799 -0.77708787 -0.14423697 0.33725056 1.7795326 -0.10417053
-0.0058382107 -0.47741285 0.05100445 -0.53303856 -0.08356267 -0.34108138 0.28307846 -1.8273314
0.22119251 0.27274206 -2.6595793 -0.3478107 -0.4551172 -2.286668 -0.208142 -0.3813535
-0.17272556 0.15266526 0.020584201 -0.19872306 -0.35528657 -0.56324685 0.012533898 -0.00025453727
-0.09275687 -0.48300627 0.5422133 1.8807075 0.19903655 -1.4913737 0.10713332 -1.5774887
0.21320887 -0.80741686 -1.2797517 0.4500151 -0.33945325 -0.75592387 0.77462226 -1.0424267
0.11111634 0.18313803 0.6229732 -3.6187966 -0.3495984 -1.2198162 -1.7844019 -0.209188
0.58338153 -0.88138306 0.20138635 -0.36239973 -0.91654485 0.501967 -0.17826474 -1.4109181
0.267893 -0.09273102 -0.7938647 0.0120398 0.07450314 0.109954804 -0.010024257 0.022779927
-0.0704055 -0.020040732 -0.8410449 0.36321756 -1.165709 -0.2984878 -0.28420758 -0.08464239
0.14127763 -0.27139705 0.29521596 -0.009389217 0.1742656 0.25665987 -0.21531618 -0.0003090567
-0.08315652 0.2452408 0.091614924 0.38266715 -0.12383667 0.5336342 -0.29093608 -0.32184
0.04514664 -0.0809148 0.037902057 -0.05312797 -0.026448054 0.33954626 -0.394526 -0.24977945
0.1699881 0.027997209 0.12732705 -0.2736968 0.69000953 0.23457904 -0.2059445 -0.12480279
-0.018734012 -0.25964224 0.0728473 -0.04544364 0.061435703 -0.17273775 -0.21789768 0.12569757
-0.44026062 0.057685144 -0.55570155 0.11242821 -0.34032074 -0.010441878 -0.012971879 -0.3306905
00000000: 4cca 08bf a70f d6be d0fa 873d 4874 8dbe
00000010: bd30 603f 9702 a83e f508 efbe 0d1e 5438
00000020: aba4 c83e 23bd 113d fe6f 87bd 315a a33e
00000030: 7936 b3be f36c 46be 8341 74bf a4b7 11c0
00000040: a84c 88bf ef2f 97bd 3cd9 34bd 0e76 80be
00000050: 5c1b 68bc 0506 b23e 2b8e d73e 38e6 4b3f
00000060: f164 82be 925c 04bf b042 5fbe 3b98 2c3f
00000070: 4ed2 9e3e e877 16bc 1c3f 4dbe 8b34 ca3e
00000080: b906 c8be 6234 a0be f303 06c0 61ba e93d
00000090: 88ef 9b3e 9334 fc3d 1ade dc3e 13d6 e7bf
000000a0: 46e7 2bbf bdd7 a4be 65c2 543e 1a9e 883e
000000b0: 4c41 cabe 6581 33c0 61b6 bebf 7bb6 98be
000000c0: 4c54 3f3e 99bb aabe b4ae 53be 74b8 8abe
000000d0: ff71 143e df2e 7c3e ad43 01be 573c f43c
000000e0: 8366 00bf 5462 2bbe 8e23 1d3e 1014 d4bf
000000f0: 5455 4fbf 80f2 9ebd db19 d8bd dc57 593d
00000100: 68c4 163e b45a e3bf 4188 37be 9d09 82bf
00000110: f449 8b3c 9fd2 62bf bb1d 3c3f 0b63 aebe
00000120: 3e94 0fc0 65a6 cebf ea30 43bf 88db 0dc0
00000130: e630 dbbe 112a d5be 211f 3a3f 6e89 13bf
00000140: d67c b23d 375a 6dbd be8b 08bf c277 973c
00000150: 8e4b bfbe 157f 2c3e fbb9 663e bc02 04c0
00000160: c728 76bf ed3f 49bf c91a 7f3e b979 b03d
00000170: cfc8 df3e a297 2dbf 38b8 813e 9901 023e
00000180: 26b3 fdbf 6107 b1be 9230 3b3e 6c04 96bf
00000190: 609c 33bf 2cea 01c0 0c0e 8cbf be85 48bf
000001a0: 7a34 7f3f 7b3c adbe c962 9bbd 729b 933f
000001b0: f63c d5be f8e8 a5bf 492d d0bf 8974 44be
000001c0: bbd0 1e3f dc07 083f f13a 823f 7c9d 6e3f
000001d0: 37ae a7be 1233 423f 98bf edbf 226e 44bf
000001e0: 91bb 903e 58bf 663f ba3b d8be 7236 b23e
000001f0: 7f51 983f 6b86 a5bf 9de5 0dc0 ff91 523e
00000200: ca0c 54c0 8eec 09be 7cb3 0dc0 3bef 46bf
00000210: dbb2 13be 1bac ac3e b9c7 e33f 5c57 d5bd
00000220: 764e bfbb 756f f4be 0bea 503d 3775 08bf
00000230: e822 abbd 38a2 aebe a9ef 903e ffe5 e9bf
00000240: 4a80 623e d9a4 8b3e 8c36 2ac0 3e14 b2be
00000250: 1f05 e9be c558 12c0 2d23 55be c440 c3be
00000260: f8de 30be 4854 1c3e 33a0 a83c 0f7e 4bbe
00000270: 1fe8 b5be f230 10bf fb5a 4d3c 6a73 85b9
00000280: 50f7 bdbd 994c f7be 7ece 0a3f 06bb f03f
00000290: 3dd0 4b3e 55e5 bebf b768 db3d 26eb c9bf
000002a0: 6d53 5a3e dfb2 4ebf e7ce a3bf 6168 e63e
000002b0: d1cc adbe 3a84 41bf a54d 463f 3d6e 85bf
000002c0: f790 e33d 8988 3b3e 2c7b 1f3f 5d9a 67c0
000002d0: 90fe b2be f022 9cbf 4867 e4bf 6135 56be
000002e0: 7e58 153f 52a2 61bf 3938 4e3e 758c b9be
000002f0: afa2 6abf e980 003f 088b 36be f798 b4bf
00000300: 4529 893e c3e9 bdbd b83a 4bbf 9542 453c
00000310: 1a95 983d fc2f e13d c83c 24bc f89c ba3c
00000320: c230 90bd 762c a4bc b84e 57bf a7f7 b93e
00000330: f435 95bf 65d3 98be a883 91be fd58 adbd
00000340: 15ab 103e 8ef4 8abe 8c26 973e 3bd5 19bc
00000350: ae72 323e ec68 833e d87b 5cbe e308 a2b9
00000360: f74d aabd 6720 7b3e 9ba0 bb3d f3ec c33e
00000370: 149e fdbd 409c 083f 93f5 94be 36c8 a4be
00000380: afeb 383d a9b6 a5bd 303f 1b3d b79c 59bd
00000390: 97a9 d8bc 02d9 ad3e 50ff c9be 2fc6 7fbe
000003a0: 5c11 2e3e 675a e53c 0662 023e fd21 8cbe
000003b0: 77a4 303f 7d35 703e 1de3 52be 9b98 ffbd
000003c0: 1278 99bc d4ef 84be f730 953d 1c23 3abd
000003d0: 01a4 7b3d 2ae2 30be 9220 5fbe ddb6 003e
000003e0: d769 e1be 4247 6c3d 7542 0ebf c340 e63d
000003f0: 853e aebe 6914 2bbc 0188 54bc 4450 a9be

2.bias f4 [96]
-10.729471 10.593175 0.3448187 -10.089865 -24.178307 -18.0977 -6.415368 6.743765
-16.456543 10.910319 7.2677064 -7.6056204 -0.12373077 -29.117296 19.582901 -22.914051
1.0465447 2.6379411 -23.506886 0.39019758 -0.0826199 -3.6250074 -18.024376 -8.307618
-12.84253 -2.2196841 -11.69933 -7.6673536 -2.0633368 -6.8363853 -5.3478093 15.395316
4.232901 -15.662864 2.4302983 3.3820117 6.3408775 0.02131594 -1.2094172 -5.8336325
1.7587638 -0.006441967 13.451398 -23.717882 1.6648889 3.8252254 -0.111340076 -7.4745274
-29.750523 2.3801475 0.16259275 -1.7930734 -10.444794 -0.04593447 -3.0754268 7.817684
-12.250702 2.775433 -13.681633 -0.16240905 -1.729455 0.03087114 -14.884633 0.63794273
-2.8148072 -1.5950309 0.6511841 6.8638444 -13.373809 -5.963665 -9.417359 -13.25449
19.48918 9.215579 13.525176 -26.61082 -13.629672 -4.716918 -10.819124 11.800386
3.1711664 -2.3294058 -0.033807382 -12.875144 -23.897423 13.316021 23.947924 2.791968
6.525158 -0.0109552415 3.5061414 -4.936327 1.9976113 -9.6343565 4.060882 -3.6905565
00000000: eaab 2bc1 a57d 2941 148c b03e 1670 21c1
00000010: 2c6d c1c1 17c8 90c1 b24a cdc0 eccc d740
00000020: 00a7 83c1 ab90 2e41 0d91 e840 3e61 f3c0
00000030: 8f66 fdbd 39f0 e8c1 c8a9 9c41 fa4f b7c1
00000040: 2df5 853f 07d4 2840 1a0e bcc1 fac7 c73e
00000050: 9f34 a9bd 1f00 68c0 ec31 90c1 01ec 04c1
00000060: 017b 4dc1 4e0f 0ec0 7530 3bc1 f65a f5c0
00000070: b60d 04c0 abc3 dac0 4121 abc0 3753 7641
00000080: ed73 8740 179b 7ac1 028a 1b40 e172 5840
00000090: 78e8 ca40 c49e ae3c 2fce 9abf 1ead bac0
000000a0: 2c1f e13f 2317 d3bb ed38 5741 39be bdc1
000000b0: 141b d53f 7ed0 7440 4406 e4bd 542f efc0
000000c0: 1201 eec1 5654 1840 b77e 263e 6e83 e5bf
000000d0: e01d 27c1 c825 3cbd cbd3 44c0 782a fa40
000000e0: e002 44c1 b2a0 3140 f8e7 5ac1 8f4e 26be
000000f0: c85e ddbf 79e5 fc3c 7527 6ec1 3750 233f
00000100: cd25 34c0 f929 ccbf 00b4 263f 9da4 db40
00000110: 1ffb 55c1 58d6 bec0 81ad 16c1 6412 54c1
00000120: d7e9 9b41 0373 1341 1f67 5841 f6e2 d4c1
00000130: 2313 5ac1 fef0 96c0 221b 2dc1 62ce 3c41
00000140: 64f4 4a40 fc14 15c0 9c79 0abd 9700 4ec1
00000150: ec2d bfc1 6c0e 5541 5995 bf41 9baf 3240
00000160: 18ce d040 9d7d 33bc 9f64 6040 64f6 9dc0
00000170: bab1 ff3f 5326 1ac1 bff2 8140 1432 6cc0

4.weight f4 [6, 96]
-0.00743535 0.049042434 0.006765965 0.052048 -0.0482848 0.023495462 0.12676373 -0.013092214
-0.051979095 0.057093993 0.05694078 0.06012207 -0.024024846 0.0043065827 -0.0042010974 -0.0009256499
0.045268927 -0.025329951 0.050313026 0.17636466 -0.051202685 0.008816855 0.06651118 0.019472394
-0.0033993314 0.0030777953 -0.0075346525 0.0156374 0.06930127 -0.024106337 -0.008639412 0.0040769805
0.21405202 0.079272695 0.2594795 -0.084968075 -0.029238041 -0.0014794371 -0.012514171 -0.0008601599
0.09055904 0.026468849 -0.0017123395 0.04049727 0.018131662 -0.00995289 0.038803563 0.0123531
-0.054734286 -0.04812972 0.033248868 0.043640573 0.02168463 0.09501891 -0.0024867372 0.08032595
-0.015816675 0.1990352 -0.016985372 -0.027889717 0.049226217 -0.0067187017 -0.16802338 -0.03175373
-0.0087348325 0.044640806 -0.1017334 0.0046056737 0.08704891 -0.06586646 0.0060911328 0.06974586
0.043629646 -0.046775974 -0.06390887 0.043310698 -0.016797405 0.1606179 0.27940345 0.0050149653
-0.037803575 0.008438053 0.009635187 -0.013111148 -0.0010477975 -0.019405972 -0.0040381295 -8.988794e-05
-0.0337385 -0.019532427 0.0062910966 -0.00563485 0.06463271 -0.035296563 0.0100369295 -0.023236444
-0.004222348 0.1738325 0.0077197873 0.03607133 -0.06847531 0.08781998 -0.004712275 0.0087996805
-0.059951488 0.3867665 0.16670844 0.06907954 0.03214047 -0.0005278817 0.0037598761 0.017598793
0.10654146 -0.009375514 0.075661875 0.02831291 -0.006521861 0.016464598 0.0660612 -0.015161901
0.00454721 -0.012727155 -0.016621629 0.12427882 0.119110696 -0.012101449 -0.026033532 0.03942246
0.4424113 0.08715092 0.078677095 -0.33780447 -0.099229544 0.031559978 -0.008559242 -0.003459738
0.17455208 -0.099365585 -0.022357179 0.12700896 -0.010088375 -0.0127627505 -0.050666623 0.027345654
-0.11253322 -0.031877182 0.057028748 0.08266651 0.055613037 -0.042825915 -0.02144983 0.29359502
0.032842323 0.10983171 -0.022891782 -0.02944674 0.009953466 -0.041904405 -0.102496214 0.099516414
-0.016372165 0.078960575 0.056060914 -0.029789705 0.114216946 -0.18553418 -0.0051698443 0.09445778
0.07645578 -0.06594865 -0.12983002 0.09671501 -0.0296832 0.094126515 0.14602394 0.007390174
-0.040321585 -0.015519187 0.018417928 -0.06797576 0.007284881 -0.04021906 0.09437243 -0.012624088
-0.07741136 0.009310998 0.04799905 -0.07028966 0.075635314 -0.145085 0.014971383 -0.10329582
0.028605366 0.49575937 0.008737413 0.01999222 -0.118953995 0.1844456 -0.019217405 0.086579494
-0.049696773 1.1425583 0.38166872 0.038802292 -0.055850405 -0.019291144 0.018333487 0.10349314
0.019392787 0.07528357 0.07832516 -0.002997599 -0.03533077 0.029143937 0.06279315 0.20087196
0.0031590003 -0.038364276 0.0055659143 0.17529662 0.062095776 0.13186342 -0.04468703 0.18358313
0.25665265 0.044187617 0.02085414 -0.60580254 -0.13065006 -0.020003928 -0.003826153 -0.009014421
0.15123983 0.052910373 -0.03945318 0.03325798 -0.027637737 -0.024908258 -0.04618538 0.0045050606
-0.0979466 0.05324745 0.10511809 0.077885665 -0.06823382 -0.03291407 -0.062794626 0.08233946
0.082946 0.01031352 -0.0927167 0.04592282 -0.03910775 0.062572315 -0.04746677 -0.03045044
00000000: 3da4 f3bb b8e0 483d 07b5 dd3b 4930 553d
00000010: 48c6 45bd 8e79 c03c 5ace 013e ba80 56bc
00000020: 08e8 54bd 64db 693d bc3a 693d 8f42 763d
00000030: c1cf c4bc 3c1e 8d3b 5ca9 89bb 50a7 72ba
00000040: e96b 393d c280 cfbc 0815 4e3d f098 343e
00000050: e8b9 51bd 9274 103c 0337 883d 9284 9f3c
00000060: 51c7 5ebb d6b4 493b 3fe5 f6bb 011a 803c
00000070: d3ed 8d3d a77a c5bc 528c 0dbc 3198 853b
00000080: 7430 5b3e b959 a23d 7fda 843e be03 aebd
00000090: 9e84 efbc ace9 c1ba 3d08 4dbc 5b7c 61ba
000000a0: 0577 b93d 33d5 d83c 9470 e0ba 77e0 253d
000000b0: da88 943c 7211 23bc 7cf0 1e3d a864 4a3c
000000c0: 0f31 60bd ab23 45bd f72f 083d 75c0 323d
000000d0: f7a3 b13c 4699 c23d 87f8 22bb ef81 a43d
000000e0: f991 81bc e2cf 4b3e e824 8bbc fa78 e4bc
000000f0: 6ea1 493d 8e28 dcbb 520e 2cbe 3310 02bd
00000100: 8b1c 0fbc 47d9 363d 9a59 d0bd 31eb 963b
00000110: b346 b23d ffe4 86bd 2098 c73b ebd6 8e3d
00000120: 00b5 323d 2a98 3fbd a7e2 82bd 8f66 313d
00000130: b69a 89bc 0579 243e f80d 8f3e 9454 a43b
00000140: ecd7 1abd c23f 0a3c e7dc 1d3c 24d0 56bc
00000150: 4056 89ba 46f9 9ebc 4952 84bb 3882 bcb8
00000160: 6231 0abd 7802 a0bc 8b25 ce3b 8ca4 b8bb
00000170: 275e 843d 2193 10bd ef71 243c 5b5a bebc
00000180: 9f5b 8abb 2601 323e 45f6 fc3b 88bf 133d
00000190: c93c 8cbd f6da b33d 6e69 9abb 892c 103c
000001a0: b18f 75bd 4206 c63e 9eb5 2a3e 9379 8d3d
000001b0: baa5 033d 8b61 0aba 4168 763b 582b 903c
000001c0: 6932 da3d c29b 19bc 9df4 9a3d 7af0 e73c
000001d0: 56b5 d5bb c4e0 863c 184b 873d 9f69 78bc
000001e0: c300 953b 8f85 50bc 152a 88bc e585 fe3d
000001f0: 4ff0 f33d 2845 46bc 4644 d5bc 7279 213d
00000200: bc83 e23e 2e7c b23d 7521 a13d b5f4 acbe
00000210: dc38 cbbd 0945 013d 103c 0cbc c6bc 62bb
00000220: c8bd 323e 2f80 cbbd 6726 b7bc a30e 023e
00000230: b649 25bc db1a 51bc ce87 4fbd fe03 e03c
00000240: d177 e6bd a691 02bd fa96 693d 0f4d a93d
00000250: 7fca 633d 3a6a 2fbd 8eb7 afbc 1652 963e
00000260: ac85 063d 73ef e03d 8c87 bbbc 4a3a f1bc
00000270: dd13 233c f4a3 2bbd 89e9 d1bd 43cf cb3d
00000280: eb1e 86bc 15b6 a13d 21a0 653d 8a09 f4bc
00000290: 93ea e93d acfc 3dbe cc67 a9bb 1573 c13d
000002a0: d994 9c3d 1610 87bd 29f2 04be 8512 c63d
000002b0: 2f2a f3bc 67c5 c03d 4d87 153e 4629 f23b
000002c0: 3f28 25bd 3044 7ebc 32e1 963c e036 8bbd
000002d0: 03b6 ee3b bebc 24bd 5546 c13d 43d5 4ebc
000002e0: d989 9ebd 288d 183c a79a 443d 06f4 8fbd
000002f0: b0e6 9a3d 2a91 14be 884a 753c c28c d3bd
00000300: cd55 ea3c 2cd4 fd3e 5e27 0f3c b9c6 a33c
00000310: 279e f3bd 4fdf 3c3e d26d 9dbc 9750 b13d
00000320: d88e 4bbd 5a3f 923f 156a c33e 27ef 1e3d
00000330: 65c3 64bd 7608 9ebc 1c30 963c 36f4 d33d
00000340: 9fdd 9e3c 462e 9a3d f168 a03d 5e73 44bb
00000350: ffb6 10bd 44bf ee3c b299 803d 61b1 4d3e
00000360: 3b07 4f3b dc23 1dbd 4662 b63b f580 333e
00000370: 2458 7e3d 3407 073e bf09 37bd 37fd 3b3e
00000380: fa67 833e 13fe 343d 4dd6 aa3c e015 1bbf
00000390: 21c9 05be 47df a3bc 32c0 7abb 39b1 13bc
000003a0: 9dde 1a3e 8cb8 583d a899 21bd 8539 083d
000003b0: 8968 e2bc 670c ccbc e22c 3dbd 309f 933b
000003c0: 3a98 c8bd 001a 5a3d 2748 d73d 8582 9f3d
000003d0: 2cbe 8bbd e7d0 06bd 789a 80bd 97a1 a83d
000003e0: 98df a93d 0afa 283c 41e2 bdbd 9119 3c3d
000003f0: 732f 20bd ea25 803d 846c 42bd 3373 f9bc

4.bias f4 [6]
0.18181033 0.15916342 -0.04887518 0.30186093 0.41886237 0.5296822
00000000: 7d2c 3a3e bcfb 223e 5731 48bd 848d 9a3e
00000010: 2175 d63e 4199 073f
