models/FF_no_station/FF_no_station_depth2_width24_batch106.pth (torch, 11304 bytes, 8 tensors)

0.weight f4 [24, 24]
000000 73 99 84 3f e5 0f 11 3f a7 81 72 bf fd 68 ce be
       1.0359329 0.5666488 -0.94729084 -0.40314475
000010 46 ad 33 be 6b b8 45 3e d8 05 62 bf ae fe bd 3d
       -0.17546567 0.19308631 -0.88290167 0.09277092
000020 47 9b a2 3d 62 2a c6 3e 53 21 63 3e e1 ca 0b bd
       0.07939773 0.3870421 0.22180681 -0.034129027
000030 78 5e 35 be 40 fc 0b 3d ea 1d 55 3e 6d 34 a9 3d
       -0.17711818 0.03417611 0.20812193 0.082619525
000040 86 7e 03 3f e6 51 a3 bf 05 f9 6d bf b8 2a c1 bd
       0.51364934 -1.2759368 -0.929581 -0.09431976
000050 63 7f 27 bf ae a2 5e 3e 16 4b 62 bf 55 e5 62 3e
       -0.6542875 0.21741745 -0.8839582 0.22157796
000060 48 04 7d bf de b4 75 be fc 38 2c 3f 47 a7 fe bd
       -0.9883466 -0.23994777 0.6727445 -0.12434249
000070 9c e1 25 3f fe 72 d4 3e c7 04 51 bd 56 81 5f bf
       0.6479738 0.41493982 -0.051029947 -0.87306726
000080 6a 0b 76 bf e0 46 c4 bd 3e 25 c7 be e9 64 af 3e
       -0.96111166 -0.09583831 -0.388956 0.34256676
000090 59 74 15 3f 62 61 8c 3e d5 83 ed 3e 3b 57 13 be
       0.5838066 0.27418047 0.46389642 -0.14388745
0000a0 5d 2f 04 be 65 82 48 3e 81 1c a9 bc 21 41 b0 3d
       -0.12908693 0.19580992 -0.020643475 0.08606172
0000b0 56 cb 0d be 80 f1 b5 3e d3 4b 59 be 01 25 ce 3e
       -0.13847098 0.35535812 -0.21220331 0.40262607
0000c0 ee 47 4d be 24 69 18 3f 38 93 89 3e 3c b7 ac 3d
       -0.2004697 0.5953543 0.26870131 0.08433387
0000d0 27 8a 7d 3e cf e7 42 3e 90 cf 09 3e cd ec a2 be
       0.24759732 0.1903374 0.13458085 -0.3182129
0000e0 9b 0e 86 be 95 9a b5 bd 78 63 23 be ea 1e 0b be
       -0.26183018 -0.08867375 -0.15955913 -0.13586012
0000f0 9b 59 0c 3e 99 6d 5c 3e 2b 69 00 3e 98 8b 04 3d
       0.13706057 0.21526183 0.12540118 0.03235969
000100 2a 13 10 3e 6a fb f1 3e 91 96 f3 3e f1 97 f1 3e
       0.1406981 0.47262126 0.4757581 0.47186235
000110 2b 81 4b bf f7 03 29 c0 cb a6 6a c0 e5 fc 88 3f
       -0.7949397 -2.640867 -3.6664302 1.0702177
000120 76 8e 9e 3e 37 92 5f be 6c d7 2b 3f ed 6b 62 be
       0.30968064 -0.2183312 0.6712558 -0.22111483
000130 20 de 2e bf 65 22 90 3f 60 42 16 be c9 ab b3 bd
       -0.68307686 1.1260496 -0.14673758 -0.08773
000140 16 f1 b5 3e c0 76 55 3e e5 be fb bd 66 b5 d1 bd
       0.35535496 0.20846081 -0.122922696 -0.10239677
000150 71 db 07 3e c6 fe c8 3d a0 96 fc bd 24 6a 00 bd
       0.13267304 0.09814219 -0.12333417 -0.031351224
000160 54 78 b1 3c 5a af af 3d 68 49 db bd 82 9e 24 be
       0.021663822 0.085783675 -0.107073605 -0.16076091
000170 3c 8c 65 3d 2d b4 8a 3e 24 d8 a6 3e b9 1b e3 be
       0.05604194 0.27090588 0.32586777 -0.44357088
000180 3b e2 62 3e 02 11 1d 3d 99 00 58 bf ba b5 20 3f
       0.22156613 0.038346298 -0.8437591 0.6277729
000190 b0 42 f2 3d 28 e8 d6 be a3 47 1d bd b6 18 c4 3d
       0.11829126 -0.41973996 -0.038398396 0.09575026
0001a0 17 b2 ff 3e e6 0f 31 3e 70 09 9a 3e 5e cd c5 3d
       0.4994056 0.17291221 0.30085325 0.09658311
0001b0 89 a6 95 3e 11 46 32 3e fb 0e e6 be 4f 1f da bd
       0.2922862 0.1740954 -0.44933304 -0.10650503
0001c0 21 f0 86 3e 90 4d bd 3e d8 f6 b5 3e a3 81 ce be
       0.2635508 0.36973238 0.3553989 -0.4033328
0001d0 f4 b1 6e be 21 40 90 3d ea eb bf 3d 19 a7 99 3e
       -0.23310071 0.070434816 0.09371169 0.30010298
0001e0 82 ed a3 3f 28 47 c7 3e da 3b c4 be c1 c2 b5 3e
       1.2806857 0.38921475 -0.38326913 0.35500148
0001f0 bb 57 ca bd b0 b9 89 3e 8c 14 05 3e c1 21 ef bd
       -0.098800145 0.2689948 0.1299612 -0.1167636
000200 15 c3 7f be 67 54 9c be bf 1b 44 bd 0c 3f 06 3e
       -0.24976762 -0.30533144 -0.047878023 0.13109988
000210 13 14 3c 3e 84 f8 54 3d 1d e1 b3 be 3f 12 a0 3e
       0.18367033 0.051994815 -0.35132685 0.3126392
000220 88 a3 28 3e ad 47 84 bc db 1c 09 3e 44 fa 57 be
       0.16468632 -0.016147459 0.13389914 -0.21091563
000230 e4 15 81 3d 8d a4 00 3f fd 43 6c 3e 0f 51 fe bf
       0.063030034 0.50251085 0.2307281 -1.9868487
000240 63 da bb 3f 72 47 8f 3e 6f 81 6a be b8 c8 c0 3c
       1.4676021 0.27984196 -0.22900937 0.02353321
000250 a8 45 3a 3e 1b 38 5e 3e 49 c9 13 3e 99 c7 09 3e
       0.18190634 0.2170109 0.14432253 0.13455047
000260 1b f1 99 3e 37 5b 2a 3d a2 97 48 bf c7 ee 76 be
       0.3006676 0.041590896 -0.78356373 -0.24114524
000270 e2 60 a3 be db 93 1d bd 85 47 0a 3b d8 99 d5 be
       -0.31909853 -0.038471084 0.0021099758 -0.41718936
000280 fc a7 7d bf 2f bb 63 bf 68 e8 9e 3e 6a 7d 57 3f
       -0.9908445 -0.88957494 0.31036687 0.8417574
000290 37 03 90 bf 78 a9 68 bf 26 e9 44 bf bc 52 5b c0
       -1.1250981 -0.9088359 -0.76918256 -3.4269247
0002a0 a8 73 65 3d 56 b9 f9 bd e3 25 bf be e0 cb 7e 3e
       0.0560185 -0.12193553 -0.37333593 0.2488246
0002b0 c3 e6 c2 3e f3 29 a7 3f f6 f2 08 3f 38 18 de 3d
       0.38066682 1.3059677 0.5349573 0.10844463
0002c0 39 2a e2 bd 54 e1 25 bd 14 77 09 bc 89 cf e8 3c
       -0.110432096 -0.040498093 -0.008390207 0.028419273
0002d0 bf 57 a1 3d 3d e9 04 bd 63 3b 08 3e 67 37 d8 3d
       0.07878064 -0.032448996 0.13303904 0.10557442
0002e0 f6 b9 6c bd 40 64 a0 bd 5e 8f 47 bd 6c 60 ad 3d
       -0.057794534 -0.07831621 -0.04872071 0.08465657
0002f0 6c 14 ed bc 05 e2 78 bd 93 a6 a8 bd 14 79 9c 3e
       -0.028940402 -0.060762424 -0.082348965 0.30561125
000300 b0 2d ab 3f b7 f0 1f bf a4 cf 50 bf 85 ee 26 bf
       1.3373318 -0.62476677 -0.81566834 -0.652077
000310 bd 0f 33 bf d2 79 1a bf 39 7e 22 3f f7 ff d7 3e
       -0.6994589 -0.60342133 0.6347385 0.42187473
000320 05 0d 4f bd 12 65 bd 3d 6f 96 60 bd 2d ad 74 bb
       -0.050549526 0.09247793 -0.054830965 -0.0037334666
000330 a9 36 61 be 39 ee f2 3d 95 5b c9 3e bf 9c 00 3f
       -0.21993507 0.118618436 0.39327684 0.50239176
000340 50 91 d2 bd a2 b0 fb be 10 32 aa be 6c 02 c2 3d
       -0.102816224 -0.49158198 -0.3324132 0.09473118
000350 4d 58 ed bd a4 06 95 3e 2e 8e 28 3f 1d ca d1 3e
       -0.11589108 0.2910663 0.6584195 0.40974513
000360 48 f3 1e bf 39 cf 49 bd b7 46 13 bc fe 96 ee 3e
       -0.6208997 -0.04926989 -0.008989028 0.46599573
000370 2a 8a 60 be 9a 3f 69 be b8 65 aa be 20 a1 f4 3b
       -0.21927705 -0.22778168 -0.3328073 0.0074654967
000380 8e 6f 9e 3e 3e c1 2c 3e ad b4 d8 3e ca 90 ec 3e
       0.30944484 0.16870591 0.42325345 0.46204215
000390 a8 99 21 3e 43 2e e1 be 0f 7d 26 bd d3 a4 1c be
       0.15781271 -0.43980607 -0.04064661 -0.1529725
0003a0 3e 11 cd bf 9d 69 cf bf a7 2d af be 2f e8 f4 3e
       -1.6020887 -1.6204106 -0.34214517 0.47833392
0003b0 83 cc 6d 3f cb 1a b0 bd 8d 0d 19 bf 79 12 b3 3f
       0.92890185 -0.0859886 -0.597863 1.3990012
0003c0 a8 8e b2 be e1 e3 8a bd 68 2e bd bd a9 5d 47 3e
       -0.34874463 -0.06781746 -0.09237367 0.19469322
0003d0 19 70 32 3c 3c de 20 bd a1 2b 87 3e 25 dd 75 bc
       0.010890984 -0.03927444 0.26400474 -0.015006338
0003e0 14 7d 07 3e 7a 41 ef 3d 2b 46 38 3c e1 2b 3a bf
       0.13231307 0.116824105 0.011247198 -0.72723204
0003f0 08 e7 f4 bf b9 e5 3f c0 20 8a f6 bf af 2a b4 bf
       -1.9133005 -2.9983962 -1.9260902 -1.4075526

0.bias f4 [24]
000000 6a 48 03 c1 02 8f 40 41 ad aa f5 41 c2 f5 6e c0
       -8.205179 12.034914 30.708338 -3.7337499
000010 26 0e a9 41 43 60 6b 41 16 58 42 41 01 08 08 41
       21.131908 14.711001 12.146505 8.501954
000020 b3 d4 27 c1 89 ad ce c1 23 fc b1 c1 b7 8d 68 c1
       -10.4894285 -25.834734 -22.248114 -14.534598
000030 e7 7d 33 40 3c ac d9 c1 b7 13 0a bf ca 1e 8c 40
       2.8045595 -27.209099 -0.5393633 4.3787584
000040 a5 76 e7 be 43 a0 96 3f fc ac 32 c1 90 50 96 41
       -0.45207706 1.1767658 -11.1672325 18.789337
000050 7c 24 a3 bf 8e b4 eb c1 a4 42 a2 40 6a e3 5c 40
       -1.2745509 -29.463161 5.070635 3.4513803

2.weight f4 [24, 24]
000000 b0 07 0d be 9c 5b 5f be 2c 5d 07 3e 95 49 33 3c
       -0.13772464 -0.2181229 0.13219136 0.010942836
000010 88 ea 47 3c af e8 8b be 1e eb 39 bd 40 e1 6c be
       0.012201913 -0.2732596 -0.04539024 -0.23132801
000020 c2 a8 13 bb 3d 02 33 be 76 a1 36 be d2 39 04 bc
       -0.0022531007 -0.17481323 -0.1783503 -0.008070426
000030 77 fc 87 be 89 ad 94 bc 33 c2 b4 3d 26 fe 44 be
       -0.26559803 -0.018149154 0.08826103 -0.19237575
000040 79 68 14 be 5e d9 92 be be f0 c9 bd 41 be 38 3c
       -0.14492978 -0.28681463 -0.09860371 0.011275829
000050 6d 17 81 be 3a 68 ce 3d 94 be f4 bd 35 ee 3c be
       -0.25213185 0.100784734 -0.119504124 -0.18450244
000060 22 ac 3d c0 b0 ef 98 3d bb f1 a6 bf c0 82 cc 3e
       -2.9636312 0.07467592 -1.304252 0.39943504
000070 7e 63 83 bd 75 36 dc 3e eb 60 38 40 1b 78 65 3e
       -0.06415461 0.43010297 2.8809154 0.22409098
000080 e0 e5 2f bf 73 b0 95 be da e5 17 c0 ff 33 d7 bd
       -0.68710136 -0.29236183 -2.373404 -0.10507964
000090 a1 58 95 be c0 2a 16 bf 6f ea 48 bf a8 7c 0b 3e
       -0.2916918 -0.5865898 -0.7848272 0.13621771
0000a0 32 07 30 3e ab c6 10 3f 05 5c 71 bf e2 09 8f 3b
       0.17190245 0.56553143 -0.94281036 0.004365192
0000b0 92 59 40 3e 88 cd 8f bf d9 71 26 3f 58 2f d7 be
       0.18784168 -1.1234598 0.6501747 -0.42028308
0000c0 aa 08 f9 be 56 3b 20 bf 1b db b2 3e 75 1d e4 3a
       -0.48639423 -0.6259054 0.3493279 0.0017403798
0000d0 7b 75 22 3e be 8b 5e 3f bd 8f 9d be 39 19 6e 3e
       0.15865128 0.8693198 -0.30773726 0.23251809
0000e0 e7 0b 95 bd 01 a9 da 3c b0 b9 bd bf 95 ad f0 bd
       -0.07277661 0.026691915 -1.4822292 -0.11751858
0000f0 f8 de 81 bd 42 ad b9 bd 0e 3e 78 3c 36 d9 92 3e
       -0.06341356 -0.090662494 0.015151514 0.28681344
000100 6b 80 08 3e 13 09 ae 3e 37 d6 6d be b2 5f 54 3d
       0.13330238 0.33991298 -0.23226248 0.051849075
000110 f7 d7 27 bf 26 52 a8 bf 6d 87 81 bf c8 9f 7d bc
       -0.6556391 -1.315007 -1.0119454 -0.015479989
000120 b6 67 c0 bd e4 43 77 bf e4 ac 9a 3f 13 f0 c1 be
       -0.09394781 -0.9658797 1.2084012 -0.37878475
000130 08 b0 15 3f 91 19 04 3f c3 4f a6 bf 3e 8d 8b bd
       0.5847173 0.5160151 -1.2993091 -0.06814049
000140 a9 33 03 bf a9 f4 f3 bd 61 f3 60 3e d1 53 26 be
       -0.512507 -0.119118996 0.21967842 -0.16242911
000150 25 53 1a 3f 48 b1 b9 bf 40 bb 17 bf fc 3c 8a 3e
       0.6028312 -1.4507227 -0.59270096 0.26999652
000160 b6 03 8d be a5 a2 85 3e 49 96 3e c0 40 51 69 bf
       -0.27541894 0.2610065 -2.9779227 -0.911396
000170 f1 8d 2c bd d7 a6 f9 3e d0 c3 35 3c 3e 4b 0c 3f
       -0.042127553 0.487601 0.011094049 0.5480231
000180 f3 4d ce bd d7 3f 40 3c 9f 56 0a 3e 44 01 8c 3e
       -0.100734614 0.011733971 0.13509606 0.27344716
000190 94 15 d7 bd e2 87 0b bc 1f 88 3e bd dd 24 b7 3c
       -0.105021626 -0.008516284 -0.046516534 0.022356445
0001a0 6c fc 28 be c5 ce 95 ba 4c 70 28 3e a6 2d bb bc
       -0.16502541 -0.001142942 0.16449088 -0.022848915
0001b0 8a 4d a6 bd 05 27 f3 bd 20 d8 12 be 89 65 0b 3e
       -0.08120258 -0.11872677 -0.14340258 0.13612951
0001c0 2a 3a d0 3e 29 eb cc 3d 00 76 4a 3d b6 a4 90 bd
       0.40669376 0.10005791 0.04942894 -0.07062666
0001d0 7c a1 b9 3e 93 6b 0d 3e f2 ea 92 bb b5 00 5c 3f
       0.36256015 0.13810568 -0.004483574 0.8593858
0001e0 16 04 38 bf 7b 7d a4 bf f5 49 28 bf f9 d5 2e 3d
       -0.71881235 -1.2850794 -0.6573785 0.04268453
0001f0 ee 05 4f bf b5 e0 9b be 41 3b df 3f 62 98 84 bd
       -0.80868423 -0.30444875 1.7439958 -0.06474377
000200 da a1 15 c0 1a b9 a4 3f d5 54 12 3f 60 92 94 3e
       -2.3380036 1.2868989 0.57160693 0.29017925
000210 d1 08 7c bc 44 f1 1c bf 54 4d 5c bf f5 f2 58 be
       -0.015382961 -0.6130564 -0.86055493 -0.21186431
000220 ea 94 b3 bd 90 7d 54 3f 77 45 d8 be 64 12 89 bf
       -0.087686375 0.83004093 -0.42240497 -1.0708737
000230 46 61 33 bd 40 28 d5 3a c1 10 2a be aa a4 d1 be
       -0.04379394 0.0016262606 -0.16607954 -0.4094594
000240 43 47 17 bf 09 da ca 3c dd ed f2 3d b4 e0 0b 3f
       -0.5909311 0.02476217 0.11861775 0.54639745
000250 2b 72 96 be 13 fc 8c be 0d 41 0a bf e0 e2 b2 3e
       -0.29383978 -0.27536067 -0.5400551 0.34938717
000260 52 b8 c5 3d d0 7a b5 3e b6 00 b3 3e 0b 16 ca be
       0.09654297 0.3544526 0.3496148 -0.39469942
000270 f5 25 b2 3e 3f 08 84 3d d5 53 23 be 96 19 3b bf
       0.34794584 0.06446885 -0.15949948 -0.73085916
000280 cc 22 8f be ce 76 26 3e 3f 4e 1a be 69 78 7e 3d
       -0.27956235 0.16256258 -0.15068911 0.06212655
000290 bb b2 b7 bb 64 02 0b 3e ed 26 17 be a6 3f 37 3e
       -0.005606023 0.1357513 -0.14760943 0.17895374
0002a0 1a e7 a5 be 07 80 8a 3d 9e 22 04 3e d0 7d b2 be
       -0.3240288 0.067627005 0.1290383 -0.34861612
0002b0 c0 82 f5 3b 96 94 07 bf 5d fe b1 bd 4a a2 5b bc
       0.0074923933 -0.529611 -0.08691094 -0.013405392
0002c0 7d 82 32 3e 96 9d cb 3c 6f cb 60 3e 8b e0 24 bf
       0.1743259 0.024855416 0.21952604 -0.64405125
0002d0 88 ef 57 3e a5 e7 67 3e 3a b2 bb 3d 58 fe 29 bf
       0.21087468 0.22646959 0.091648534 -0.6640372
0002e0 bb 35 3d 3c 0a 04 9f 3e ec 7b b1 3d 02 3b eb bd
       0.011548455 0.3105777 0.08666214 -0.11485864
0002f0 09 db a1 3d ba 26 5d 3f a5 1b 2b 3f 76 71 da 3e
       0.07903106 0.8638722 0.6683906 0.4266469
000300 0b e3 7f 3d e8 95 e8 bd 24 18 13 3e 0a 84 06 3e
       0.062472384 -0.11356717 0.14364678 0.13136306
000310 03 2b a4 3d ef 62 ac 3d 7c 22 b7 be 07 da 57 3f
       0.08016016 0.084173076 -0.35768497 0.8431706
000320 bd 0d cf bd f5 97 99 3d d3 b7 8d 3d 6a 45 b1 3c
       -0.10110042 0.07499687 0.06919827 0.021639545
000330 ee d8 5f bc 8b ca 57 3d e9 4b cf bc 1d 6a 8f bd
       -0.01366256 0.052683394 -0.025304751 -0.070026614
000340 f7 d5 f0 3e 3d de 27 bd 2e 24 aa 3d e8 93 b2 3c
       0.47038242 -0.040983427 0.08307682 0.021799043
000350 37 5d 03 be fc d8 74 bd ab 1a 18 3d c3 70 bb bd
       -0.12828527 -0.059777245 0.037134808 -0.09152367
000360 b1 6e c3 3e 8c 5b f9 bd 8e 2c a8 be c4 03 be be
       0.38170388 -0.12175664 -0.32846493 -0.37112248
000370 86 c5 48 bd 55 a4 80 3e a4 85 05 bf c1 61 ec 3e
       -0.049016498 0.25125375 -0.52157044 0.4616833
000380 f8 55 0e 3f 0d ac 30 3e 6f 31 b7 bd 62 0e 40 be
       0.5559993 0.17253132 -0.089449756 -0.18755487
000390 2b c6 33 3d 07 e4 15 bf 68 ac 22 be ca 59 47 bf
       0.04389016 -0.5855107 -0.1588608 -0.7787138
0003a0 4a 49 09 3e e1 a8 e6 bc 8d 10 79 be ee a2 81 be
       0.13406864 -0.0281567 -0.2432272 -0.25319618
0003b0 3c 35 87 bd b4 2b 5e 3e 95 be b8 3d 09 81 4d 3e
       -0.066019505 0.21696359 0.09020726 0.20068754
0003c0 06 59 82 bc e7 28 2d 3d 5d 30 e8 3b c8 59 23 be
       -0.01591159 0.042275336 0.0070858435 -0.15952218
0003d0 24 36 9f bc dc 33 39 be 9d db 44 be 01 75 2a bd
       -0.019434996 -0.18086189 -0.19224401 -0.04161549
0003e0 2f 06 f1 3c a3 01 98 3d eb 5d 1e 3e 5a d3 94 3e
       0.029421894 0.07422187 0.15465514 0.29067498
0003f0 db c3 b1 3d c0 14 47 3d 80 49 12 be 02 da d2 bd
       0.086799346 0.048603773 -0.1428585 -0.10295488

2.bias f4 [24]
000000 80 68 37 bd 6d 24 e9 3f c6 20 e6 3f a9 05 e0 c0
       -0.044777393 1.8214241 1.7978752 -7.000691
000010 d1 03 15 c0 e3 eb ff c1 b8 29 11 c1 81 0d 4d 41
       -2.328358 -31.99018 -9.072685 12.815797
000020 07 d0 85 c0 db 24 a3 40 09 d5 f3 40 a7 e6 cb 41
       -4.181644 5.098249 7.6197553 25.487623
000030 d7 b4 90 c0 92 b7 14 40 65 2c f4 be d2 51 2f 41
       -4.522075 2.3237042 -0.4769012 10.957476
000040 20 ea 1c c1 27 07 d8 40 c5 dc a5 c1 0b 15 88 c0
       -9.807159 6.750873 -20.732798 -4.2525687
000050 79 68 77 40 5d c9 31 40 9c 36 ea 3f c6 bc 06 c1
       3.8657515 2.7779152 1.8297915 -8.421087

4.weight f4 [24, 24]
000000 27 1e 89 3d 78 9a 4c 3d f1 27 99 3d c1 ad db bc
       0.06695204 0.049952 0.07478321 -0.02681625
000010 71 ee 98 3d 13 58 8f be c4 b2 34 3d 8f 5e b9 3d
       0.07467354 -0.27996883 0.044115797 0.09051239
000020 1b 40 83 3e d6 19 b6 bd 04 63 62 3e 66 dc 7f be
       0.25634846 -0.088916466 0.22108084 -0.24986419
000030 ff 48 ac 3d a8 c0 30 c0 80 35 aa bd 5f d0 b0 bd
       0.084123604 -2.7617588 -0.083109856 -0.08633494
000040 aa a3 06 3d cd 3f fb be 60 3a 3e bb 77 d2 4d be
       0.032870926 -0.49072114 -0.0029026493 -0.20099817
000050 fe 12 43 bd ed 21 ec be fe 7d 55 be 0b 09 92 3d
       -0.047625534 -0.46119633 -0.20848843 0.07130631
000060 30 1d b9 3d 3b 3f fa bd 84 f7 ba bd 7d c0 8b be
       0.0903877 -0.122190915 -0.09129241 -0.27295294
000070 37 a3 4d 3f 99 8f c7 bd 03 eb 77 bd 0a 4c 1c 3d
       0.8032717 -0.09744186 -0.06052686 0.038158454
000080 50 3b 4f be 52 30 1a 3e d4 fb d3 3d 61 76 d5 3c
       -0.2023747 0.15057495 0.10350767 0.026057424
000090 55 24 1b be 80 b5 32 be 40 af 04 be eb 76 c6 3d
       -0.15150578 -0.1745205 -0.12957478 0.096906506
0000a0 f0 6d ae bd cf 85 33 3e 0c 37 89 3d 4b b6 0a bd
       -0.08517063 0.17531513 0.066999525 -0.033865254
0000b0 b6 c7 62 3c 21 01 01 be 58 94 56 3e 11 66 e4 be
       0.01384156 -0.12598087 0.20955026 -0.4460912
0000c0 4f 3c a1 bd 51 b3 85 3d 7e 87 7e bd 26 5f 11 bc
       -0.07872831 0.065283425 -0.062140934 -0.008872783
0000d0 31 00 4f 3d 31 4c 96 be 75 9d cc 3d 2b 6d 78 bd
       0.050537292 -0.29355004 0.0999097 -0.060650986
0000e0 c0 41 13 be 55 13 f6 bc 08 e5 e2 3c b9 83 c4 be
       -0.1438055 -0.030038515 0.027697101 -0.38381746
0000f0 da c0 43 3e 6c 21 30 c0 6b 73 e8 3d 2c 48 a2 bd
       0.19116536 -2.75204 0.11350139 -0.07923922
000100 39 dc 3b 3d 01 a1 4f be ee 81 7e bc ec 73 b2 bd
       0.045864318 -0.20276262 -0.015533907 -0.087135166
000110 5e 25 9a bd 48 95 fd 3e 9b bf 5c 3d 09 bd 8b 3e
       -0.075266585 0.49527955 0.053893667 0.2729266
000120 d3 49 43 be 3d ed 12 be c5 42 04 bf 95 88 79 3f
       -0.1907113 -0.14348312 -0.5166438 0.9747403
000130 b5 6e 89 be 2a 84 68 bc a4 d5 3a 3e de 6a 29 3f
       -0.26842275 -0.014191667 0.1824556 0.6617869
000140 e5 97 16 be d1 47 fd bd e1 4b 92 3e 8b ac e8 3f
       -0.1470638 -0.123672135 0.28573516 1.8177656
000150 c5 02 70 bd 27 89 a5 bf a1 96 9f bf 6d 5c 07 3f
       -0.05859639 -1.293248 -1.2467843 0.52875406
000160 46 a0 09 bf b2 51 84 be 6b c8 48 3e 70 75 5e c0
       -0.5376018 -0.2584358 0.19607703 -3.4759178
000170 06 5d fc be c2 ad 75 3e be b2 38 bf 9d 10 10 c0
       -0.4928972 0.23992065 -0.7214774 -2.251014
000180 7d 4e 51 3c ce e8 86 3e 33 cc b1 be c8 8e 54 bd
       0.012775061 0.2634949 -0.34726104 -0.05189398
000190 ac 22 20 3d 4a 3d 93 bf 6f 96 dd 3e 48 86 e8 be
       0.039095566 -1.1503079 0.43278834 -0.45414948
0001a0 c3 0d 9f 3e f6 16 cb bd d1 de b2 be 74 ed 1c be
       0.31065187 -0.09916489 -0.3493562 -0.15324956
0001b0 39 52 04 3f 8b b5 08 3f 75 7a da 3d 92 03 46 bf
       0.5168796 0.5340201 0.10667888 -0.773492
0001c0 a7 41 10 c0 bc 95 02 bf d6 27 15 c0 b2 50 a6 3e
       -2.254007 -0.51009727 -2.3305564 0.3248344
0001d0 d6 87 a1 bf 3c 5c 23 be 57 ab 9b bf 7b 7a 25 3d
       -1.2619579 -0.15953153 -1.2161664 0.04040001
0001e0 ef e3 02 3d 9d d7 20 bc c4 5e ee 3c a8 16 2e bd
       0.031955656 -0.009817031 0.029097922 -0.042502075
0001f0 c6 ce c7 3c f4 4c 82 bd a2 c8 8d bb 3b 36 aa be
       0.02439059 -0.06362334 -0.004326896 -0.332445
000200 41 f8 b1 bd 67 0c 95 bd 6c ef 35 3f 70 a6 bf 3c
       -0.08689929 -0.07277756 0.71068454 0.023394793
000210 7e 49 ce b9 e4 9e 90 bd ef ba 75 bc 4a dc 9a 3d
       -0.00039346138 -0.07061556 -0.014998182 0.07561548
000220 16 96 6a 3c 61 45 5c 3e 7a 94 7d 3b e3 ef af 3b
       0.01431801 0.21510841 0.0038693235 0.005369173
000230 f8 e2 4c bc 23 d8 1a 3d 9f 2d a2 3d 0c 2b 41 be
       -0.012505285 0.03780378 0.07918858 -0.18864077
000240 2b 35 67 bc 70 a3 0c be 68 18 7f 3e 04 ac 4f 3e
       -0.014111797 -0.13734221 0.24911654 0.20280463
000250 80 ac c2 3d 62 ca a8 3f 51 30 05 be 99 f2 9f 3d
       0.09505558 1.3186762 -0.13006712 0.07809944
000260 1b 56 06 3e 97 d2 bd bd e1 74 8b 3c 76 2a 79 3e
       0.13118784 -0.092686825 0.017023506 0.24332604
000270 9a 96 df bb 39 22 7b bf 0e 4a 5a bd 41 81 bc be
       -0.006823373 -0.98099095 -0.05329328 -0.36817363
000280 ae fa d7 be 74 ee dd 3d 04 60 2a bd 20 4b 0e 3d
       -0.4218344 0.10836497 -0.041595474 0.034739614
000290 7a 9b 0f be bb 0c 17 3c 66 e7 ba bd 56 51 ce 3c
       -0.14024153 0.009219344 -0.09126167 0.025185268
0002a0 64 93 f7 bd 1e 40 98 bd 10 1a 40 bd 1f a0 14 be
       -0.120886594 -0.074341044 -0.046899855 -0.14514206
0002b0 c8 c3 60 3e 23 f7 88 3e 6f bc a8 be 1b 5d 9e 3d
       0.21949685 0.2675105 -0.32956263 0.07732602
0002c0 88 41 b1 3e b5 7e 9a bd db b0 14 3e cb 63 c4 bd
       0.3462031 -0.07543699 0.1452059 -0.095893465
0002d0 e0 3a 07 3f 63 61 16 3f 23 df ad bd 95 90 1a 3d
       0.5282421 0.5874235 -0.084898256 0.03773554
0002e0 87 14 de bc 7d bb 82 be 2f 54 ab 3c ab 3c 1f be
       -0.027109398 -0.25533667 0.020914165 -0.15550487
0002f0 66 29 80 bc d4 32 9e bd f1 10 20 3d 1f 87 c7 bd
       -0.01564474 -0.077245384 0.039078657 -0.09742569
000300 73 42 ac 3d e7 f8 95 be 5a 80 66 be c8 a0 63 3f
       0.08411112 -0.2929146 -0.225099 0.8891721
000310 50 6d 3b 3d dc 2e 83 3d 9f 95 02 3e a0 f4 03 3f
       0.045758545 0.06405422 0.12752388 0.51545143
000320 68 fc 18 3d 17 79 6e bf e9 c5 f6 bc 30 86 03 40
       0.03735009 -0.9315352 -0.030123668 2.0550652
000330 dc 50 c2 be 65 d8 ed bf 52 ac 91 bf 8e 08 97 bb
       -0.37952316 -1.8581663 -1.1380713 -0.004609174
000340 a2 31 94 be fd c6 b3 3d 85 e1 10 3e e6 35 b7 bf
       -0.28944117 0.087781884 0.14148529 -1.4313323
000350 7f ef 3a bf 09 e0 4b be 81 3f 3a bf f1 6f de bf
       -0.7302169 -0.19909681 -0.7275315 -1.7377912
000360 a5 1d 6f 3d cc 4c cc bd 6d 28 15 be 07 20 e9 3d
       0.05837788 -0.09975585 -0.14566202 0.11383062
000370 f3 67 40 be ec 85 30 3e ad 82 77 be 74 25 54 be
       -0.18789653 0.17238587 -0.24170943 -0.20717412
000380 77 53 ca bd 6f 18 a1 be e3 b0 6f 3e e0 4f de be
       -0.09879201 -0.31463954 0.2340732 -0.43420315
000390 de 3a be bd 95 70 6f 3e ba 0c d5 3d f8 94 54 3a
       -0.09288572 0.2338279 0.10402818 0.0008109356
0003a0 7e cc f6 3c 4a b4 b9 bd 4d f5 0d be 48 00 a3 bd
       0.030126806 -0.090675905 -0.13863106 -0.07959038
0003b0 e1 5e 78 bd c4 65 39 3f de 7a 26 3e 4f 7d f1 3d
       -0.06063736 0.7242091 0.16257808 0.11791479
0003c0 b7 d8 05 3e aa 97 34 bf cf 76 4b bf 65 07 29 3f
       0.13070951 -0.7054392 -0.7947816 0.6602691
0003d0 c5 54 14 3e ab e8 08 3f 12 bc db bd 99 61 24 3e
       0.14485462 0.53480023 -0.10729231 0.16052856
0003e0 18 6d 8d bd 3f 5e 1b 3e de 4d fd 3c bc 23 93 3e
       -0.069055736 0.15172671 0.030920919 0.287382
0003f0 b6 91 1a bd ae ce c2 c0 7a 6a 29 3e 7c f8 32 be
       -0.037736617 -6.0877295 0.16544524 -0.17477602

4.bias f4 [24]
000000 2a 29 6e 40 da d5 0a 40 81 3f 99 c0 99 ba ef c0
       3.7212625 2.1693025 -4.789002 -7.491528
000010 12 eb f2 c1 c6 27 b2 bf 1a ae 14 c0 8f 09 38 3f
       -30.36478 -1.3918388 -2.3231263 0.71889585
000020 e3 ac ca 40 37 e0 09 c0 1d ab 2e c1 99 56 a5 be
       6.3336043 -2.15431 -10.916776 -0.3229263
000030 b2 a6 8f c0 42 93 80 bd 4d d9 76 40 83 3b 2a 41
       -4.4890985 -0.06278087 3.857013 10.639529
000040 11 17 fd c0 ec b6 de bf 60 52 7a 3e fb b8 60 3f
       -7.9090657 -1.7399573 0.24445486 0.8778226
000050 ed 4d 05 c1 a4 3b 90 c0 9e 38 82 40 0b ad f2 bf
       -8.331525 -4.5072803 4.0694113 -1.8959059

6.weight f4 [6, 24]
000000 98 46 a1 3a 0e 32 0d 3d 81 90 18 bd e9 c0 b3 3e
       0.0012304364 0.034471564 -0.037247185 0.35108116
000010 31 a7 8f bc ed 79 c0 3e 50 02 0f 3d f7 1c a8 39
       -0.017535778 0.37593022 0.034914315 0.00032065038
000020 d4 28 99 be b6 62 23 3c 6b 98 8f 3d f8 a4 64 3e
       -0.29913962 0.009972265 0.07011493 0.22328556
000030 78 16 df 3c f8 6d 6b 3e cb 3a 72 bb e7 3c ba bc
       0.027232394 0.22991168 -0.0036961313 -0.022734119
000040 8e 5e 82 3d 41 a5 0e bd 93 b0 22 bc 7d 80 1c 3c
       0.06365691 -0.034825567 -0.009929794 0.009552118
000050 1d 46 93 bc 17 d5 3a 3c 15 d8 3f 3d d6 1a 04 bd
       -0.017977769 0.011403344 0.04683693 -0.032252155
000060 6c 51 88 ba ce fa 6e 3e 02 45 68 bd 5c ec 89 3e
       -0.0010400242 0.23337862 -0.056706436 0.2693814
000070 72 a0 9c bd b2 1e 13 3e ad 5d 19 3d c4 a3 12 3c
       -0.0764779 0.14367178 0.03744285 0.008950178
000080 1d 55 64 3d f9 46 b9 bd 31 74 76 3e d6 87 c4 3d
       0.055745233 -0.0904674 0.24067761 0.09596221
000090 d1 05 b2 3d 38 a5 ec 3d c7 1a a2 ba a5 ba 5a bd
       0.08692516 0.115549505 -0.0012367599 -0.053400654
0000a0 ba 7e 45 3e 50 8e 94 bd 01 1c 80 bc b0 38 23 3c
       0.19286624 -0.072537065 -0.015638353 0.009962246
0000b0 6a 1a d2 bd 35 b4 36 3c 6e ca a7 3d 1d 8b 9d bd
       -0.10258944 0.011151363 0.08192907 -0.076925494
0000c0 f7 73 89 bd 94 b1 7f 3e 54 12 bc 3d fa 34 15 3e
       -0.06711572 0.24970084 0.09183183 0.1457099
0000d0 a3 21 0f be b7 c7 35 3d 8d 95 37 3d 15 a9 87 3d
       -0.13977675 0.044379916 0.044820357 0.06624047
0000e0 9a 92 a4 3e bb c6 e4 3c 83 eb 10 3e 56 25 4c bd
       0.32143098 0.027926793 0.1415234 -0.049840294
0000f0 a0 d2 d1 3d 2c 5d ee 3c c7 37 2a bb 36 e5 94 bd
       0.10245252 0.029097162 -0.0025973187 -0.07270281
000100 1e 12 99 bd 03 3e da bd a5 a9 03 bd e4 ae b5 3d
       -0.07474159 -0.10656359 -0.032144208 0.08871248
000110 dd 03 64 3d 55 93 5e 3c b0 f6 81 3d 51 1f 6c 3e
       0.055667747 0.013584931 0.0634588 0.23058821
000120 22 fe 73 bd ec 3b 02 3e 74 76 da 3d 72 20 be 3d
       -0.05956853 0.12718171 0.106671244 0.09283532
000130 74 cc 75 be fb 1a ca 3c 11 2d 30 3d be 7b 67 3e
       -0.24003774 0.024671068 0.04301173 0.22605798
000140 5b ca 2b 3e 7a 58 fe bc 47 55 b2 3d f3 33 1c 3e
       0.16776411 -0.031048048 0.087076716 0.15254192
000150 d0 b3 56 3d 2b 35 05 3d 69 51 bb bd a3 cb 9a bd
       0.052417576 0.032521408 -0.09146387 -0.07558372
000160 20 4c e0 bd 7f a5 f2 3b cb ad dc 3a 74 a1 a7 3e
       -0.1095202 0.0074049826 0.0016836462 0.32740366
000170 5d 25 07 3e 6c 3f 1f 3c 0b ee 33 3c ce 93 35 bd
       0.13197847 0.009719711 0.010982047 -0.04433041
000180 c2 aa f7 3d 13 6a 36 3d ec 07 54 3c a1 5e 8a 3d
       0.12093116 0.044534754 0.012941342 0.0675633
000190 98 0d 89 be 65 43 44 3c 98 bf 5c 3d d6 5a 75 3e
       -0.26768184 0.011978959 0.053893656 0.23960432
0001a0 5e 2b c3 3d fe 74 c8 bc 46 86 32 3d f0 27 00 3b
       0.09529756 -0.024469849 0.043585084 0.0019555055
0001b0 80 c4 0f bd a2 cc 8f 3c 11 73 99 3e 77 4a 93 bd
       -0.035099506 0.017553631 0.299706 -0.071919374
0001c0 bc ea f3 bc 1f 82 77 bc 62 92 06 be 67 5c 0a 3e
       -0.029775016 -0.015106707 -0.13141778 0.13511811
0001d0 1c 3e df bd 2e f1 f9 3d de ee 24 bd 62 d8 31 bc
       -0.10900518 0.122042045 -0.040266864 -0.010854812
0001e0 f8 a5 9b 3c 96 62 ff 3c 6e e5 34 3d a4 8a 46 3d
       0.019000039 0.03117494 0.044164114 0.04847206
0001f0 ea f8 24 be c6 a5 f3 3b 91 0c b8 3d 2f 65 19 3d
       -0.16110578 0.007435533 0.08986772 0.03745001
000200 79 02 7f 3d 15 c4 98 bc 00 be 52 3c 7f 44 94 3c
       0.062258217 -0.018648187 0.012862682 0.018099068
000210 36 ae 39 be 9b ca fb 3b cb a4 f5 3d 09 65 8f bd
       -0.18132862 0.0076840646 0.119943224 -0.07001693
000220 2c 5c 91 3b d6 f9 61 3b f6 ed a2 3e fc be 38 3d
       0.0044360366 0.003448119 0.31822175 0.045104012
000230 03 dc 1d bd b8 08 d1 3e 8a 5e 8e bd 10 4b 22 bb
       -0.038539898 0.40826964 -0.06951626 -0.002476398

6.bias f4 [6]
000000 3a a0 bf bb 67 0a 8c 3d 4f 25 36 3e 69 5c 97 3e
       -0.005847958 0.068379216 0.1778767 0.2956269
000010 65 8c d1 3e 51 0f fc 3e
       0.40927425 0.49230435
