models/FF_no_station/FF_no_station_depth1_width24_batch106.pth (torch, 8308 bytes, 6 tensors)

0.weight f4 [24, 24]
000000 b8 1d 15 bf c7 23 a5 3e ae 17 e5 bd ba 6c 4b 3d
       -0.5824847 0.32253858 -0.11186157 0.049664237
000010 82 16 e8 3e 24 2b 3c 3e 17 74 92 be f5 94 a5 be
       0.45329672 0.18375832 -0.28604195 -0.32340208
000020 f4 ee eb 3d cc 92 e1 b8 6d 7e e8 3c f0 fd 9e bd
       0.11520186 -0.00010756179 0.028380597 -0.077632785
000030 cf c3 18 bd 06 dd 93 3e 68 79 8f 3d d8 c5 27 be
       -0.037296113 0.28879565 0.07005578 -0.16384065
000040 4a 9a 85 3e a4 9e 24 3e 68 d0 27 bd 04 3e 4b bf
       0.26094276 0.16076142 -0.040970236 -0.79391503
000050 b6 b0 d6 bf 68 09 8f c0 9f 76 39 c0 ca 37 3a 40
       -1.6772678 -4.469898 -2.897865 2.909655
000060 9f 41 5e bf 2c 42 5e be 76 4d 40 3e bd 8f e1 3e
       -0.8681888 -0.2170493 0.18779549 0.44054976
000070 2f c6 00 3d 07 45 6f bf 48 e6 3e bf 4d ce e8 3d
       0.031439003 -0.934647 -0.7457013 0.11367474
000080 d2 64 85 3d 83 5e 6a 3e d3 34 f4 3d 3f bd 4f 3e
       0.065133706 0.22887616 0.11924138 0.20287035
000090 68 24 63 3e d8 7e 0e be af ce c9 bd 27 07 ff bd
       0.22181857 -0.13915575 -0.09853875 -0.12452536
0000a0 81 dc b1 3e 2d c9 43 3f 8a 09 2f 3f 6e fb 80 bd
       0.34738544 0.76478845 0.6837393 -0.062979564
0000b0 a3 39 53 3d 79 db 2d 3e 98 f5 f8 be 3e 66 c8 bd
       0.05156864 0.16978253 -0.48624873 -0.09785126
0000c0 ad 05 df be 7b cb d2 3e 6a 29 01 be 19 23 14 bf
       -0.43559018 0.41170868 -0.12613454 -0.57866055
0000d0 31 31 c1 be 0f e9 99 be dd 19 d5 be 32 c7 56 3e
       -0.37732843 -0.30060622 -0.41621295 0.20974424
0000e0 b6 70 4a 3e e7 e3 a9 3e d1 e8 c2 3e e1 9c 8d 3e
       0.19769558 0.33181688 0.3806825 0.27658752
0000f0 ee 93 e3 bc 17 d8 ee bc b4 76 f4 be d6 5f ee be
       -0.0277805 -0.029155774 -0.47746813 -0.46557492
000100 3f 01 80 3d 3d e1 a4 bd cf 20 c7 3d 3d 7f 01 3b
       0.06250238 -0.08050773 0.097230546 0.0019759678
000110 d1 74 b0 3d 4b 87 95 be 98 68 93 3e 40 64 96 3f
       0.08616031 -0.29204783 0.28790736 1.1749344
000120 03 a0 73 bd 45 29 65 bf 1f 8f c8 3f 3e a5 a6 3e
       -0.05947877 -0.895161 1.5668677 0.32547945
000130 5a 63 f8 be ae 4d 59 3e 12 46 cb bc 3d 12 67 bd
       -0.485133 0.21221039 -0.024813686 -0.056413878
000140 24 b0 09 3d 67 7a b6 3d 71 7e 01 3b 52 41 17 3c
       0.033615246 0.08910065 0.0019759203 0.009231882
000150 04 bb bb 3d f1 18 43 3d fd b3 2c bd 3c 11 b7 bd
       0.0916653 0.047631208 -0.042163838 -0.08938834
000160 85 5e c0 bc d4 b9 25 3e 07 29 4d 3d 0e df 4b bc
       -0.02348257 0.16184169 0.050087955 -0.012443317
000170 91 7a 57 bd 64 14 9a bd 2b bb c2 bc 38 0b b1 3e
       -0.052607123 -0.075234205 -0.02377089 0.34578872
000180 95 74 c0 3e ff f0 df bc 1a cd 0c be ac f4 84 3e
       0.37588945 -0.027336596 -0.13750115 0.2596792
000190 53 20 f1 bd 05 c3 e6 bd 23 43 9f 3e 6d d4 77 3e
       -0.117737435 -0.11267666 0.3110591 0.24202128
0001a0 6f 8d 85 bd d7 b9 26 bf 8a 77 9f be 7d 55 b4 3d
       -0.06521117 -0.6512732 -0.3114589 0.08805368
0001b0 b9 72 8c 3e 5f 52 a4 3e b0 ac 34 3e d2 90 fd be
       0.27431276 0.32094094 0.17644 -0.49524552
0001c0 c5 07 71 be 54 cf 95 3d a1 dd 8a be d8 e6 1e 3f
       -0.2353812 0.07314935 -0.27122214 0.6207099
0001d0 5f 58 b0 3e 6c f8 ca 3e b9 e0 d8 3e 00 b8 8d bf
       0.34442422 0.39642656 0.4235895 -1.1071777
0001e0 59 77 5a c0 fb 49 c5 bf bc d0 db 3d 27 25 f9 3e
       -3.4135344 -1.5413202 0.10733172 0.48661157
0001f0 db 77 c2 3e 83 c7 09 be 37 2b 07 be d0 9f 15 3d
       0.37982067 -0.13455014 -0.13200079 0.036529362
000200 fa 0b ab 3d d8 1d 56 3c 8f 98 1e be 07 b7 8c bd
       0.08351894 0.013068639 -0.15487884 -0.06870847
000210 4c e8 0f 3e 26 78 7f bd 57 b6 4d 3e 8f a3 8b 3d
       0.14053458 -0.06237044 0.20089088 0.06818306
000220 3f 2a 9a bd 88 7a 93 bc 92 43 e3 3e 43 23 a9 3d
       -0.07527589 -0.018002763 0.4438749 0.08258679
000230 f7 73 20 3f 2c cb 1b 3f 25 12 67 3f b6 7a 91 3e
       0.6267695 0.6085689 0.9026206 0.28413934
000240 99 7d 8e 3d 66 59 d2 be 93 85 99 be 1f 3d 55 3f
       0.069575496 -0.4108383 -0.29984722 0.8329639
000250 e7 15 c2 be 23 a9 fb 3e c8 13 e5 3d fd 98 33 3d
       -0.37907335 0.4915248 0.111854136 0.043847073
000260 74 46 b4 3c 9c 5b 55 bd de 0e d8 bd 7a 12 0f bb
       0.02200625 -0.05208932 -0.10549711 -0.0021831081
000270 05 7e d4 3d da 02 f3 bc 16 03 c2 bd fd d5 6c bc
       0.10375599 -0.029664446 -0.09473245 -0.014455316
000280 78 ff 0e bd 37 9d 2b 3e e4 27 11 3e 28 41 47 bd
       -0.034911603 0.16759191 0.14175373 -0.048646122
000290 46 a8 6c 3d 1e 1f d0 bd bf 25 64 be 4b a8 98 3f
       0.057777666 -0.10162185 -0.22280024 1.1926359
0002a0 e0 10 b8 bf a8 21 16 be 5d f0 4e 3e 6b 98 0f bf
       -1.438015 -0.14661276 0.20208879 -0.56091946
0002b0 f5 f7 f8 3e f3 f9 0d 3f 89 b5 8a 3e ce 34 87 3d
       0.48626676 0.5545952 0.27091625 0.066018686
0002c0 c0 e2 40 3c 73 58 5c 3e 95 cf 9f be 5b 17 a7 be
       0.011772811 0.21518116 -0.3121306 -0.32635006
0002d0 31 e3 97 be c9 89 86 be c8 ec 93 3e 2e 13 c8 3d
       -0.2966552 -0.26276997 0.28891587 0.09769283
0002e0 63 68 90 bd b7 ff b8 bd 8b b5 e3 3d ba b3 af 3e
       -0.0705116 -0.09033149 0.11118611 0.34316808
0002f0 60 36 84 3f 69 28 6b 3f fa 6a f5 be c3 a3 98 bf
       1.0329094 0.91858536 -0.4793318 -1.1924976
000300 da 5e 58 bf 0c b1 6a 3f f0 6c bd 3d 70 4c 24 bf
       -0.8451973 0.916764 0.09249294 -0.64179134
000310 5c ae ab 3e 58 ca 1d 3d ff ca 26 be 95 51 79 bd
       0.33531463 0.03852305 -0.16288374 -0.06086882
000320 39 3b 0b 3e 49 96 b0 3d 42 df 9a be 40 a6 51 3c
       0.1359681 0.086224146 -0.30248457 0.012795985
000330 63 5f e4 3e c9 e4 d2 3d 89 f8 4a be c1 f7 eb be
       0.44604024 0.102975436 -0.19821371 -0.4608746
000340 26 b2 4d 3e f4 30 7c 3f 8d d5 5a 3f 14 58 a6 be
       0.2008749 0.98512197 0.854821 -0.32489073
000350 f8 38 21 be 94 71 d4 be a0 26 1b bf 58 ec 29 3f
       -0.15744388 -0.41492903 -0.6060581 0.66376257
000360 93 f8 0b bf d2 f3 10 3e 19 9f 93 bd a8 8a c6 3e
       -0.5467617 0.1415551 -0.0720808 0.3877766
000370 e3 4b de 3e a1 18 07 be be 7c ce bd f3 fd 50 bd
       0.43417272 -0.13192989 -0.100823864 -0.051023435
000380 e9 8b be 3c 4f 45 ac be 73 ec 82 bf 66 f4 22 be
       0.023260074 -0.33646628 -1.0228409 -0.15913543
000390 f7 fd 2d 3f e7 7e b2 3e e7 ba 3b bf de 85 4e be
       0.67965645 0.34862444 -0.73332065 -0.20168254
0003a0 7f ae 81 3e 08 40 1a 3e e7 0f c0 3e 97 dc 64 3f
       0.25328442 0.15063488 0.37512133 0.89399093
0003b0 ac a8 c9 be 11 d5 d3 bf eb e6 ad bf 14 86 b5 3f
       -0.393865 -1.6549398 -1.3586096 1.4181542
0003c0 5d 03 e2 3f 61 b9 1e be b9 37 21 bd 2a d2 94 be
       1.7657276 -0.15500404 -0.039359782 -0.29066592
0003d0 cd 64 2a 3e 43 90 f9 3e 4c f1 45 3e 22 1d d4 3d
       0.16640015 0.48742875 0.19330329 0.10357119
0003e0 a2 f5 a2 3d 3d 73 fc 3b ae 75 72 be 62 64 fc bb
       0.07957007 0.007704167 -0.23677704 -0.0077023963
0003f0 5d d2 cd bd 54 d0 e7 bd 13 e1 19 3e 48 01 32 3e
       -0.10049889 -0.11319032 0.15027265 0.17383301

0.bias f4 [24]
000000 82 81 90 bf 74 8f ac 40 55 4c bc c0 bf b8 6b 3f
       -1.1289523 5.3925114 -5.884318 0.92078775
000010 38 1e d5 41 1c 9d 34 3e 68 5c 1c 41 87 62 15 c1
       26.639755 0.17638057 9.77256 -9.336555
000020 cf 67 81 40 1c b8 68 bf 62 67 90 c0 01 b3 09 c2
       4.043922 -0.9090593 -4.51262 -34.42481
000030 d6 34 82 41 13 74 8d 41 30 04 4c 40 da 9b 51 c2
       16.275799 17.681677 3.1877556 -52.4022
000040 38 ef 6f 41 0a fd 98 bf 44 0d 01 c0 e4 5b 11 bf
       14.995903 -1.1952221 -2.0164347 -0.5678084
000050 34 bd 6f 41 40 1c 0a c1 8d 99 76 c0 d6 09 cc bd
       14.983692 -8.631897 -3.853122 -0.099628136

2.weight f4 [24, 24]
000000 8b 01 f3 bc ed b0 d6 3b ff e2 40 bd 10 12 0b bd
       -0.029663822 0.006551853 -0.04709148 -0.033952773
000010 45 3d ba bc d4 d4 84 bc 61 a5 57 3e 6d 55 73 3c
       -0.022734294 -0.016214766 0.21059181 0.01485191
000020 85 ac 29 ba 51 89 b7 bd 77 bd a5 3d 9c 26 d4 3b
       -0.0006472546 -0.08961738 0.08092778 0.006474329
000030 98 15 8d bd 63 94 5e 3c 42 a4 c8 bd 56 29 0b be
       -0.06888884 0.013585183 -0.09796955 -0.13589987
000040 50 61 32 bd aa 6e a8 bd 1c 26 ba 3c fe 1d 87 bc
       -0.043549836 -0.082242325 0.02272325 -0.016493794
000050 b7 3c 89 bd c4 4e 09 be 05 4a 66 3f 46 f3 c0 3d
       -0.067010336 -0.13408953 0.89956695 0.09421401
000060 ba 05 5d 3e 82 68 55 be 1f b2 a7 bd 3e 21 a2 3b
       0.21584216 -0.20840648 -0.08188271 0.0049478104
000070 d6 34 d8 bc 90 85 03 be 36 d5 36 bf c3 60 7d 3e
       -0.026392382 -0.12843919 -0.71419084 0.24743943
000080 28 f3 67 3d e6 fd e1 3d d1 1d 37 bd 4e bb e5 bd
       0.056628376 0.110347554 -0.04470617 -0.11217366
000090 8c 2a f8 3e bc 50 23 3e b1 f1 d2 bb e3 0b 71 3e
       0.4846996 0.15948766 -0.0064375033 0.2353969
0000a0 ea 66 fe bd 7c 6e dc be f4 e2 fc 3e 04 da 8c be
       -0.12421973 -0.43053043 0.49391901 -0.27510083
0000b0 26 47 3c 3b 0e 9d bd ba aa 39 8d 3c 56 bb 32 bc
       0.0028728931 -0.0014466362 0.01723941 -0.010908922
0000c0 54 d0 65 be 52 8c 29 be 0c 55 42 bd d3 92 f3 bd
       -0.22442752 -0.16557434 -0.04744439 -0.11893239
0000d0 85 51 4e bd 4c 07 2b bf 88 fb 15 3e 58 bd 8e 3e
       -0.05037071 -0.6680801 0.14646733 0.27878833
0000e0 ac fa e7 bd 3c 83 56 3f a7 70 27 be 0a ed bb be
       -0.11327109 0.83794 -0.16351567 -0.36704284
0000f0 05 df f1 bd b6 f3 28 bf f8 44 ef bc 21 13 01 3f
       -0.11810116 -0.65996873 -0.029207692 0.50419813
000100 71 af 93 be f5 04 7a 3e 45 fc 8d 3d 93 d3 ec bd
       -0.2884479 0.24415953 0.06932882 -0.11563792
000110 50 45 2e 3e 56 6e 96 bc 76 af 59 bd 1a c7 ff 3e
       0.17018628 -0.01836316 -0.05314585 0.4995659
000120 ab 40 de 3d 0e 87 84 be f9 13 ed 3d 3d 50 41 3f
       0.10852178 -0.2588429 0.11576075 0.7551306
000130 08 f9 78 bc 11 b7 2b be 9c 75 39 bf 4f 4a 4a 3e
       -0.015196092 -0.16769053 -0.7244508 0.19754909
000140 e9 37 02 3e 3f 50 c3 bc 12 69 86 3e 5f 3d 80 bf
       0.1271664 -0.023841975 0.26252037 -1.0018729
000150 29 8d ef 3d 7f 39 9a 3d 35 0e 13 be dd 1d 91 39
       0.11696846 0.07530498 -0.14360888 0.00027678805
000160 19 e5 67 3d 11 da 23 3e 76 89 de 3d b4 bd b2 3e
       0.05661497 0.16001154 0.10866062 0.34910357
000170 ad b2 00 3e b7 e6 8a 3c 67 eb 67 bd 04 50 7a be
       0.1256816 0.016955717 -0.05662098 -0.24444586
000180 36 43 bb bf 34 a4 e9 be d3 e9 dd bd 7c 22 4a 3e
       -1.4629886 -0.4563309 -0.10835614 0.19739717
000190 2e b3 3b be 73 cf 0b 3f 40 96 96 be 2c c5 2b bd
       -0.1833007 0.5461342 -0.29411507 -0.041936085
0001a0 27 a9 69 3e eb 75 69 bf a0 40 1c bf 2f a9 71 bf
       0.22818433 -0.91195554 -0.6103611 -0.9439878
0001b0 b5 8a 22 be f7 59 1e bf 96 e0 88 bf a9 98 7e bf
       -0.15873225 -0.61856025 -1.0693538 -0.9945169
0001c0 8a cb d0 be a3 41 08 3e 3d e3 67 3e e0 78 0e c0
       -0.40780288 0.13306288 0.22645278 -2.2261276
0001d0 51 b0 f9 bf cb 20 53 c0 62 c0 af 3e 9b bb 29 3d
       -1.9506932 -3.2988765 0.34326464 0.04143868
0001e0 99 58 cb bd 3e 8c 90 bd f4 2e 4b 3e 51 20 44 bd
       -0.09929008 -0.07057999 0.1984213 -0.04788238
0001f0 1a b9 2c bb b3 30 54 bd aa 6f a8 be f0 8c bf bc
       -0.0026355446 -0.051804256 -0.32897693 -0.023382634
000200 2e fd 4e 3d 4d b0 bc 3c 0b 36 b0 be f4 86 6f be
       0.05053442 0.023033286 -0.34416232 -0.23391324
000210 be 78 94 bd e1 48 5f 3e a2 65 f6 3e 90 6e 98 3e
       -0.07249592 0.21805145 0.48124415 0.29771852
000220 06 5d 38 3e 2f 52 20 3f 40 40 81 bd 19 51 a3 bd
       0.18004236 0.626254 -0.06311083 -0.079744525
000230 d8 d0 9c 3c 48 59 be 3d e7 65 60 3e f6 9d 4d be
       0.019142553 0.09294373 0.21913873 -0.20079789
000240 5d 2f c1 bf e3 c3 f0 bc 64 cb 76 be 4c 51 fd bc
       -1.5092579 -0.029390281 -0.24101025 -0.030922554
000250 12 ad d0 bd 6f a9 8c be 66 dc 97 bd 7e 69 d2 bf
       -0.101892605 -0.27473018 -0.074150845 -1.6438444
000260 56 00 e0 3c 5d a3 15 c0 9c 7a 6e 3f 88 d0 fe be
       0.02734391 -2.338096 0.9315584 -0.49768472
000270 7f f8 c4 3e eb 6d f8 bf ca 4a 60 3d 26 b8 26 40
       0.38470837 -1.9408544 0.054758824 2.6049895
000280 62 9a 09 be 41 4f 89 bd be ce 14 3e 61 37 19 bf
       -0.13437799 -0.067045696 0.14531991 -0.59850127
000290 d2 fd 9a 3d a0 0d 45 3e 66 04 25 bd ed 5f 0c bc
       0.07567944 0.19243479 -0.040287398 -0.008567792
0002a0 a2 f4 91 3c 76 e1 a6 be 41 66 c9 3e c7 f5 a9 3e
       0.017816845 -0.32593888 0.39335826 0.33195326
0002b0 b4 2c 19 be c0 89 af 3e 80 c4 5b 3e 73 e9 6f bd
       -0.14958459 0.34284782 0.21461678 -0.058572244
0002c0 de 87 5d be 18 f1 87 be ba 4e 4a be 94 2f 2f bf
       -0.2163386 -0.26551127 -0.19756594 -0.68431973
0002d0 68 0d 50 3f 35 a8 ef 3e 23 c1 0b bf 73 35 a4 3f
       0.81270456 0.4680802 -0.5459158 1.2828811
0002e0 62 ad c1 be b2 83 6f 3e c1 21 27 3e 14 4c fd be
       -0.37827593 0.23390082 0.1632147 -0.49472106
0002f0 b5 e2 14 3e 49 00 19 3f e1 e0 7f be fa 17 d2 be
       0.14539607 0.5976606 -0.24988128 -0.41033918
000300 91 65 a2 3e 62 27 14 bd 28 4b 11 bd 1f 69 34 3f
       0.31718114 -0.03617037 -0.035472065 0.704729
000310 11 49 11 bd 73 f7 a2 bc 07 78 be 3c bc c0 a8 3a
       -0.035470072 -0.019893384 0.023250593 0.0012874822
000320 53 27 10 be 73 bf ca 3c 69 8b 30 bc b8 f1 68 bd
       -0.14077501 0.024749493 -0.0107754255 -0.056871146
000330 d5 0d 07 be f5 ca 3f 3e b8 1d 0d 3d 1a 3f db 3d
       -0.1318887 0.18729766 0.03445217 0.10705395
000340 58 69 94 3c 33 4f e1 3e ca 9f d4 3e 44 f1 13 3c
       0.018116638 0.44005737 0.4152816 0.00902969
000350 70 6f ba 3b c5 b0 ed 3d a6 16 cf 3d 7a 4a 0d be
       0.005689554 0.11605982 0.10111742 -0.13797942
000360 e8 d3 50 3e 67 ef 79 be a8 a4 eb bf ff 1e ac be
       0.20393336 -0.24407731 -1.8409624 -0.33617398
000370 82 0f d1 bd b7 50 04 be 0e 1d 28 3f a3 e4 77 3e
       -0.10208036 -0.12921415 0.65669334 0.24208312
000380 6a aa 32 3d e4 35 02 3d f2 cc a1 bd 97 8b 8b bb
       0.04361955 0.031789675 -0.07900418 -0.0042585838
000390 88 5b 16 be 1e 07 16 3e 0d 30 2f bf 76 27 7f 3d
       -0.14683354 0.14651152 -0.68432695 0.062293492
0003a0 17 6f 75 be 3e 1d 1f 3f 36 02 58 3e d1 8d aa 3e
       -0.23968159 0.62153995 0.21094593 0.33311322
0003b0 43 c2 51 3d 9b bf 0e bd bd b7 80 be 8f 65 6e 3b
       0.051210653 -0.034850698 -0.2514018 0.0036376452
0003c0 2d e3 d0 bf 63 24 ba 3d 9f 92 9c 3d a1 2c c1 bd
       -1.6319329 0.090889715 0.07645153 -0.094323404
0003d0 ac 9e 7b 3e 8a c2 1c bf 2b 68 04 3e a2 1b 03 c0
       0.24572247 -0.61234343 0.12930362 -2.0485616
0003e0 5f e2 16 be d7 44 99 bf 95 53 a3 3f 23 42 9b bf
       -0.14734791 -1.1974133 1.2759882 -1.2129558
0003f0 6a 04 37 be f9 56 32 be 45 48 b1 bd 89 09 07 c0
       -0.17872778 -0.1741599 -0.086563624 -2.109957

2.bias f4 [24]
000000 cd 17 87 bf 8b 5a 35 40 c9 34 b9 c0 ae e0 ac c0
       -1.0554138 2.8336513 -5.7876935 -5.4024267
000010 7a 43 2a c2 c4 6d 88 bf 03 aa 05 41 dc 8d 7f 40
       -42.565895 -1.0658498 8.354007 3.9930334
000020 bc 98 94 bf 65 a7 ba c0 84 a7 44 40 a8 f3 2f bf
       -1.1609111 -5.832934 3.0727243 -0.68731165
000030 b2 09 92 c0 10 69 93 40 3b 04 8d c0 a4 89 b9 bf
       -4.5636835 4.606575 -4.4067664 -1.449513
000040 94 7e f9 c0 92 93 b3 41 8e 01 a5 c0 36 af 90 c1
       -7.7967014 22.447056 -5.15644 -18.085552
000050 46 35 29 c1 e2 5a 51 c1 88 c4 41 c1 de ff aa c1
       -10.575506 -13.084688 -12.110481 -21.374935

4.weight f4 [6, 24]
000000 62 8f c6 3c f1 61 84 bc 25 35 a4 3c 1b e4 8e bc
       0.024238292 -0.016159983 0.020044873 -0.017442754
000010 50 8b 76 bc e9 2e e7 3d 4b 3b 89 3c 14 1f bd 3c
       -0.015047863 0.11288244 0.016751906 0.023086108
000020 93 91 9b 3b c2 c8 2c bc dd ba e5 bc 95 31 53 bc
       0.0047475784 -0.010545911 -0.028043205 -0.012890239
000030 11 28 b2 3e 54 16 32 be 95 b4 f4 3e 2a 7c 0d bd
       0.34796193 -0.1739133 0.47794023 -0.03454224
000040 3e bf 99 bc 50 7d f8 3d 7d 62 8f bd bd d3 59 be
       -0.01876795 0.121332765 -0.07001207 -0.21272178
000050 e4 27 d0 bd c9 41 83 3e eb bc 3c 3e 00 f0 30 3e
       -0.101638585 0.25636128 0.18431441 0.17279053
000060 9e 61 05 3d cd 0c bf bc 9d 88 23 3d 75 bf 19 3d
       0.032563798 -0.023321534 0.039925206 0.037536103
000070 2f 0e 01 bd 55 44 89 3e 59 ad 2c 3e 7e 5d 99 3d
       -0.031507667 0.26809946 0.16863002 0.07488535
000080 b4 e4 83 3d 35 f5 4e bd 99 23 68 bd 92 ef f7 bc
       0.06440106 -0.050526816 -0.056674574 -0.030265603
000090 04 1a e6 3d e5 2e 90 3e 79 fa 66 3e b0 27 23 bd
       0.11235431 0.28160778 0.22556485 -0.03983277
0000a0 fe 7e 44 bd a8 d5 69 3f 6c d1 0e be 00 f7 39 be
       -0.04797267 0.9134164 -0.13947076 -0.1816063
0000b0 e2 fe b2 be f6 c2 26 3e 02 6e b0 3e a6 ac 20 3e
       -0.34960085 0.16285309 0.3445893 0.1569086
0000c0 7f 6d 10 3d a3 32 81 bc d2 3d 5b 3d 0a 10 85 3e
       0.035260674 -0.015771216 0.053525753 0.259888
0000d0 2b 37 d3 bd b7 12 09 3e a6 78 c3 3e 5e 5f 2b 3e
       -0.10313257 0.13386045 0.38177985 0.16735598
0000e0 a6 f8 8b 3e 55 7b 27 be f8 71 19 be fb 35 93 bd
       0.2733814 -0.16355641 -0.14984882 -0.0718803
0000f0 ca 08 1e 3d 17 9f 7d bc 22 dd e0 bb ad 14 ee bc
       0.0385826 -0.0154798245 -0.0068622986 -0.029062593
000100 12 47 9e bd b2 96 e8 3f d0 13 44 be fa 10 c1 bd
       -0.07728399 1.8170989 -0.19148183 -0.09427066
000110 5b f0 2b bf 27 8e 99 3d 1e 8f 88 3e d9 68 c7 3d
       -0.6716363 0.074978165 0.2667169 0.09736795
000120 c2 0b 45 3d 84 b1 1b be ec 84 be 3d 7c 41 a9 3c
       0.048106916 -0.15204436 0.093026966 0.020661108
000130 6c 2b ae be 12 c0 03 3d 5b f4 ff 3e 76 39 85 3e
       -0.34017503 0.032165594 0.49991116 0.26020402
000140 63 d3 7f 3e 8a d7 9b 3e f8 aa 93 be 65 33 13 3e
       0.24982981 0.3043788 -0.28841376 0.14375074
000150 af 9d 9b 3c 33 b1 99 bd 20 38 78 bb ba 52 94 bd
       0.018996088 -0.07504501 -0.003787525 -0.07242341
000160 11 01 f5 bd 77 e3 96 3f 17 23 60 be 99 f8 23 bd
       -0.11963094 1.1788167 -0.21888386 -0.040032003
000170 6e b0 b1 be 43 3a 0c 3d 67 2d 06 3e c3 f3 65 3d
       -0.34704918 0.03423525 0.13103257 0.056140672
000180 7f ee 10 3e 17 2a 54 3e 92 02 93 3d f7 d3 99 bc
       0.14153479 0.20719181 0.071782246 -0.01877783
000190 6e 49 1d bf 22 80 8b 3c aa 4c 08 3f 6b e1 4e 3e
       -0.6144017 0.017028872 0.5324198 0.20203178
0001a0 a4 47 90 3d 96 f9 95 bd a6 64 c2 be b2 84 b5 3e
       0.07044914 -0.07322995 -0.37967414 0.354528
0001b0 72 59 44 3c db b5 94 ba de ed f4 bc 54 a3 40 bd
       0.011984216 -0.0011345701 -0.02989858 -0.04703076
0001c0 86 0a ba bd 4a 6d e2 3e 69 65 48 be 58 75 15 bc
       -0.090840384 0.44224006 -0.19569935 -0.009122215
0001d0 48 2d ab bd 1b cc 65 3b 36 ee 82 3d c8 fd 2c 3d
       -0.08358246 0.0035064283 0.063930914 0.042234212
0001e0 d2 5e ce 3e 6a bb 2e bd f8 61 3a 3d 44 8c cf bc
       0.40306717 -0.0426592 0.045503587 -0.025335439
0001f0 fa 0d 11 bf 09 95 de 3a 52 a5 c8 3e 6e c7 10 3e
       -0.5666195 0.0016981672 0.3918863 0.14138576
000200 97 89 1f 3c 3b c0 fe bc b1 c4 be be 03 e7 3b 3d
       0.009737394 -0.031097522 -0.3725944 0.045874607
000210 2d d0 78 3c ef 84 44 3c 3f 25 06 3c 94 0e 7e 3e
       0.015186352 0.011994584 0.008187591 0.24810249
000220 d9 de 15 3d b9 c7 45 3e 50 6a 0d be 8a 65 23 bc
       0.036589477 0.1931447 -0.13810086 -0.009972939
000230 18 08 36 3c 35 8d e1 3b af 55 f6 3b 71 8d 23 3d
       0.011110328 0.0068832883 0.0075175385 0.03992981

4.bias f4 [6]
000000 eb 24 ed 3e 31 62 b9 3e c2 f7 9b 3e a8 05 8b 3f
       0.4631723 0.36207727 0.30462462 1.0861101
000010 ee 80 a3 3f 46 97 cc 3f
       1.2773721 1.5983665
